scripts/models/pg/reinforce_run_5.pth (torch, 76888 bytes, 6 tensors)

fc1.weight f4 [128, 12]
000000 e4 00 86 3e 55 bc 37 be eb e9 bb be d1 ba c5 3d
       0.26172554 -0.17942937 -0.36701903 0.09654773
000010 86 3b 24 3e 68 4d 1a be 79 ff 31 be 3f 88 3d be
       0.16038331 -0.1506859 -0.17382611 -0.18509005
000020 73 01 15 3e 49 2e fb 3d d6 9a fa bd 83 49 a6 3d
       0.14551334 0.122646876 -0.12236564 0.0811949
000030 f5 7a fd 3c 75 d1 a1 3d 8e d3 65 be 66 4c 76 3e
       0.03094242 0.07901279 -0.22443983 0.24052581
000040 da 22 00 be 4f 98 56 3e 90 cd c8 bd 33 74 3e 3e
       -0.12513295 0.20956539 -0.09804833 0.18599014
000050 35 9d 4e be 6a 44 40 3e d8 8b 8a bd 08 16 58 be
       -0.20177157 0.18776098 -0.06764954 -0.21102154
000060 98 ea 90 bd 27 4c 90 3e 76 e8 80 be b6 76 dd bd
       -0.07075995 0.281831 -0.25177354 -0.10813658
000070 34 c1 8c bd 14 47 31 3e 5e fd 89 3e d0 8c 82 be
       -0.06872788 0.1731227 0.26951116 -0.25498056
000080 fb 1d 6e 3e 4a 5c 10 be c7 e4 fc bc 61 2d d1 3d
       0.23253624 -0.14097705 -0.030870808 0.102137335
000090 1a 86 5a be 75 c3 71 be a4 87 76 3d 2f f1 87 be
       -0.21340218 -0.23609717 0.06018795 -0.26551196
0000a0 d9 dd 54 3e c2 72 a6 3e 7b 75 fb bd 54 5a d0 3e
       0.20787753 0.32509428 -0.12278267 0.40693915
0000b0 dc 6e 6f 3e a3 9c 5c bc 72 8c fa bd ba 0c 15 3e
       0.23382133 -0.0134650795 -0.12233819 0.14555636
0000c0 b1 41 87 3e df dc 1a be f4 ad 8f be 85 68 76 bd
       0.26417306 -0.15123318 -0.28062403 -0.06015827
0000d0 40 38 35 3e 56 c8 43 be 8c 6d 59 3e 62 f6 51 bd
       0.17697239 -0.19119391 0.21233195 -0.05126036
0000e0 a7 0a d9 3d 74 89 83 be 50 b6 18 3e b2 86 22 3e
       0.10597735 -0.25690806 0.14913297 0.15871695
0000f0 96 11 1f 3d 98 84 e8 bc ee fb 92 be db d6 8f be
       0.03883513 -0.028383538 -0.28707832 -0.2809361
000100 1e 2f f4 3d cd 7a 81 bd 0c 7e 24 bd c6 fc 1f be
       0.119230494 -0.063222505 -0.04015927 -0.15623769
000110 c4 fb b9 3e 68 19 39 3e b3 ba 94 3c f8 50 5c be
       0.36324894 0.18076098 0.018155431 -0.21515262
000120 18 90 83 3e 8f b8 a9 3d 17 93 f6 3d 3e ed 49 be
       0.25695872 0.08287155 0.12039774 -0.19719407
000130 a9 c8 86 be 5f 32 3d 3d 30 3c 9d 3d d4 71 95 be
       -0.26324967 0.046190616 0.076774955 -0.29188406
000140 f4 b5 90 3e 11 39 04 3d 47 cf 17 be 26 e3 81 3e
       0.2826382 0.032280985 -0.14825164 0.25368613
000150 9a 7f 95 be 58 ee 01 3e 24 18 67 be 35 33 10 3e
       -0.29198915 0.12688577 -0.22567803 0.14082034
000160 82 58 16 bb 98 db 72 3d 49 bb 47 3a 0d 37 b4 be
       -0.0022940938 0.059291452 0.0007619155 -0.3519825
000170 08 d1 83 bd bc 50 57 3e 4e c5 9c bc d0 6b d8 bd
       -0.06436354 0.21026891 -0.019137051 -0.105674386
000180 77 d2 b3 3c 18 b0 93 3e 46 3e 66 be 38 7a 2e 3c
       0.021950943 0.28845286 -0.22484693 0.010649256
000190 55 e2 5a 3e 84 5b 7b bd a3 f3 09 be e2 26 90 be
       0.21375401 -0.061366573 -0.13471846 -0.28154665
0001a0 d2 59 92 3d e7 a6 30 bd 03 7e 01 3e 43 d4 fb bd
       0.07146038 -0.04312792 0.12645726 -0.12296345
0001b0 b6 6a 90 be 95 f4 c6 3c 5a d7 e4 bd 86 2b 79 3e
       -0.28206414 0.024286548 -0.111738876 0.24333009
0001c0 bb e4 4e 3e b1 8d 1e 3e 47 f1 6d bd db a7 83 3e
       0.20204441 0.15483738 -0.058091428 0.25714
0001d0 0b 8c 54 3e aa 91 3b 3e 8b a8 7a bd 39 93 f6 bd
       0.20756547 0.18317285 -0.06119589 -0.12039799
0001e0 c1 1a 6f be b5 ec 00 be 2b 73 50 3e de 2b 08 3e
       -0.2335005 -0.12590297 0.20356433 0.13297984
0001f0 6e 3e 8e be a9 87 88 3d a4 9f 8d be af 8f d1 3e
       -0.27782005 0.066665 -0.2766086 0.40929934
000200 5a 9c 8b be ef 3c 85 3e a1 7f 8f 3e 5d bd 69 3e
       -0.27267724 0.2602305 0.2802706 0.22826143
000210 58 5b 56 3e 5c 13 3e be bc 38 48 be 33 5d 55 3e
       0.20933282 -0.18562073 -0.19552892 0.20836334
000220 cf 72 ed bc d8 6e 95 be 02 c8 ee bc de 48 4f bd
       -0.028985409 -0.2918613 -0.029148106 -0.0506066
000230 53 ec 9d bd 1d 6d 89 3e aa aa 3a 3e 47 b6 06 3e
       -0.07711091 0.2684106 0.18229166 0.13155471
000240 0c c3 86 be 63 bf bb bd 81 ff 16 3e b7 6d 55 3d
       -0.26320684 -0.091673635 0.14745905 0.052106585
000250 07 8f 19 bd 46 7d 80 bd d5 43 7a 3e 88 76 28 be
       -0.037489917 -0.06273894 0.24439938 -0.16451466
000260 53 14 fa bd 98 b7 ce 3d c9 2c 2e be 15 57 fa bd
       -0.12210908 0.100936115 -0.17009272 -0.12223641
000270 a6 85 84 be 74 61 99 3d 24 36 ae bd 23 27 87 be
       -0.25883216 0.07489291 -0.0850642 -0.26397046
000280 06 cf 7c be 60 e4 1d be fa b7 f8 3d 0a 91 7c bd
       -0.24688348 -0.1541915 0.12144466 -0.061661758
000290 f8 30 57 bc 39 72 af 3d 8a ef 51 be 5a f1 d5 bc
       -0.013134234 0.08566708 -0.20501533 -0.026116062
0002a0 c0 56 29 3e b1 ba 93 3d 5d ea 00 3e 01 c7 ba 3c
       0.16536999 0.07213343 0.12589402 0.02279997
0002b0 5e 9f ac 3d 48 a8 ad 3d a5 20 0f be c2 7e bb 3e
       0.084288344 0.08479363 -0.13977297 0.36620146
0002c0 90 64 62 3d bd 98 4b 3e 24 54 c8 3d 38 01 58 3d
       0.055271685 0.19882484 0.097816736 0.052735537
0002d0 9a b7 35 3e c6 45 17 3e ee 05 f7 3c 73 93 33 be
       0.1774582 0.1477271 0.030154195 -0.17536716
0002e0 53 33 ca 3d 29 ba 22 3d e1 cf 51 3e 4e f5 c5 bd
       0.098730706 0.039728317 0.20489456 -0.09665929
0002f0 5a f9 42 be c1 18 a5 bd 6a 63 43 3e a6 63 d6 3d
       -0.19040433 -0.08061362 0.19080892 0.10468225
000300 d5 dc 1a 3e 48 34 5c be 36 bc aa bd 94 7f 84 bd
       0.15123303 -0.21504319 -0.0833668 -0.06469646
000310 90 1a 87 3d 9a 8c ca 3d 3e f1 57 3d 1a ac 61 be
       0.06596863 0.09890099 0.0527203 -0.22038308
000320 7d ea 57 bd b1 e9 5e be 32 5d 07 bd eb 1b 3b 3e
       -0.05271386 -0.21768834 -0.033047862 0.18272369
000330 a7 fe 1e 3e c6 b4 15 3e 04 e6 12 3e 80 a0 91 bd
       0.1552683 0.14619741 0.14345556 -0.07110691
000340 63 b8 32 3e c3 1b 4d 3c 1f ef 72 bd 77 f3 a3 be
       0.1745315 0.012518826 -0.059310075 -0.32021686
000350 b5 59 76 be 78 9d 43 3e 49 11 e6 bc 48 ac bc bc
       -0.24057658 0.19103038 -0.028084414 -0.023031369
000360 0f aa 13 be 69 34 92 be 9f d3 80 3d df 8e 29 be
       -0.14420341 -0.2855561 0.062903635 -0.16558407
000370 a6 da 1d be c8 6e 9c 3d 47 62 ee bc 16 e5 23 bd
       -0.15415439 0.07638317 -0.029099597 -0.040013395
000380 08 4a 79 be a8 12 6c be d1 26 9d 3c f3 ea 65 3c
       -0.24344647 -0.23053992 0.019183548 0.014033067
000390 74 49 78 be c9 c5 89 bc c2 7e ba bc 1c 02 0a 3e
       -0.2424677 -0.016817944 -0.022765521 0.13477367
0003a0 99 4d 42 3e 48 0c 95 3d 91 30 08 be 5c af c5 3e
       0.18974914 0.07277733 -0.13299777 0.3861035
0003b0 7e 19 3c be 96 6b 12 be f5 8a 01 3e 2f fa be 3d
       -0.183691 -0.14298853 0.12650664 0.093250625
0003c0 db 38 2f 3d 8e bf 8d 3e 12 63 bd bb 14 f4 eb 3d
       0.04277883 0.27685207 -0.0057796324 0.115211636
0003d0 cc 0d b9 3d d9 9f 93 3e 6b ee 5b 3e 9e 71 84 bc
       0.09035835 0.28832892 0.21477668 -0.016167458
0003e0 de ac a8 bd 50 58 0a 3e 85 da 90 3e 7d cc db 3d
       -0.08236097 0.13510251 0.28291717 0.107323624
0003f0 83 66 dc 3c c0 b3 2c 3e 85 f8 9d 3c d1 2e 65 be
       0.02690435 0.16865444 0.019283542 -0.2238114

fc1.bias f4 [128]
000000 75 5a 95 3e 66 1a e0 bd e9 cc 58 be d9 0b 80 3e
       0.29170576 -0.10942535 -0.21171917 0.2500904
000010 4b 51 1d be fb 36 06 3e ae f3 62 3e 92 80 41 3e
       -0.15363042 0.13106911 0.22163269 0.18896702
000020 7c a0 32 bd 3f 22 be bd cf 4e 81 3e af 51 9a 3e
       -0.04361008 -0.09283876 0.2525544 0.30140445
000030 b1 77 74 3e 06 cc 84 be a0 25 49 be 29 5a 2c 3e
       0.23873784 -0.25936908 -0.19643259 0.16831268
000040 0b 8e 43 be 8c cf 59 be 49 92 cf 3d db db f7 3c
       -0.19097154 -0.21270579 0.101353236 0.030256202
000050 50 7b 81 3e 7d 80 2d 3e bc 85 b9 3e 93 b0 a2 bd
       0.25289392 0.16943546 0.36234844 -0.07943835
000060 2c 65 ea bd 92 ed 69 bd 1c 06 50 be 10 99 50 bd
       -0.11445078 -0.05711133 -0.2031483 -0.05092722
000070 5a 67 96 3e b4 a1 b1 3c 33 f0 a8 3d ee a0 dd bb
       0.29375726 0.021683551 0.08248939 -0.006763569
000080 ff c5 30 bd 24 a3 00 3d ae a1 a0 3e 26 58 c8 3d
       -0.043157574 0.031405583 0.31373352 0.09782438
000090 9e 25 2d be 9d 1e e8 bb f8 17 fe bd 5d 3a 9e 3d
       -0.16908881 -0.0070837275 -0.124069154 0.07725976
0000a0 48 f2 64 3e ee 5a ea 3d c6 56 1a 3d d1 69 88 bd
       0.22358048 0.11443125 0.03768041 -0.06660808
0000b0 5f 0a 5e bd 93 82 55 3e bf 0f 88 be 22 a2 9b 3d
       -0.05420911 0.20850591 -0.26574513 0.07599284
0000c0 13 54 17 be 5b 2f b2 3e ad c8 5e bd ba f7 39 be
       -0.14778166 0.34801754 -0.054390598 -0.18160906
0000d0 1d a8 99 3d 6c 77 ab bc f2 0d 51 be 8c 79 2e 3e
       0.07502768 -0.020930968 -0.20415476 0.17038554
0000e0 30 f0 28 3e 36 88 e9 3d 98 82 77 3e e9 42 b1 3d
       0.16497874 0.11402933 0.24170911 0.0865534
0000f0 57 e7 31 3e f0 7a f0 3d 88 19 1c 3e ce 96 91 3d
       0.17373405 0.117421985 0.15244114 0.07108842
000100 86 a5 73 3e 2e 2e d2 3b ca 74 19 3e da 1b 35 3e
       0.23793611 0.0064141965 0.14985958 0.17686406
000110 7a 8f 2b 3e 88 60 08 3e e1 5c d8 3d 25 ce 96 3e
       0.1675395 0.13318074 0.1056459 0.2945415
000120 91 14 58 3e ed fe bc 3c d4 6a 23 3d 32 45 e8 bc
       0.21101595 0.023070777 0.0398968 -0.028353307
000130 5a cb 8e be da f7 59 3e 39 31 20 bd 14 60 68 be
       -0.2788952 0.21285954 -0.039109442 -0.22692901
000140 b4 a7 b5 bd 7a 29 37 be 01 af af 3e 94 42 ae 3e
       -0.088698775 -0.17886916 0.34313205 0.3403517
000150 7f 86 f0 3b dd 83 46 bd 31 e1 03 be 34 a8 8f be
       0.007340252 -0.0484656 -0.12878872 -0.28058016
000160 83 b2 84 be 04 a9 88 be 5e 3d b1 3e 4d c1 3a 3e
       -0.25917444 -0.2669145 0.34617132 0.18237801
000170 c5 9c eb bd 1b f2 9e 3e 50 bc bb 3d 82 a6 40 3e
       -0.11504511 0.31044087 0.09166777 0.18813518
000180 8a 4e c6 bd ba 84 a5 be 9c 6b 93 3e df a6 38 be
       -0.09682949 -0.32327825 0.28793037 -0.18032406
000190 36 7e 5c be 12 44 8c be cd 8a bb bd 7b 43 c6 bd
       -0.2153252 -0.27395684 -0.091573335 -0.0968084
0001a0 8f ce 93 3e 86 d0 28 be de 95 67 be d0 1a 4e be
       0.2886853 -0.16485795 -0.22615764 -0.20127416
0001b0 48 f8 6e 3e a8 17 30 be ec c7 4c 3e 1c d4 14 be
       0.233369 -0.17196524 0.19998139 -0.14534038
0001c0 5d d6 07 3e 0a 3e 24 3e 13 90 88 3e 27 b7 85 bd
       0.13265367 0.16039291 0.2667242 -0.06529074
0001d0 28 a0 bd 3d 55 17 ce 3d d8 54 58 3e fe 3c e5 bd
       0.09259063 0.10063044 0.21126115 -0.11193274
0001e0 f2 fc 42 be 0d 47 1d bd 46 af 61 3c 92 ff fa 3d
       -0.19041803 -0.038397837 0.013774699 0.122557774
0001f0 cc 6c 97 bc 99 b3 8d be f2 53 2a be e3 b0 28 3c
       -0.018484496 -0.27676085 -0.16633585 0.010296079

fc2.weight f4 [128, 128]
000000 79 fb 81 3b 1f 05 8b 3a e2 01 89 3d af ee 29 bd
       0.0039667455 0.0010606385 0.06689812 -0.041487392
000010 72 5d e6 3d 7a 51 6a 3c c5 6d 8f 3c 60 09 94 3d
       0.11248292 0.014301652 0.017508397 0.07228351
000020 3d d7 a7 3d ed 48 71 bd 57 f1 4c bd 0b a2 e1 3d
       0.0819535 -0.058907438 -0.050034847 0.11017235
000030 e6 91 37 3d ff f1 aa bd 7c 89 c0 bd 91 79 b7 3d
       0.044816874 -0.08346938 -0.09401223 0.08958734
000040 dc 26 82 ba 53 43 49 bd e7 f1 f0 3d 88 ba 2e bd
       -0.0009929794 -0.04913647 0.11764889 -0.04265836
000050 02 5a e3 3d 0f 26 b8 3c 3f 48 71 3d 9c 38 26 bd
       0.11101152 0.022479085 0.05890679 -0.04058133
000060 da 37 47 3d ca 5e cc 3d fe 1a cb bc f8 6a d5 3b
       0.04863725 0.09979017 -0.024793144 0.006512996
000070 c3 c9 e8 3d 81 85 90 3d f7 3d 55 bc 2b 82 01 3e
       0.11366608 0.07056714 -0.013015262 0.12647311
000080 b1 71 c0 3d 2a d8 3b 3e 29 b2 de 3d 84 97 1a 3e
       0.09396685 0.18344179 0.10873825 0.15096861
000090 80 8a 71 ba e9 a7 15 3e 14 bb 80 3c 74 7c b7 3d
       -0.00092140585 0.14614834 0.015714206 0.089592844
0000a0 48 69 b0 3d 40 6b 3b 3b 1f c6 e9 3c 4c 1d dd 3c
       0.08613831 0.0028597862 0.028536854 0.026991509
0000b0 00 69 d3 3d 00 16 d7 3d ff 0b 40 3d d1 27 cc 3d
       0.103227615 0.10502243 0.04688644 0.09968532
0000c0 e0 91 6c 3d 67 53 55 3d b1 7b 0b bc 04 65 cd bc
       0.057756305 0.05208149 -0.008513377 -0.025072582
0000d0 e7 fe 94 3c e4 2c cc 3d aa af 7d bc 62 8e a0 3c
       0.018187953 0.099695 -0.015483776 0.019599143
0000e0 ed 4f 98 3b 8f 83 3e 3e 98 87 93 3d 24 84 aa 3d
       0.0046482 0.18604873 0.07203597 0.08325985
0000f0 7e be b8 3d f4 1d b7 3d 80 fc 33 bd 37 d3 08 3e
       0.090207085 0.0894126 -0.043941975 0.13361822
000100 5f 40 9a bc 5d 9b 35 bd f3 5e a9 3c ad 3b bf 3d
       -0.018829523 -0.04433762 0.020675158 0.09337554
000110 e3 65 f8 3d 8d 89 6a 3d be 48 00 be 78 51 e5 3d
       0.12128808 0.057260085 -0.12527749 0.111971796
000120 1d 64 b8 3b fe 20 85 bd 51 a0 cd 3c e7 51 73 3d
       0.005627169 -0.065004334 0.025100859 0.05940428
000130 b5 58 ac 3d 9e 7f ee 3c ae 30 8b bd 42 10 17 3c
       0.08415357 0.029113587 -0.06796394 0.009220185
000140 2f 04 45 3d ed d0 b0 3d 99 3d 69 3d 65 e5 28 3d
       0.048099693 0.086335994 0.05694351 0.041234393
000150 c8 03 a4 3d 47 e3 33 bd ce ff 92 3c 46 7d 6a 3d
       0.08008534 -0.04391792 0.017944243 0.057248376
000160 f2 b9 6a 3d 30 66 55 3c c6 6a 36 3d fc 57 a5 3d
       0.057306238 0.013024852 0.04453542 0.08073422
000170 25 fe 0d 3e 0c 09 bf 3d 9c b8 50 bd d7 db be 3d
       0.1386648 0.093278974 -0.050957307 0.09319275
000180 fa c8 59 3d 3a 67 5d bd 4b 9b 89 3c 09 ba d6 3d
       0.05317018 -0.054053523 0.016797682 0.10484702
000190 dc 7f 96 3d 98 1f 48 3d 5d 43 05 be 8e ca bb bd
       0.07348606 0.048858255 -0.13013978 -0.091694936
0001a0 03 64 fc 3d 03 d4 b1 3c 72 98 79 bd cc 0a 3b 3c
       0.12323763 0.02170754 -0.0609364 0.011416148
0001b0 b0 0c 18 3d 58 11 ce 3d 31 ac dc 3d a5 60 9d bc
       0.037121475 0.10061902 0.107750304 -0.019211123
0001c0 4f 7b 1f 3d ea ed 1b bc 8f af e5 3d 9a 74 02 be
       0.038935956 -0.009517172 0.11215126 -0.12739792
0001d0 2c c9 7b 3c 7b db e2 3d c6 d6 a0 3d 71 2b 85 3c
       0.015367787 0.11077019 0.07853465 0.016256066
0001e0 24 4c a2 bc 74 6a 8a 3d 18 ca 12 3e a4 48 3b 3d
       -0.019811697 0.067585856 0.14334905 0.045723572
0001f0 e2 14 de 3c 80 f1 82 bd 9d 3c 93 bd 69 f3 b0 3d
       0.027109567 -0.06393719 -0.071892954 0.08640177
000200 1a f0 5e 3c 83 15 75 3d fb 1b 86 bd d9 33 99 3c
       0.013607049 0.05983497 -0.065483056 0.01870148
000210 95 be 0c bd 07 58 a4 3c 84 c0 a9 bc a2 ba 9a bc
       -0.03436144 0.020061506 -0.020721681 -0.018887822
000220 f4 75 44 bd 78 a8 74 3d c4 b6 b5 bd 6c 60 fa 3c
       -0.04796405 0.059730977 -0.088727504 0.030563556
000230 aa 3f ce 3c 40 32 0c 3d 37 12 bf bc e4 e8 90 bc
       0.025176842 0.03422761 -0.023324115 -0.017689176
000240 40 1a e9 3c 17 ec 62 bd af e4 84 bb c0 ea 2a 3d
       0.0284549 -0.055400934 -0.0040555815 0.04172778
000250 b9 5e 95 bc 3f 2e 8c bd 08 04 c4 3c e6 b7 18 bb
       -0.018233644 -0.06844758 0.023927703 -0.0023302971
000260 6e c8 8c bd 4a b9 49 3d 53 d7 9a bd 3f 15 78 bd
       -0.068741664 0.04924897 -0.07560601 -0.060567137
000270 3e ab 83 bc 40 ac 68 3d fd b8 4e bd d7 0b 9c bd
       -0.016072866 0.056804895 -0.050469387 -0.07619446
000280 2d 69 55 bd 91 6b a9 bc 8d 73 1b bd eb 6d b5 bd
       -0.052102257 -0.020681174 -0.037951995 -0.08858856
000290 8f e1 ae 3d b3 cc b7 bb 54 0b 5a bd ee 12 80 bd
       0.08539116 -0.005609119 -0.05323346 -0.062536106
0002a0 c5 a9 0a 3d 70 e1 8a 3c a9 c2 2e 3b ef 76 77 bd
       0.03385331 0.0169532 0.002666632 -0.06041616
0002b0 a2 02 8b bc e5 51 a8 bd 7e 93 b2 bd f0 a8 88 bb
       -0.016969029 -0.08218745 -0.08719538 -0.0041705295
0002c0 c0 d0 e4 bc 9f 53 13 3d df a0 fa bc a4 38 85 3d
       -0.027931571 0.03596842 -0.030594287 0.06504944
0002d0 82 b5 54 3d 6a 14 2a bd 4b b3 fd 3c 71 15 0b bc
       0.05193091 -0.041523375 0.030969283 -0.008488999
0002e0 3d d1 f0 bc 4d 30 08 bd 4e e6 54 bd d5 a4 4b 3d
       -0.029396648 -0.03324919 -0.05197745 0.049717743
0002f0 df f1 a8 3d dd 2c 04 3d 0f fe 0c bd 13 ad 42 ba
       0.08249258 0.032269347 -0.034421977 -0.0007426303
000300 66 65 ab bc 3b 1f 56 3d b3 6e 8c 3b b5 57 89 3d
       -0.020922374 0.052275877 0.0042856573 0.06706182
000310 36 27 14 3d c2 0c 92 bc cc 1f d7 bc 74 2d 91 3c
       0.036170207 -0.017828349 -0.02626028 0.017721869
000320 1f ff df bb 6a ab 86 bd b5 a1 60 bd e8 f0 b0 bd
       -0.0068358327 -0.065756634 -0.054841716 -0.08639699
000330 06 f7 7b 3d 28 ae cb 3c 98 c6 b5 bd 79 39 86 bd
       0.061514877 0.024863318 -0.088757694 -0.06553931
000340 f2 18 81 bd 60 ac 05 bd b2 bf 1b bd ce c5 a6 bd
       -0.06303586 -0.032635093 -0.03802461 -0.08143197
000350 03 c4 a6 3b c3 5e 6f 3b d0 ec b3 bd c0 05 98 3b
       0.0050892844 0.0036524988 -0.08785403 0.0046393573
000360 cf cb 98 3d c6 f8 75 bd 5e d8 b0 bc 16 5c d9 3c
       0.074607484 -0.060051702 -0.021587547 0.026533168
000370 ad 0d 18 bd 29 16 49 bd 69 f4 b9 3b 20 69 47 bc
       -0.037122417 -0.0490934 0.005674888 -0.01217106
000380 ba 52 69 bd a0 28 fe bb b8 bc 36 bd f1 8a a4 bb
       -0.05696366 -0.0077563077 -0.04461357 -0.005021446
000390 3c 59 37 3d 17 bc 3c 3d 79 58 e2 bc 8b 76 a6 3b
       0.044762835 0.046077814 -0.027630078 0.0050800494
0003a0 1c 21 b3 bd b2 66 7f bd 7a 4b 1f 3d e1 36 15 3d
       -0.087465495 -0.062353797 0.03889034 0.03642929
0003b0 b3 81 32 3d db 54 c3 3c 02 72 85 3b cb 2c eb bc
       0.043580722 0.023844173 0.0040724287 -0.028707882
0003c0 2b 5b 9e bd be c0 36 bd d1 8d 58 3d d1 f5 a3 3d
       -0.07732233 -0.044617407 0.05286962 0.0800587
0003d0 27 18 e6 3c 07 07 53 bd 1c 7f 1f 3d c0 6a 54 3c
       0.028087689 -0.051520374 0.03893958 0.012964904
0003e0 0e 10 3d bd d3 3f ad bc 32 fe ad bd e5 43 91 3d
       -0.04615789 -0.021148598 -0.084957495 0.07093028
0003f0 cd c2 9f 3d 60 82 f2 3b f5 8f 68 bd e5 84 a9 3d
       0.07800827 0.007400796 -0.056777913 0.08277301

fc2.bias f4 [128]
000000 79 ff 1e 3e 72 3d 05 bd 62 0f ed bb 80 85 0f bc
       0.15527143 -0.032529302 -0.0072345 -0.008759856
000010 3c a2 88 3d f3 76 a5 bd c0 14 14 bd e5 a8 48 bd
       0.06671569 -0.080793284 -0.0361526 -0.048989195
000020 79 68 be 3b eb de 6e bd 30 6c 05 3e 51 95 ff 3d
       0.005810794 -0.05831806 0.13029552 0.12479652
000030 f2 4e a9 bd b5 0c c6 3c 34 c9 42 bd e4 f3 91 bd
       -0.08267011 0.024175981 -0.047555164 -0.071265966
000040 d7 7e ef bb 27 7e 87 3d db 21 01 bd f8 a3 1c 3d
       -0.0073088217 0.066158585 -0.031526428 0.03824231
000050 78 16 d7 3d c2 54 71 bd 89 e8 9b 3d ec 92 40 bd
       0.105023324 -0.058918722 0.07612712 -0.047015116
000060 94 08 79 bd 8b 2f 6f bd a2 e8 28 3d d1 a9 b5 bc
       -0.060799196 -0.05839495 0.04123748 -0.022175701
000070 d1 b1 a7 bd 0a 61 62 bd 0c c3 1b 3d 04 3b d6 3c
       -0.08188213 -0.055268325 0.038027808 0.026151188
000080 d1 c0 a6 bd 0f 26 ca bd a2 e5 e3 3c d4 f3 5f 3d
       -0.081422456 -0.0987054 0.027819458 0.054675892
000090 da c0 b0 3b 05 50 8c 3d d9 c4 19 3d da 0a 93 3d
       0.0053940834 0.068512 0.037541244 0.07179804
0000a0 c4 ca 14 3e c0 58 1c bc c4 52 17 3c ab be 78 bd
       0.14530474 -0.009542644 0.009236041 -0.06072871
0000b0 04 fa 07 3b 16 dc bb bc ac bf 88 3c f6 61 01 3e
       0.0020748386 -0.022932094 0.016692959 0.12635025
0000c0 45 5d b7 3d a6 f9 22 bd 54 9b 88 ba fb 3e 9a 3c
       0.089533366 -0.039788865 -0.0010422268 0.01882886
0000d0 fd a5 52 bd 88 74 19 3c 21 0c 43 bd 7e 0e a6 bd
       -0.05142783 0.009366162 -0.04761899 -0.08108233
0000e0 2c 0f c0 bc c3 b0 26 bd 2a 21 ab bd 45 80 6f 3d
       -0.023444735 -0.040695917 -0.08355935 0.058471937
0000f0 9f 63 94 bd b1 a8 19 bb c8 f1 37 3d 28 e3 16 bd
       -0.07245564 -0.0023446495 0.044908315 -0.036837727
000100 c5 18 ab bd ec 0e dc 3c 73 cd 36 bd 99 71 85 bb
       -0.08354334 0.026862584 -0.044629525 -0.00407238
000110 6c 36 3f 3d d4 c3 7a bd 8e 85 36 3d 74 23 bf bd
       0.04668276 -0.061221913 0.04456096 -0.09332934
000120 a9 0e 40 3c 1a 22 bb 3d 3c f7 4d 3c d6 6b 51 3d
       0.011722245 0.09137364 0.012571152 0.05112823
000130 47 99 59 3d 36 ea a3 3c 4c 7b c4 3d bb 7d 0b bc
       0.053124692 0.020009141 0.095938295 -0.008513863
000140 c6 9c 82 3d 44 a7 c7 3a 2c da 23 3d 1a 1b a0 3d
       0.063775584 0.0015232344 0.040002987 0.07817669
000150 16 7d d5 3d 2b b1 2c 3e 55 87 90 3d 98 b6 59 3d
       0.10424249 0.16864459 0.070570625 0.05315265
000160 3e 92 2a 3d b4 2c d0 3c 37 8c 68 bd e8 4e b9 bd
       0.041643374 0.025411941 -0.056774344 -0.09048253
000170 7c bc 1c 3d 7b e4 80 bd e8 f0 b0 bd 75 b8 a7 bd
       0.03826569 -0.06293579 -0.08639699 -0.08189479
000180 a5 81 74 3d 1d 04 b8 bd 47 9c 05 3d a3 44 11 bc
       0.05969395 -0.089851595 0.03261974 -0.008866462
000190 df eb d7 3d 01 c0 09 bd 0f d0 3e 3d 65 7f 9f 3d
       0.10543036 -0.033630375 0.04658514 0.077879705
0001a0 10 d0 7f 3d dd 23 c1 3d a5 9d c9 3c 63 76 a4 3d
       0.062454283 0.094306685 0.024611304 0.08030393
0001b0 cf f5 dc 3c b2 5d dd 3c 8d d1 6b 3d d8 0e 01 bc
       0.02697268 0.027022216 0.05757289 -0.007877074
0001c0 bb f3 c5 3d 50 31 8b 3d da c6 d7 3d 04 35 8d 3d
       0.096656285 0.06796515 0.10535975 0.068948776
0001d0 2f 9c 53 3d eb b1 b0 3d 36 2b ff 3d c1 3d 86 3d
       0.05166262 0.08627685 0.12459414 0.065547474
0001e0 3d ff 63 3d d9 6f 0a 3d 1c d2 8b bd 74 6a f4 3d
       0.055663336 0.033798072 -0.068271846 0.11934367
0001f0 fc a1 cc bc 89 4f d1 bc 46 91 a4 bd ef 40 6c b9
       -0.024979584 -0.02555062 -0.08035521 -0.00022530904

fc3.weight f4 [3, 128]
000000 08 b5 e7 3d fd 37 b0 3c 24 51 2f 3d 5b b4 1b 3e
       0.11313826 0.021511072 0.04280199 0.15205519
000010 f4 de 31 be a5 76 5a be f1 7d 58 3d be da a7 bd
       -0.17370206 -0.21334322 0.052854482 -0.08196019
000020 e2 50 af bd 0c ed d0 3c 21 56 c2 3d d8 27 26 3e
       -0.08560349 0.025503658 0.09489084 0.16226137
000030 82 8a 1c 3d c7 ef 05 3e f7 08 0a bd 95 93 a5 3d
       0.03821803 0.13079749 -0.033699956 0.0808479
000040 53 0c 01 bc ad b3 a4 3d 50 0c 29 3e 20 cd a5 bd
       -0.0078764735 0.08042083 0.16508603 -0.08095765
000050 cb 4d bb 3b 42 fd 70 3d e7 cd 44 bd b7 9e 67 be
       0.0057160608 0.058835275 -0.048047926 -0.22619139
000060 b6 03 ae bd 97 1f c2 bb 40 ed 0f bc 47 47 c2 3b
       -0.084968016 -0.005924176 -0.008784592 0.005928907
000070 42 41 08 bd 32 93 01 3c 26 89 e3 3a 36 61 6d 3d
       -0.03326536 0.007908629 0.0017359599 0.057954036
000080 5f db 8d bd 7d 5c 31 be 83 5a 0b be f7 60 dd bd
       -0.06926607 -0.17320438 -0.13608746 -0.1080951
000090 45 4d 20 bd 23 1b 81 3c 09 32 05 3d ba b8 9a 3c
       -0.03913619 0.01576001 0.03251842 0.018886913
0000a0 fa 20 bf 3d 3a 4b 91 bd f7 ad 33 bd 9d e3 1d bc
       0.09332462 -0.070944265 -0.043867078 -0.009636787
0000b0 90 ed 8e bc f6 87 17 3d b7 b8 1b bd e9 15 11 3e
       -0.017447263 0.036994897 -0.038017955 0.14168514
0000c0 cd 8c 81 bd b4 f4 26 bc fe ad 35 be 25 a6 eb 3d
       -0.06325684 -0.010190178 -0.17742154 0.11506299
0000d0 82 6c 13 be 70 93 0f be 65 4e 80 3d a0 a4 18 be
       -0.14396861 -0.14021087 0.062649526 -0.1490655
0000e0 bb d4 3c bc 13 85 8d bc 88 61 d9 3a 1f 70 1b 3e
       -0.011525328 -0.017275369 0.0016584853 0.1517949
0000f0 5a 00 29 be 16 7f 0b 3d d1 fc 67 bd 25 3c 55 3d
       -0.1650404 0.034056745 -0.05663759 0.05205931
000100 05 2e f3 bd df 61 1f bd 76 bc 9c 3d 6d cd 63 bd
       -0.11874012 -0.038911697 0.076531336 -0.05561583
000110 58 01 97 bd 8a 46 6f bd d1 e8 0e 3c ac 09 af bc
       -0.07373303 -0.05841688 0.0087225 -0.021366917
000120 d9 3f fa bd 01 1f 0f 3e 72 b6 e0 bc 65 fc f1 3c
       -0.12219209 0.13976671 -0.027430747 0.029539296
000130 12 df 2c bd d7 c8 64 bd e6 d6 8d bd 1d ce b8 bc
       -0.042204924 -0.0558556 -0.06925754 -0.02255922
000140 ad 15 26 bd 36 63 98 3d 6b 6c 46 3d 00 b9 9a 3d
       -0.040548015 0.07440798 0.04844324 0.07554817
000150 c1 b8 5a 3e b5 1c 42 3d 1f 6a a0 3d bc d7 26 3e
       0.2135954 0.04739066 0.07832741 0.16293234
000160 30 5c ef 3d 9b b7 43 3d a6 0c 69 3d b3 ef 1a be
       0.11687505 0.04778252 0.056896828 -0.151305
000170 82 df 05 3d 65 44 ff bc b0 62 40 3d b8 0b da bc
       0.032683857 -0.031160543 0.046969116 -0.026616916
000180 b1 59 3d be 3c 76 3e 3c 58 d2 5b 3d 6d 1b fd bd
       -0.18491246 0.011624869 0.053667396 -0.12358747
000190 7f 5f 0f 3e d9 46 a0 bc 8b 98 ec 3d d5 2d c4 3c
       0.14001273 -0.019565033 0.11552533 0.023947636
0001a0 8b 7a f3 bc 45 13 8c 3d 5a d0 92 3c 9b 12 24 3e
       -0.029721519 0.06839613 0.017921615 0.16022722
0001b0 36 0d a4 bc a9 0b 19 bd d1 10 88 3c 26 27 50 3d
       -0.02002583 -0.037364636 0.016609581 0.050818585
0001c0 88 3e 14 3a 6e 7e 49 3d de ba 87 3d b2 3d 68 3d
       0.000565507 0.04919284 0.06627439 0.056699462
0001d0 00 98 d0 3d 37 2f e2 3c 54 59 0a 3e 44 39 cf bd
       0.10185242 0.027610404 0.13510638 -0.101183444
0001e0 39 30 36 be 33 bd 0d be ad 04 9d 3d b5 61 03 3e
       -0.17791833 -0.13841705 0.076669075 0.12830241
0001f0 23 e0 94 3d a3 df 0f be 73 32 85 3d 89 af 8e 3d
       0.07269313 -0.14050154 0.06503763 0.069670744
000200 cc db b6 bd 0a 45 3b 3c 39 8f 06 bd 27 43 33 be
       -0.08928642 0.011430034 -0.03285143 -0.17506085
000210 cf bd b6 3c ec 9c 6a bd b1 98 8c bd eb 1a 0b be
       0.022307305 -0.05727856 -0.06865061 -0.13584487
000220 5f 1b 18 3d ca 45 05 bc 7b 76 15 be eb d4 94 bd
       0.037135478 -0.008134315 -0.14595978 -0.072671734
000230 a0 2b 74 3d 98 cc 1d be 37 fa 8a 3d 30 40 a1 bd
       0.059611917 -0.15410078 0.06786006 -0.07873571
000240 46 9c 13 be 84 2a c2 3c b7 b0 a5 bd e4 6a 92 bc
       -0.14415082 0.023701914 -0.08090346 -0.017873235
000250 c6 d3 a1 bd 5e 3e 5a 3d 16 2d c0 bc 21 d5 0c 3d
       -0.07901721 0.053282134 -0.023458999 0.034382943
000260 d8 95 26 3c a3 06 d4 3b c8 9a 02 bd 16 1d 2f be
       0.0101675615 0.0064705177 -0.031885892 -0.17100939
000270 34 ea 72 3c a3 70 6d 3d 32 db b0 bd 34 21 5e 3d
       0.014826346 0.057968747 -0.08635558 0.054230884
000280 f8 a7 1e 3c 99 a1 6a bb 21 6e 14 bd 0b 6a b4 bd
       0.009683602 -0.0035801886 -0.03623784 -0.088092886
000290 29 a5 84 bd 81 b6 92 3d e3 b9 64 3c 57 c9 98 3d
       -0.06476814 0.07163716 0.0139603345 0.074602775
0002a0 7e f6 18 be 1f c6 d4 bd a8 7b 77 3d 84 8d 2d bc
       -0.1493778 -0.10389351 0.060420662 -0.010592822
0002b0 73 af 1e bd 07 64 13 be 4f 1f 51 3d 79 42 bf bd
       -0.03874154 -0.14393626 0.05105525 -0.093388505
0002c0 0f 48 c4 bd 5e 2d 1c 3c 4d 5b 43 3c 84 52 fc bd
       -0.095840566 0.009532301 0.011923623 -0.12320426
0002d0 6c 5d 03 bd 8a b7 8f bc 9f 65 ad bc 85 70 ba bd
       -0.032071516 -0.017543573 -0.02116662 -0.09103493
0002e0 c3 ca 24 be a7 39 cb bd 6b 37 0a b9 32 0e 1f be
       -0.16092972 -0.09923106 -0.0001318135 -0.15532759
0002f0 77 08 6b bd bd a8 5b 3d d5 dc b9 bd 18 b2 18 3d
       -0.05738112 0.05362772 -0.090753235 0.03727922
000300 4e c4 a9 3c 1b c8 aa 3c e4 f0 7d 3c 91 68 62 bd
       0.020723488 0.02084737 0.015499327 -0.055275504
000310 b3 80 95 3d 9a 95 a6 bc 45 7d bb ba a9 3c 21 3d
       0.07299938 -0.020335007 -0.0014304301 0.03936449
000320 58 c7 65 bd e0 bc 0c be 96 7d fa bc a3 a6 03 be
       -0.056098312 -0.13743925 -0.030577462 -0.12856536
000330 ea eb fb bc e0 6d 05 3c 36 b5 fd bd cc 79 8a 3d
       -0.030752141 0.008143872 -0.12388079 0.06761512
000340 9e 5f bd bd 2a d7 7e bc ff 01 ca 3c 49 8f dd bd
       -0.09246753 -0.015554229 0.024659155 -0.10818345
000350 8a e1 e6 bd 6f 13 3d be 94 9e d5 3c e9 fe 29 be
       -0.11273487 -0.18464445 0.026076593 -0.16601147
000360 7c 36 c0 bc 22 70 af 3b 10 ea f5 3c 81 94 c0 bd
       -0.02346348 0.0053539434 0.030018836 -0.09403325
000370 29 78 6b 3d c8 7a 5d bd 5d b2 a9 3c 0d e7 6f bd
       0.05748764 -0.05407217 0.020714933 -0.058569957
000380 b2 7a 86 3b 7e 44 0b bd 30 59 8e 3d 5c db 18 bd
       0.004103982 -0.034000866 0.06950605 -0.037318572
000390 b8 b0 09 be 28 8f 61 3b ac 55 15 be 64 88 83 3d
       -0.13446319 0.0034417603 -0.14583462 0.06422499
0003a0 a4 44 0f 3d 3b e5 98 bd 9b 3a a9 3c 86 13 db bd
       0.03497757 -0.07465597 0.020657828 -0.10697083
0003b0 84 a7 db bc db fb 35 3d ab fe 84 bd a1 ca b4 bd
       -0.026813276 0.04442964 -0.064938866 -0.08827711
0003c0 19 9b 07 be 9b f1 7c bd 98 67 10 be 8c 92 1f bd
       -0.13242759 -0.06175385 -0.14102018 -0.038958117
0003d0 98 4d 2e be a1 1b 06 bd e5 c3 0c be eb 20 c1 3c
       -0.17021787 -0.032741193 -0.13746603 0.023575267
0003e0 10 e8 73 bd 31 ed 02 bc 2e 89 6a 3d 5c 5b 6e bd
       -0.059547484 -0.007991121 0.05725973 -0.058192596
0003f0 6c 7b a7 3c 69 87 ed 3b 4e 69 bc 3d db 1d 23 be
       0.020444594 0.007248808 0.09199773 -0.15929358

fc3.bias f4 [3]
000000 00 3e 35 bc 23 bf de bd e7 0f 78 bc
       -0.011062145 -0.108763 -0.01514051
