scripts/models/pg/reinforce_run_10.pth (torch, 76898 bytes, 6 tensors)

fc1.weight f4 [128, 12]
-0.19529353 -0.07837264 0.037611574 0.06104338 0.1745264 0.098403186 -0.28378433 -0.27241036
0.2673726 -0.21839166 -0.23931389 -0.13344862 0.13002865 0.08928032 0.19272678 -0.14300564
0.082869016 0.33317634 0.21065803 0.31314567 -0.16221902 0.088450424 -0.276783 -0.17718105
-0.30916557 0.023893423 -0.21757953 -0.099694476 0.124363646 0.31842756 0.16626924 0.3799751
0.13322249 -0.10732204 0.114969574 -0.26457092 -0.15833817 -0.05144276 0.012113919 -0.12676921
-0.2577284 -0.20686564 -0.18289395 0.19619232 -0.06824454 0.14695902 0.2564953 -0.15826614
-0.14696081 0.015462579 -0.14642163 -0.04007976 0.19532809 -0.20785347 -0.06482541 -0.22456393
0.053860806 0.25781968 0.14425495 0.08728372 0.10345186 -0.07872029 -0.03031593 -0.07772068
-0.10901953 0.038980544 -0.052448716 -0.102213666 -0.22656845 0.08349656 -0.06833338 0.029522926
0.14206855 -0.13143268 -0.19558233 0.05500825 0.21036455 -0.0019645593 0.14985721 0.037617557
-0.2094266 -0.08315704 -0.22618604 0.24871752 0.084996775 -0.25295582 0.18927257 0.26562557
-0.14430048 -0.16084735 0.23215863 0.36132783 -0.19910397 -0.15122023 0.25209436 0.24320312
0.101792075 0.085494556 -0.22591573 0.19563532 -0.12268901 0.12526062 -0.22290982 0.060874578
-0.012824505 -0.09827412 0.22069804 0.08658443 -0.228827 -0.19577426 0.27923244 -0.012294464
0.21704783 -0.022068858 0.24959436 -0.19739242 0.30340797 -0.14548115 -0.09347853 -0.13010882
0.3249922 0.23040146 -0.24083602 -0.19932975 -0.17283559 0.12232468 0.11608403 -0.1339513
0.07090304 0.10073085 0.32851535 -0.20311017 0.28341037 -0.060420353 -0.019319575 0.17932124
-0.080664136 -0.036543988 -0.20668845 0.30671793 0.14191031 0.20724227 0.07237969 0.15129776
-0.2329012 0.25143853 0.19048257 0.05071021 0.3138078 -0.24741718 0.11905843 -0.039547276
0.18133762 -0.26808965 0.21231861 -0.052683298 0.27014107 -0.12442821 0.029361706 -0.0006514452
0.08137156 0.0059530954 0.2516349 -0.041668106 0.17607734 0.2740457 0.0045637903 -0.10545667
-0.26810095 0.0436548 -0.068655156 0.21038169 -0.024428967 0.30964857 0.0782055 -0.080496736
-0.087469 0.012574043 -0.062794544 -0.07373878 0.1001576 -0.1648458 -0.057526287 -0.1255809
-0.09724922 0.06819426 0.075508036 0.38095427 -0.13406603 -0.0635545 0.07293608 0.25483292
0.11879349 0.21572387 0.2543916 -0.085168906 0.033705752 -0.060489573 0.22627036 -0.108865716
-0.03627613 -0.16510037 0.19002542 0.021413999 0.05759232 -0.014879542 -0.05801931 -0.098435745
-0.04514989 -0.020047551 -0.13476026 0.34930742 -0.12251505 -0.07965928 -0.12999618 -0.18180506
0.17327064 0.24343064 0.24520764 0.09388019 -0.039917853 -0.18289833 0.1479228 0.21501926
-0.050203256 0.18119805 -0.027406331 -0.23610865 -0.21370964 0.055787787 0.26790008 0.27554974
0.2056045 -0.170349 0.24854325 0.2056578 -0.0097041745 -0.13437457 -0.18330412 0.031306114
-0.27369952 0.032807436 0.13618056 -0.05059085 -0.2577535 0.1220056 -0.070085816 0.040005367
-0.09277664 -0.009607331 -0.16061307 -0.03504591 0.093689986 -0.08333748 0.11556525 0.023506366
00000000: 07fb 47be d681 a0bd 980e 1a3d a008 7a3d
00000010: 0cb7 323e 9c87 c93d 2e4c 91be 5f79 8bbe
00000020: 10e5 883e 10a2 5fbe b30e 75be c1a6 08be
00000030: 3b26 053e 9ad8 b63d 2b5a 453e 1270 12be
00000040: 3bb7 a93d 1796 aa3e bdb6 573e a154 a03e
00000050: be1c 26be 7f25 b53d 80b6 8dbe f36e 35be
00000060: f34a 9ebe 24bc c33c 2bcd 5ebe 9e2c ccbd
00000070: 5eb2 fe3d f008 a33e 7c42 2a3e 198c c23e
00000080: 7a6b 083e a8cb dbbd 2b75 eb3d d775 87be
00000090: 6723 22be a5b5 52bd 7579 463c cacf 01be
000000a0: faf4 83be 96d4 53be 8d48 3bbe a4e6 483e
000000b0: cbc3 8bbd 6d7c 163e 5a53 833e 8510 22be
000000c0: e57c 16be c256 7d3c 8def 15be ad2a 24bd
000000d0: 1604 483e 8ad7 54be 2fc3 84bd 16f4 65be
000000e0: 269d 5c3d f100 843e 92b7 133e cfc1 b23d
000000f0: 92de d33d 1a38 a1bd 1d59 f8bc 052c 9fbd
00000100: a245 dfbd 10aa 1f3d 77d4 56bd 6655 d1bd
00000110: 8f01 68be 3f00 ab3d 5ff2 8bbd 10da f13c
00000120: 6b7a 113e 4a96 06be bc46 48be 5550 613d
00000130: ce69 573e d6bf 00bb 2b74 193e de14 1a3d
00000140: ed73 56be 3d4e aabd 509d 67be ceaf 7e3e
00000150: ca12 ae3d 6d83 81be abd0 413e 1300 883e
00000160: 81c3 13be 2bb5 24be feba 6d3e f6ff b83e
00000170: e9e1 4bbe 7ad9 1abe 8312 813e 3d0a 793e
00000180: 5d78 d03d c517 af3d 7456 67be a054 483e
00000190: 6044 fbbd 5244 003e 7942 64be 9f57 793d
000001a0: df1d 52bc f143 c9bd abfe 613e 2d53 b13d
000001b0: a051 6abe 0c79 48be 8ef7 8e3e b86e 49bc
000001c0: c941 5e3e c0c9 b4bc aa95 7f3e 3d21 4abe
000001d0: 4a58 9b3e 03f9 14be ac71 bfbd 3f3b 05be
000001e0: 6165 a63e 5cee 6b3e b89d 76be 191d 4cbe
000001f0: d0fb 30be 5d85 fa3d 77bd ed3d 882a 09be
00000200: 9d35 913d fa4b ce3d 2a33 a83e 1dfc 4fbe
00000210: 2a1b 913e 557b 77bd 1644 9ebc fd9f 373e
00000220: 3d33 a5bd 26af 15bd 23a6 53be 220a 9d3e
00000230: f050 113e 5137 543e ce3b 943d cded 1a3e
00000240: a77d 6ebe 8dbc 803e dd0d 433e 82b5 4f3d
00000250: 6aab a03e ee5a 7dbe e8d4 f33d 53fc 21bd
00000260: 92b0 393e 0c43 89be 0d6a 593e 71ca 57bd
00000270: ee4f 8a3e 38d4 febd f687 f03c bfc5 2aba
00000280: 22a6 a63d 2f12 c33b 4ad6 803e 2dac 2abd
00000290: 9e4d 343e b84f 8c3e d98b 953b abf9 d7bd
000002a0: 8744 89be 60cf 323d 139b 8cbd 4c6e 573e
000002b0: 421f c8bc 428a 9e3e 352a a03d 79db a4bd
000002c0: f222 b3bd 5c03 4e3c 6d9a 80bd 5c04 97bd
000002d0: 6e1f cd3d 56cd 28be afa0 6bbd 4898 00be
000002e0: 992a c7bd 6fa9 8b3d f5a3 9a3d 700c c33e
000002f0: 9b48 09be dd28 82bd 835f 953d 7679 823e
00000300: 004a f33d b8e6 5c3e 9e3f 823e 096d aebd
00000310: 0b0f 0a3d eac3 77bd 6bb3 673e fdf4 debd
00000320: 4796 14bd 1210 29be 0696 423e 696c af3c
00000330: ede5 6b3d 53c9 73bc a8a5 6dbd ae98 c9bd
00000340: 17ef 38bd c33a a4bc 98fe 09be 6cd8 b23e
00000350: 2ce9 fabd 6824 a3bd b81d 05be 1b2b 3abe
00000360: dc6d 313e e245 793e b617 7b3e 4244 c03d
00000370: e780 23bd b349 3bbe 1379 173e 022e 5c3e
00000380: eea1 4dbd fb8b 393e 3e83 e0bc 77c6 71be
00000390: b3d6 5abe bc81 643d 332a 893e db14 8d3e
000003a0: fc89 523e f86f 2ebe 1f82 7e3e f597 523e
000003b0: 42fe 1ebc 7d99 09be 13b4 3bbe d73a 003d
000003c0: 5822 8cbe 1761 063d eb72 0b3e 5a38 4fbd
000003d0: 44f8 83be 12de f93d 2789 8fbd abdc 233d
000003e0: ae01 bebd 1168 1dbc c177 24be 4d8c 0fbd
000003f0: 89e0 bf3d d7ac aabd 79ad ec3d 6c90 c03c

fc1.bias f4 [128]
-0.1518189 0.08348214 0.0024238438 -0.12044152 0.087106176 0.12470998 -0.17553082 -0.012708368
-0.20864348 0.0731362 -0.043504592 0.19828069 -0.07375206 0.31472 0.26646608 0.035171498
-0.20259355 0.24353825 0.07779593 0.055874534 -0.011523879 -0.13704464 0.20182322 -0.122726716
-0.053719107 -0.0453716 0.29334134 0.24655637 0.12947729 0.22645639 -0.047052726 0.20384915
-0.089595996 0.0043853866 0.23653395 -0.039396323 0.29053178 0.1496464 -0.14077687 0.019741474
0.111751385 -0.30749464 -0.15893564 -0.11473465 -0.2038784 -0.020928793 0.20623809 0.12281753
0.24445808 0.08967552 -0.21981816 -0.18012252 0.3034432 0.27200064 -0.05929996 -0.15393293
-0.23465407 0.25062025 -0.0006413211 0.1427913 0.34509167 0.20805554 -0.086290166 -0.25640586
-0.22220737 -0.21990192 0.08710414 0.3009015 0.29946232 0.013445882 -0.040253974 0.08388018
0.1518543 -0.082398444 -0.024392936 0.10404124 0.073210984 -0.053710505 -0.1617756 0.3418531
-0.09986725 -0.24121206 0.09949764 -0.07342952 0.01139297 -0.10227281 -0.26475006 -0.035309676
-0.15848257 -0.18289064 0.2589446 0.16083552 0.26599944 -0.019037038 -0.083177686 -0.11204093
-0.2398137 0.15866311 -0.20189415 0.04297078 0.18428758 0.19657476 -0.20347783 0.00654912
-0.105213046 -0.06960855 0.24978964 0.16134152 -0.034543853 0.21784484 0.07564409 0.15902953
-0.052324362 -0.26367885 -0.07776385 0.32275224 0.17532633 -0.11132334 -0.18627457 -0.18546605
-0.16015525 -0.14210697 0.26535562 -0.05427437 0.04511477 -0.14600438 0.1481898 -0.0062216846
00000000: 6a76 1bbe aff8 aa3d 5ad9 1e3b 0baa f6bd
00000010: b964 b23d f267 ff3d 5abe 33be c236 50bc
00000020: a3a6 55be 6fc8 953d df31 32bd 180a 4b3e
00000030: 520b 97bd fb22 a13e 3e6e 883e fd0f 103d
00000040: af74 4fbe 1762 793e 7953 9f3d b2dc 643d
00000050: a7ce 3cbc 6e55 0cbe bfaa 4e3e 2558 fbbd
00000060: 9108 5cbd 92d7 39bd d630 963e 4679 7c3e
00000070: b295 043e 2fe4 673e 5cba 40bd d5bd 503e
00000080: 1b7e b7bd 4ab3 8f3b f535 723e 0a5e 21bd
00000090: 95c0 943e e83c 193e d027 10be dfb8 a13c
000000a0: e9dd e43d f06f 9dbe 06c0 22be 00fa eabd
000000b0: 80c5 50be dc72 abbc 1430 533e c287 fb3d
000000c0: 3853 7a3e cda7 b73d 0318 61be 0a72 38be
000000d0: e85c 9b3e ab43 8b3e 84e4 72bd 98a0 1dbe
000000e0: 2849 70be 4c51 803e 551e 28ba e237 123e
000000f0: dbaf b03e 830c 553e e6b8 b0bd a147 83be
00000100: 548a 63be f82d 61be a863 b23d c30f 9a3e
00000110: 2053 993e 1e4c 5c3c 5ae1 24bd 5fc9 ab3d
00000120: b27f 1b3e 84c0 a8bd b2d3 c7bc 9313 d53d
00000130: a4ef 953d 8cff 5bbd 81a8 25be 5f07 af3e
00000140: 3387 ccbd 4b00 77be 6bc5 cb3d 3762 96bd
00000150: 94a9 3a3c 6874 d1bd 528d 87be e1a0 10bd
00000160: 4149 22be af47 3bbe 6394 843e 11b2 243e
00000170: 1431 883e 90f3 9bbc 1059 aabd b775 e5bd
00000180: b991 75be 9578 223e 57bd 4ebe 2102 303d
00000190: e2b5 3c3e e54a 493e 7e5c 50be 009a d63b
000001a0: f079 d7bd ed8e 8ebd dbc8 7f3e b636 253e
000001b0: db7d 0dbd b812 5f3e 4aeb 9a3d a3d8 223e
000001c0: 1252 56bd ea00 87be a742 9fbd c83f a53e
000001d0: bf88 333e 7efd e3bd c3be 3ebe d0ea 3dbe
000001e0: bdff 23be 7d84 11be b1dc 873e cd4e 5ebd
000001f0: 44ca 383d 2c82 15be 11bf 173e 46df cbbb

fc2.weight f4 [128, 128]
-0.032398134 0.006165599 0.020365838 -0.043283094 -0.027223345 0.027527422 -0.071441196 0.0747085
0.0009952337 -0.08239763 0.043343354 -0.04302593 0.04237763 0.030694515 -0.019577252 -0.01886886
0.06512981 0.05158854 0.034088217 0.04499551 -0.069974355 0.023667015 -0.08025071 -0.011024274
0.07399702 0.07843829 -0.01986195 0.010802471 -0.06864825 -0.07130773 -0.004140161 0.022284305
0.08173924 -0.04982573 0.052052923 -0.035852443 -0.027948456 -0.08364211 0.07712617 -0.037466157
-0.041107655 -0.046477668 -0.060458228 0.02290828 -0.08584922 -0.045734618 0.04636181 0.024697121
-0.03474741 0.05727789 0.065701224 -0.015571415 -0.07987096 -0.031473644 -0.027344536 -0.07622419
0.030390203 0.011369569 -5.2954547e-05 -0.008929223 -0.084578894 0.03816745 -0.0106726345 -0.08224281
0.057657324 -0.034227148 -0.053880867 -0.006909261 0.082288705 -0.00455261 -0.023945628 -0.09031183
0.026047878 -0.025782354 -0.05485946 -0.07887789 -0.020249337 -0.013383672 -0.067969225 -0.086935446
-0.08506061 -0.013054783 0.08178241 -0.01076936 -0.028307205 -0.0765025 -0.07665057 0.05453921
0.06288505 -0.034308262 0.070171766 -0.07044315 0.048806302 0.07840345 -0.08392728 0.07221975
-0.048445527 -0.04945489 0.07419721 -0.07931872 -0.06819851 -0.04568509 -0.022598475 -0.03329692
0.044124 -0.023823995 0.055030502 -0.05889664 0.011550622 0.0052214265 0.07409086 -0.027929576
0.074911125 0.017551117 -0.061019786 -0.064836025 0.008483593 0.019876696 -0.025266878 -0.0427759
-0.011927307 -0.03142353 -0.052650627 0.054089822 0.067001395 0.04322224 -0.05269167 -0.0073012025
-0.04759651 0.04837488 0.0778558 -0.04384716 0.0073592896 0.0689004 0.044896312 0.047916155
0.0245283 0.008425643 0.07491419 0.05110582 0.07636032 -0.009362171 -0.016274037 -0.04469793
-0.033522867 -0.087316535 -0.026235566 -0.08496136 -0.017254643 -0.025107292 -0.0221304 0.016182903
-0.08760102 0.079730675 -0.0135135865 0.007910735 0.044390988 -0.07928134 -0.08387767 0.019966146
-0.06252408 -0.02969112 0.05969732 0.06552083 -0.057952173 -0.08933668 -0.061254244 -0.055956837
-0.02261962 0.08624289 -0.047331847 0.020722993 -0.004508497 -0.06802338 -0.09205397 -0.049964152
0.030842215 -0.07193163 -0.08636258 -0.054113295 0.03501808 -0.083135344 0.018024996 -0.08584394
-0.015118057 -0.080939755 -0.031696163 -0.0012111225 -0.006602359 -0.04401325 -0.07732193 0.07388453
-0.046857767 -0.020292973 0.0294757 -0.017679553 0.062249716 0.078160964 -0.043868206 -0.062483586
0.03182527 0.009891069 -0.02375364 -0.0022924151 -0.03524077 -0.04827136 0.03860543 -0.04734953
-0.007953752 -0.06962473 -0.0940345 -0.06670152 0.03604138 -0.014263582 -0.085208684 0.052790884
-0.022814173 -0.034818053 0.054600485 -0.005421647 0.038336817 0.03402218 0.00040636212 -0.03885326
-0.056778926 0.05213572 -0.0024956884 0.06437868 -0.04615438 0.06862307 0.063918166 -0.024351828
0.030396549 0.05318521 -0.06776861 -0.017268566 -0.028299028 -0.05201009 -0.041381355 -0.08761972
-0.09427546 -0.04039886 0.051553346 0.07388971 0.06769463 0.075282864 0.079905756 0.06690389
-0.04962494 0.059556343 0.04522183 0.028072182 -0.09013164 0.060674824 0.04360993 0.024382511
00000000: e8b3 04bd cb08 ca3b 42d6 a63c 9d49 31bd
00000010: 7e03 dfbc 3081 e13c c34f 92bd c500 993d
00000020: 8072 823a 17c0 a8bd cd88 313d f53b 30bd
00000030: 2a94 2d3d 1073 fb3c 7960 a0bc de92 9abc
00000040: c762 853d 814e 533d 16a0 0b3d 364d 383d
00000050: b74e 8fbd 54e1 c13c 7c5a a4bd 289f 34bc
00000060: c08b 973d 41a4 a03d 87b5 a2bc d9fc 303c
00000070: 7497 8cbd ca09 92bd 30aa 87bb 938d b63c
00000080: e766 a73d 1116 4cbd 7235 553d 03da 12bd
00000090: 29f4 e4bc 8e4c abbd 53f4 9d3d 1d76 19bd
000000a0: 8060 28bd 5e5f 3ebd 0ca3 77bd 25aa bb3c
000000b0: b7d1 afbd 3954 3bbd e2e5 3d3d 9e51 ca3c
000000c0: 4d53 0ebd 399c 6a3d 5d8e 863d 401f 7fbc
000000d0: 6393 a3bd 82ea 00bd a601 e0bc 6e1b 9cbd
000000e0: e0f4 f83c 6e47 3a3c 831b 5eb8 e04b 12bc
000000f0: b337 adbd 7955 1c3d 46dc 2ebc eb6e a8bd
00000100: 162a 6c3d c431 0cbd 2fb2 5cbd 1567 e2bb
00000110: fb86 a83d 102e 95bb 9f29 c4bc 69f5 b8bd
00000120: 5c62 d53c 8435 d3bc 50b4 60bd bb8a a1bd
00000130: f0e1 a5bc 3047 5bbc 7333 8bbd 360b b2bd
00000140: 4234 aebd bbe3 55bc 897d a73d f871 30bc
00000150: 83e4 e7bc 58ad 9cbd f9fa 9cbd 8264 5f3d
00000160: e1c9 803d d286 0cbd 37b6 8f3d 8044 90bd
00000170: 1ee9 473d fd91 a03d 11e2 abbd f3e7 933d
00000180: d16e 46bd 3691 4abd b5f4 973d da71 a2bd
00000190: a9ab 8bbd 4a20 3bbd 7020 b9bc 5a62 08bd
000001a0: 5ebb 343d 8a2a c3bc aa67 613d 9a3d 71bd
000001b0: d23e 3d3c 8018 ab3b f3bc 973d 91cc e4bc
000001c0: 016b 993d 5cc7 8f3c e2ef 79bd c0c8 84bd
000001d0: c5fe 0a3c 74d4 a23c 7cfc cebc c835 2fbd
000001e0: c06a 43bc f6b5 00bd 2fa8 57bd 4a8d 5d3d
000001f0: 0738 893d ce09 313d 38d3 57bd ed3e efbb
00000200: 8ff4 42bd bd24 463d dd72 9f3d 1499 33bd
00000210: 3226 f13b a71b 8d3d 32e5 373d bb43 443d
00000220: 93ef c83c b50b 0a3c 9c6c 993d 5654 513d
00000230: cd62 9c3d cb63 19bc 2151 85bc 2d15 37bd
00000240: 464f 09bd 03d3 b2bd f8eb d6bc 3900 aebd
00000250: 9c59 8dbc cfad cdbc d04a b5bc 0292 843c
00000260: 2a68 b3bd d649 a33d 1768 5dbc 079c 013c
00000270: 53d3 353d 415e a2bd 0ec8 abbd 0b90 a33c
00000280: a00c 80bd cb3a f3bc 2d85 743d c92f 863d
00000290: 425f 6dbd 26f6 b6bd bbe5 7abd ff32 65bd
000002a0: c84c b9bc 1da0 b03d 0adf 41bd 44c3 a93c
000002b0: 04bc 93bb d84f 8bbd cb86 bcbd 36a7 4cbd
000002c0: d0a8 fc3c e450 93bd ddde b0bd e7a5 5dbd
000002d0: 1e6f 0f3d dd42 aabd 28a9 933c f3ce afbd
000002e0: bab1 77bc bec3 a5bd d6d3 01bd 87be 9eba
000002f0: 9a58 d8bb 3d47 34bd f65a 9ebd c650 973d
00000300: eeed 3fbd 733d a6bc 0677 f13c b6d4 90bc
00000310: 8ff9 7e3d db12 a03d 26af 33bd caee 7fbd
00000320: 375b 023d 260e 223c fe96 c2bc 583c 16bb
00000330: a058 10bd 31b8 45bd ba20 1e3d 95f1 41bd
00000340: 7450 02bc 6997 8ebd 2995 c0bd ce9a 88bd
00000350: 20a0 133d cdb1 69bc e481 aebd 413b 583d
00000360: cae4 babc 609d 0ebd c2a4 5f3d 12a8 b1bb
00000370: 1107 1d3d d75a 0b3d 000d d539 9924 1fbd
00000380: 0591 68bd 448c 553d b48e 23bb f8d8 833d
00000390: 600c 3dbd 418a 8c3d 87e7 823d 7c7d c7bc
000003a0: 2f02 f93c bcd8 593d 45ca 8abd cf76 8dbc
000003b0: 5dd3 e7bc 8808 55bd 7f7f 29bd f871 b3bd
000003c0: 7e13 c1bd 4679 25bd 9a29 533d 7d53 973d
000003d0: 7ba3 8a3d e72d 9a3d a1a5 a33d e804 893d
000003e0: 8543 4bbd 5af1 733d 873a 393d a2f7 e53c
000003f0: f096 b8bd 2a86 783d 53a0 323d d5bd c73c

fc2.bias f4 [128]
-0.032881785 -0.09282862 -0.06455169 -0.03428986 -0.022671476 0.058763903 0.012674407 -0.048712946
0.05476964 -0.056055162 -0.0013049305 0.14286897 -0.028381646 0.0018915756 -0.024023239 0.12448654
-0.02777887 -0.023464944 0.0026790728 -0.00027901708 0.028739806 -0.07196204 -0.030069288 0.07667474
0.104967244 -0.046303593 -0.011247206 -0.07957081 0.071007684 0.043969497 -0.071142964 0.028235238
-0.022434756 -0.008007522 -0.07591481 0.082065105 -0.010867583 -0.042045593 -0.0069827586 0.08034511
0.07350404 -0.0150542185 -0.02418977 -0.07785012 0.039561395 -0.05271055 -0.0539098 0.039536126
0.017205577 -0.03302189 -0.09755826 0.015684942 0.003461243 -0.052516803 0.10256441 -0.051915724
0.06727114 -0.018585023 0.024207635 -0.08778689 -0.07890317 -0.009309679 -0.004772492 -0.032487314
0.019823465 0.08706127 -0.009891726 -0.048656218 -0.0035352 -0.07645449 0.07042848 -0.005224836
-0.0058196075 -0.01626403 -0.041280996 0.008524205 0.051613912 0.03546953 0.025226511 0.004793495
-0.05522158 -0.020254195 -0.06316242 0.14061433 -0.037834175 0.06070198 -0.0021824692 0.030544464
-0.08474787 0.038316533 -0.057614982 0.036705654 -0.026888115 -0.035098426 0.13010305 -0.079381704
0.03795049 0.14003754 0.05954605 0.068590805 0.14759529 -0.06662474 0.18326661 -0.08490856
-0.02766292 0.05888508 -0.070165925 -0.074148536 -0.0118495375 0.005887939 -0.022988357 0.03773752
-0.0072200582 -0.047125954 -0.019565273 0.16064367 -0.052382335 0.00802387 0.07962168 -0.07117121
0.017818276 0.016304653 0.035226528 -0.039946087 -0.06396162 0.05313328 0.048646756 0.089636266
00000000: 0daf 06bd ee1c bebd ad33 84bd 8673 0cbd
00000010: 88b9 b9bc 6bb2 703d 51a8 4f3c 3a87 47bd
00000020: 2156 603d 199a 65bd 340a abba 3e4c 123e
00000030: a080 e8bc bfee f73a 62cc c4bc cdf2 fe3d
00000040: 8390 e3bc 8e39 c0bc 6293 2f3b 0a49 92b9
00000050: be6f eb3c d660 93bd de53 f6bc a507 9d3d
00000060: 11f9 d63d d6a8 3dbd 3346 38bc 05f6 a2bd
00000070: 7a6c 913d 5c19 343d 67b3 91bd 964d e73c
00000080: 18c9 b7bc fb31 03bc 3979 9bbd c011 a83d
00000090: f20d 32bc 0038 2cbd a0cf e4bb fa8b a43d
000000a0: 4989 963d f8a5 76bc a029 c6bc e26f 9fbd
000000b0: 210b 223d 05e7 57bd 86d0 5cbd a2f0 213d
000000c0: b6f2 8c3c f641 07bd a0cc c7bd b57d 803c
000000d0: 05d6 623b dc1b 57bd 4a0d d23d 95a5 54bd
000000e0: 74c5 893d 9e3f 98bc 174f c63c 9dc9 b3bd
000000f0: fc97 a1bd a087 18bc 9162 9cbb 6b11 05bd
00000100: d264 a23c 2e4d b23d e810 22bc be4b 47bd
00000110: d0ae 67bb 2c94 9cbd cf3c 903d 1a35 abbb
00000120: 68b2 bebb 253c 85bc 4316 29bd 1ba9 0b3c
00000130: 1c69 533d 7f48 113d d4a7 ce3c c012 9d3b
00000140: 0630 62bd 20ec a5bc 4d5b 81bd 34fd 0f3e
00000150: 02f8 1abd a4a2 783d c207 0fbb 6238 fa3c
00000160: 4b90 adbd ccf1 1c3d b0fd 6bbd ab58 163d
00000170: 7744 dcbc 5ec3 0fbd bc39 053e e092 a2bd
00000180: f971 1b3d 0066 0f3e 8fe6 733d 5679 8c3d
00000190: 3823 173e 8d72 88bd 3eaa 3b3e 8ae4 adbd
000001a0: 599d e2bc 7b31 713d 27b3 8fbd 30db 97bd
000001b0: 9024 42bc 9def c03b 1452 bcbc a892 1a3d
000001c0: 3d96 ecbb 2507 41bd 5a47 a0bc c67f 243e
000001d0: dc8e 56bd 8d76 033c b110 a33d 36c2 91bd
000001e0: a2f7 913c 5691 853c b149 103d 829e 23bd
000001f0: 4ffe 82bd 48a2 593d d241 473d 3893 b73d

fc3.weight f4 [3, 128]
0.007501061 -0.024468897 0.055266954 -0.017816352 -0.08588769 0.12593858 0.06576332 0.0576873
0.037359074 0.05216085 -0.032515924 0.10043536 0.006817668 0.10002631 -0.14871642 0.12661155
-0.075705096 -0.040724378 0.103780925 -0.009315559 0.09225253 -0.10962713 -0.0059900526 0.1250808
0.11836874 0.015832126 0.045966253 0.06170349 0.018544436 0.07804848 -0.1532159 0.080010034
-0.14174536 0.040401764 -0.03272674 0.17138723 -0.022793146 -0.035900403 0.039325368 0.062121056
0.06895404 -0.014126129 -0.024483286 -0.010854766 -0.120250575 0.03855902 0.020103052 -0.03226795
0.030076325 0.041854408 0.02051891 -0.084300935 0.046278782 -0.06188214 0.01256807 -0.15059662
0.03183214 -0.028846458 -0.00995751 -0.051576678 0.0078593865 0.019334547 0.039930973 0.020654228
0.028477762 0.074524 -0.008622929 0.015601361 -0.049139928 -0.024573945 -0.047216646 0.030916272
-0.09756202 0.07852415 -0.05009118 -0.071070515 -0.019453395 0.09364291 -0.05504222 -0.022113122
-0.1315838 0.010744213 -0.14859572 0.14468181 0.0074398345 -0.07738019 -0.033734057 -0.07138932
0.010346068 -0.043526992 0.07768827 -0.07182677 0.03718413 -0.047344543 0.14055775 0.041347183
-0.027447203 0.085803285 0.08125774 -0.039000366 0.09017699 -0.15822196 0.090503186 0.04169551
-0.022436565 -0.033837836 -0.051211517 0.07908182 -0.07603174 -0.006442758 -0.083984815 0.019433172
-0.113861874 0.0051172515 0.075438246 0.20049591 -0.04878063 -0.082856335 -0.06555368 0.020980403
-0.111731686 -0.0018901889 -0.05873192 -0.02183013 0.04203941 -0.0660373 0.18474486 -0.011742638
0.022280453 0.024058573 0.017357728 0.042832743 -0.060105536 -0.13633086 0.060854338 0.017225873
0.041769706 -0.105482794 -0.0020982313 -0.13610886 -0.08557811 -0.07965501 -0.07162418 -0.14172153
-0.06381411 -0.08735134 -0.012354074 0.029137112 -0.14240974 0.035542425 0.048361655 -0.12319742
-0.121816576 -0.049460147 0.034421448 0.030973807 0.06034554 0.07430727 0.047370035 -0.03176563
0.023355002 0.019804528 -0.0116442125 -0.06986978 0.06591912 0.062460657 -0.043519635 -0.11628578
-0.086751536 0.048854865 0.06184227 -0.08746809 0.03487612 -0.06786119 0.04544764 -0.1395258
0.060467172 -0.036425803 0.04046465 0.007031382 0.08103663 -0.032823663 -0.13150214 0.035985626
0.08343827 0.063541554 -0.09427239 0.046143863 -0.0072155967 -0.06120051 0.05124563 0.0781508
0.018516965 -0.075003445 0.0548585 -0.03890122 -0.067271955 0.054352112 -0.14405014 -0.028370235
0.0022458977 -0.1396336 0.044184294 0.08049405 0.0339186 -0.14073573 -0.14656074 0.078704365
0.035797108 -0.1301902 -0.060675986 -0.062762074 -0.08037265 0.02079742 0.03007631 -0.028775843
-0.0022009886 0.007229019 -0.043487508 -0.07067749 -0.08809277 -0.09416914 -0.13802847 0.042312976
-0.105661824 -0.12218625 -0.0947976 -0.062114473 -0.15481877 0.0005504203 -0.10837681 -0.0021891014
0.07297229 -0.0072340337 0.034171112 -0.058279168 0.021238169 -0.13280523 -0.037044425 -0.048257172
0.04519193 -0.071445234 0.047581136 -0.11625747 0.048288334 -0.10716995 -0.102589786 0.038291775
-0.07098731 -0.07559377 -0.067912266 -0.08787565 0.017910691 0.0072394004 -0.1195934 -0.14404042
00000000: 76cb f53b ff72 c8bc 9a5f 623d 99f3 91bc
00000010: e3e5 afbd 0bf6 003e ebae 863d 8549 6c3d
00000020: d405 193d 9ea6 553d 6b2f 05bd 0eb1 cd3d
00000030: bf66 df3b 98da cc3d 1e49 18be 75a6 013e
00000040: 460b 9bbd 9bce 26bd 188b d43d 49a0 18bc
00000050: e5ee bc3d 3084 e0bd 3448 c4bb 2e15 003e
00000060: 4f6b f23d 60b2 813c 1c47 3c3d ccbc 7c3d
00000070: 80ea 973c e2d7 9f3d a1e4 1cbe 4ddc a33d
00000080: b225 11be 527c 253d 790c 06bd 2280 2f3e
00000090: b1b8 babc 4d0c 13bd a313 213d a672 7e3d
000000a0: c737 8d3d 4871 67bc 2c91 c8bc 30d8 31bc
000000b0: ef45 f6bd 10f0 1d3d 28af a43c 662b 04bd
000000c0: a062 f63c 876f 2b3d 4617 a83c f8a5 acbd
000000d0: d28e 3d3d 2078 7dbd 4eea 4d3c 0036 1abe
000000e0: 6b62 023d 684f ecbc d324 23bc 1142 53bd
000000f0: a8c4 003c 7c63 9e3c a98e 233d 0e33 a93c
00000100: 324a e93c 0aa0 983d 3047 0dbc da9c 7f3c
00000110: f346 49bd 4c4f c9bc 3e66 41bd 1f44 fd3c
00000120: 99ce c7bd 45d1 a03d 692c 4dbd 6b8d 91bd
00000130: ba5c 9fbc dbc7 bf3d f373 61bd 9426 b5bc
00000140: e7bd 06be 7f08 303c 7a29 18be 7827 143e
00000150: dbc9 f33b 8179 9ebd b92c 0abd 9034 92bd
00000160: 8e82 293c 5c49 32bd 071b 9f3d ea19 93bd
00000170: 634e 183d 5aec 41bd 5fee 0f3e aa5b 293d
00000180: f5d8 e0bc a2b9 af3d 756a a63d d9be 1fbd
00000190: b7ae b83d f004 22be bc59 b93d e9c8 2a3d
000001a0: e3cc b7bc 8b99 0abd 2bc3 51bd a6f5 a13d
000001b0: 87b6 9bbd c51d d3bb 3b00 acbd 5132 9f3c
000001c0: 6a30 e9bd 9eae a73b 5e7f 9a3d cd4e 4d3e
000001d0: 33ce 47bd 95b0 a9bd 0241 86bd 18df ab3c
000001e0: 95d3 e4bd 37c0 f7ba e290 70bd 1ad5 b2bc
000001f0: 8431 2c3d 903e 87bd c22d 3d3e 3264 40bc
00000200: 7f85 b63c 7c16 c53c cb31 8e3c 6371 2f3d
00000210: 3931 76bd 519a 0bbe 6642 793d 461d 8d3c
00000220: b616 2b3d 5d07 d8bd 7b82 09bb 1f60 0bbe
00000230: 9343 afbd 2a22 a3bd b3af 92bd 731f 11be
00000240: f9b0 82bd 42e5 b2bd be68 4abc f4b0 ee3c
00000250: dcd3 11be ef94 113d df16 463d ee4e fcbd
00000260: f87a f9bd b996 4abd 81fd 0c3d c8bc fd3c
00000270: e32c 773d 692e 983d 1507 423d ad1c 02bd
00000280: fd52 bf3c 1b3d a23c 5ec7 3ebc e317 8fbd
00000290: 9b00 873d bfd6 7f3d a541 32bd 3d27 eebd
000002a0: caaa b1bd 0a1c 483d 524e 7d3d 7822 b3bd
000002b0: 43da 0e3d cffa 8abd 4e27 3a3d dadf 0ebe
000002c0: 6dac 773d 3933 15bd 43be 253d 8267 e63b
000002d0: 88f6 a53d 1b72 06bd 7fa8 06be aa65 133d
000002e0: afe1 aa3d 1322 823d e211 c1bd 5901 3d3d
000002f0: d070 ecbb 63ad 7abd f0e6 513d 870d a03d
00000300: e4b0 973c 689b 99bd 4eb3 603d e356 1fbd
00000310: e1c5 89bd 52a0 5e3d e181 13be b268 e8bc
00000320: e92f 133b 1cfc 0ebe 97fa 343d 11da a43d
00000330: 3bee 0a3d 071d 10be 0514 16be c12f a13d
00000340: fd9f 123d 9450 05be 6287 78bd 6789 80bd
00000350: 6a9a a4bd 5a5f aa3c 9862 f63c 51bb ebbc
00000360: 763e 10bb 68e1 ec3b f51f 32bd 5cbf 90bd
00000370: fb69 b4bd c0db c0bd 5657 0dbe 5f50 2d3d
00000380: 3a65 d8bd c93c fabd 3e25 c2bd bf6b 7ebd
00000390: d088 1ebe 154a 103a a9f4 ddbd 0777 0fbb
000003a0: 7f72 953d 790b edbb 02f7 0b3d 23b6 6ebd
000003b0: abfb ad3c 18fe 07be e5bb 17bd 50a9 45bd
000003c0: 2c1b 393d e151 92bd 70e4 423d 6518 eebd
000003d0: fdc9 453d eb7b dbbd 981a d2bd d6d7 1c3d
000003e0: cb61 91bd e8d0 9abd 9615 8bbd 26f8 b3bd
000003f0: 71b9 923c 7e38 ed3b 62ed f4bd 557f 13be

fc3.bias f4 [3]
0.023236247 -0.024728438 -0.030665895
00000000: f159 be3c 4b93 cabc 0b37 fbbc
