scripts/models/pg/reinforce_run_6.pth (torch, 76888 bytes, 6 tensors)

fc1.weight f4 [128, 12]
000000 50 60 1a be f0 f7 4a 3e 0a 99 09 be 4f 20 0c 3e
       -0.15075803 0.19821143 -0.13437286 0.136842
000010 ee a6 7e 3d e6 1b 85 3e 54 7a 0f be aa a7 24 3e
       0.062170915 0.25997847 -0.14011508 0.16079584
000020 e0 a9 03 3d 2c f0 00 3d 66 62 4d 3e be b1 c9 3d
       0.032144427 0.031479046 0.20057067 0.09848355
000030 b4 06 1b be 82 6d 68 be 78 d1 df 3d b0 1c 31 be
       -0.15139276 -0.22698024 0.10928625 -0.172961
000040 a0 9d 50 3c 98 4f 16 3e 8a 52 8f bd fc d8 0d be
       0.012732893 0.146788 -0.06998165 -0.13852304
000050 1e b0 51 be 62 8c 56 be 1e 14 61 be f4 ed e0 3d
       -0.2047734 -0.2095199 -0.2198033 0.10982886
000060 05 6e 58 bb a0 92 04 be 8b 6d 4a 3e b4 72 89 3e
       -0.003302456 -0.12946558 0.1976835 0.26845324
000070 b0 33 94 3e f0 1c 10 be bd 69 90 3e 94 e6 29 be
       0.28945684 -0.14073539 0.28205672 -0.16591865
000080 90 e8 e8 bd c7 97 f9 3d c8 d1 55 bd 2a b6 94 3d
       -0.11372483 0.12187152 -0.052202016 0.072613075
000090 1e 53 21 be 5c 51 ab 3d 05 2c 64 bd df 40 f7 bc
       -0.15754363 0.083651274 -0.055706043 -0.0301823
0000a0 01 a7 9e 3e 17 c5 7b be f1 7c df bc 52 7a 1e 3e
       0.3098679 -0.24586903 -0.027281256 0.15476349
0000b0 75 db 70 3e c4 16 d9 bd 1d a7 eb bd db f0 34 3e
       0.23521216 -0.10600045 -0.11506484 0.17670004
0000c0 bb 04 20 be 88 a7 1c 3e 63 96 a0 3e a1 0f 89 be
       -0.15626805 0.15298283 0.31364736 -0.26769736
0000d0 7d 1d 07 bd 49 06 91 3d a1 14 b8 bd 1b 79 1e 3e
       -0.032987107 0.07081277 -0.0898831 0.15475886
0000e0 a9 27 8f bd 60 46 ed bc 80 12 21 3d d6 52 7b 3c
       -0.069899864 -0.028964221 0.039324284 0.015339574
0000f0 80 03 30 3e 58 18 f1 3a af 46 89 3e 4e 90 33 be
       0.17188835 0.0018394096 0.2681174 -0.17535517
000100 2e 77 f3 bd f6 de 78 3e 62 97 75 3d 37 81 48 3e
       -0.11887966 0.24303803 0.059958823 0.19580542
000110 15 22 09 be 9a ae 91 be d2 0a 7d be a0 3e 57 be
       -0.13391908 -0.28453523 -0.24711159 -0.21019983
000120 9e 14 73 3d 04 ee 94 3e de 12 6c bd b3 55 8c 3e
       0.059345834 0.29087842 -0.05763518 0.27409133
000130 3a 3c a2 3e d1 ab 4a 3e 7a f0 01 be 5a 1d 9e 3e
       0.31686574 0.19792105 -0.12689391 0.30881768
000140 cc 33 87 bd f4 24 da 3c aa 7d 37 3d 03 3e a9 3d
       -0.06601676 0.026628949 0.044797577 0.08263781
000150 75 13 b4 3d 71 4e 8d 3e 0f 57 23 3e 69 51 25 be
       0.08792774 0.2759891 0.15951179 -0.16144337
000160 f7 2c a5 3d 9d a7 62 3e 7e 56 31 3e 8e 3a 20 be
       0.08065217 0.22134252 0.1731815 -0.15647337
000170 e6 a1 ee 3d 38 ff 8c 3e 98 c0 89 3e 41 84 6f bc
       0.116519734 0.27538466 0.2690475 -0.014618934
000180 36 19 ed bd 0d ba 63 be be 4d 82 be 05 2e 67 be
       -0.11577074 -0.22238941 -0.25449938 -0.22576149
000190 39 97 85 3d 58 d1 00 be 11 45 85 be f1 41 70 3e
       0.06522984 -0.12579858 -0.26029256 0.23462655
0001a0 58 a3 7b 3e 65 a0 39 3c 32 2e 4e be 77 2e 80 be
       0.2457403 0.011329745 -0.2013481 -0.2503545
0001b0 de 84 08 3c 20 92 0c be d2 20 08 3e 2a 15 91 3e
       0.008332459 -0.13727617 0.1329377 0.2833646
0001c0 00 e8 8c be 7c e4 8f be bb c7 cf bd c3 54 32 be
       -0.27520752 -0.28104007 -0.101455174 -0.17415147
0001d0 8c 3e 72 be 6c 6b 55 3d f7 04 76 3d 6f 56 7d be
       -0.23656672 0.0521044 0.06006333 -0.24740003
0001e0 34 b6 d8 bd 04 db c8 bd 62 e7 a3 bd 21 dd 8a be
       -0.105816275 -0.09807399 -0.08003117 -0.27121833
0001f0 d8 a9 3b 3d b4 5b 93 be 86 a9 b3 bd 25 34 3f 3e
       0.045816272 -0.287809 -0.087725684 0.18672235
000200 86 be 8b bd bc e3 81 be 28 ce 25 be 58 e8 84 3e
       -0.06823449 -0.2536906 -0.16191924 0.25958514
000210 a0 f7 61 bc 71 5c 69 3e 9c c7 62 be 94 17 49 be
       -0.013791949 0.2278917 -0.22146457 -0.196379
000220 7f f9 86 3e 4e dd 13 be ef 30 97 be a8 cf bb 3d
       0.26362225 -0.1443989 -0.2952952 0.09170467
000230 81 d1 a3 bd 5e 42 52 be 39 b6 47 be 68 89 84 3e
       -0.07998944 -0.2053313 -0.19503106 0.25886083
000240 ba 6a 45 be ee f4 fa bd 3b d8 5d 3e 39 45 15 bd
       -0.19278994 -0.12253748 0.21664517 -0.03644297
000250 ee 1d 80 3d 30 e1 1b 3e a6 fc 04 3e d6 11 06 be
       0.06255709 0.15222621 0.12987003 -0.13092741
000260 12 30 00 bd 79 c6 93 3d 06 28 60 3e bc fc 89 3e
       -0.031295843 0.0721559 0.21890268 0.26950634
000270 02 f7 7d be bd 3b af bd dd 95 31 3e 9a 55 f9 3d
       -0.24801257 -0.08556316 0.17342325 0.1217453
000280 39 65 a0 3e 8f 4f 79 be 27 22 39 3e c7 e2 13 3e
       0.31327227 -0.24346755 0.18079434 0.14441977
000290 13 2b 1b be af 9e 02 be 31 76 8e 3e 97 5d a2 3c
       -0.1515315 -0.12755845 0.27824548 0.019820018
0002a0 12 b0 2c be cd 57 91 be 1a c3 03 3e 2e 56 38 3e
       -0.1686404 -0.283873 0.12867394 0.18001625
0002b0 30 69 d3 3c 05 56 d3 3d 7b 74 8d be b3 29 8c be
       0.025806993 0.10319141 -0.2762793 -0.27375564
0002c0 84 63 5d 3e 26 68 8d be 1f c7 f7 bc cc 4b fd bd
       0.21619993 -0.2761852 -0.030246316 -0.12367973
0002d0 ad d4 d1 bd 17 85 8e 3e c0 14 35 be bc f7 34 3e
       -0.10245643 0.27835914 -0.17683697 0.17672628
0002e0 d9 16 63 3e ff 6b 39 be c1 13 8a 3e b3 65 a2 bd
       0.22176684 -0.18107603 0.26968196 -0.07929554
0002f0 cc 1e db bd 33 87 7e 3e 92 31 d9 3d 2e a4 eb bc
       -0.106992334 0.24856262 0.10605158 -0.02876481
000300 af fa 16 3d 62 fe 90 be 27 8b 4d bd e9 be 00 3e
       0.036860164 -0.2831908 -0.050181534 0.12572826
000310 67 9c 6b 3e 27 a2 91 3e f7 0e 83 bd 9e 33 82 3e
       0.23008882 0.28444025 -0.06399339 0.25430006
000320 58 a0 31 be 36 dc 61 be 34 36 70 3e e7 71 89 3e
       -0.17346323 -0.2205666 0.23458177 0.26844713
000330 52 2e 0c bd 00 4c 5b bd 4d c9 08 3c b2 1e a0 3e
       -0.034223862 -0.053539276 0.008348775 0.3127342
000340 d2 92 e7 3c af 38 8d 3e d6 81 a5 3e 65 c9 9e bd
       0.028268252 0.2758231 0.3232562 -0.07753257
000350 b4 6d a4 3e 39 81 79 3e ab 2b b4 bd 5d ce c1 bd
       0.32114947 0.24365701 -0.087973915 -0.09463189
000360 2b f3 36 3e 70 ff 30 3c f0 23 57 3d 65 1d 67 3e
       0.17866199 0.010803089 0.052524507 0.22569807
000370 e6 95 92 be 91 bd 59 3e 41 a6 af 3d 7c c8 a3 bc
       -0.28629988 0.2126372 0.08576632 -0.01999306
000380 cd 61 4d 3e 40 b9 95 bd 6d 6d 3c 3e 41 e6 d1 3c
       0.2005684 -0.07310724 0.18401118 0.025622489
000390 f2 04 d2 bd 91 9a 5a 3e 7f b3 24 be 64 5d 36 3e
       -0.102548495 0.21348025 -0.16084097 0.17809063
0003a0 91 4d bf 3d 75 d2 80 3e 96 80 02 3e 4c a8 20 3e
       0.093409665 0.25160566 0.12744364 0.156892
0003b0 dd be 4b be 37 9f 37 3d a5 47 c8 3d 45 66 d8 3d
       -0.19897027 0.044829573 0.0977929 0.10566381
0003c0 93 55 1f be 6f 76 48 3d 85 2d 83 be 85 aa 92 3e
       -0.15559988 0.048941072 -0.25620666 0.2864572
0003d0 f1 67 02 bd ff 72 41 3e e0 52 2e be d7 33 76 bd
       -0.031837407 0.18891524 -0.17023802 -0.060108032
0003e0 f6 4f 73 3e 6c 84 7b bd a5 0e b1 3c 1b bc bc 3b
       0.23760971 -0.061405584 0.021613428 0.0057597286
0003f0 0b 6c 1c 3e d0 fe d2 3c 70 3f 9e 3c ae b5 f1 bd
       0.1527559 0.02575627 0.019317359 -0.11802231

fc1.bias f4 [128]
000000 27 20 bd bd 90 51 50 be f7 7c 0d be ba 35 96 3e
       -0.09234648 -0.20343614 -0.13817202 0.29337865
000010 b4 b9 7a 3e da 21 8d be d1 25 75 bd 03 71 66 3e
       0.24484903 -0.2756489 -0.059850518 0.22504048
000020 f2 22 13 3d 83 cc 73 3d 08 f0 30 bd 35 23 3a be
       0.035922 0.05952121 -0.04319766 -0.18177493
000030 57 fb 4c be c8 3f 09 be f2 fb 8a be df 60 c1 3d
       -0.20017754 -0.13403237 -0.27145344 0.09442305
000040 df 0e ce bd 57 1b 2c 3e eb 80 d0 bd 38 bb 7d 3e
       -0.1006143 0.16807304 -0.10180839 0.2477845
000050 26 12 06 3e 79 9f a7 bd f4 0d 91 be 5a 05 6f be
       0.1309286 -0.08184714 -0.28330958 -0.23341885
000060 ce b1 cd 3c b8 a6 91 bd d0 2b 51 be 51 2d 44 bd
       0.025109198 -0.07111877 -0.2042687 -0.04789478
000070 bd 6e a2 3e 2b 87 94 3e 5d 5b 53 be e6 0a 90 bd
       0.31725112 0.29009375 -0.20640321 -0.07033329
000080 54 41 40 be 5f 7f fe 3c 65 5e 88 3e 2b 9a 9f bd
       -0.1877492 0.031066595 0.26634517 -0.07793077
000090 75 30 1d 3e 4b b4 ff 3d 94 d0 22 be 0d bf 85 bd
       0.15350516 0.1248556 -0.15899879 -0.06530581
0000a0 a6 11 ee 3a 34 62 6d 3e a2 5e 91 3e 73 3d df bd
       0.0018163219 0.23181993 0.28392512 -0.109003924
0000b0 c8 0e 9f b9 b7 e4 f9 3c 45 4a b3 3c 5b ae b6 bd
       -0.00030337856 0.030504568 0.021886 -0.089199744
0000c0 c0 be 9c bc 52 6b 95 3e e2 15 93 bd bf 10 3d be
       -0.019133925 0.2918344 -0.07181908 -0.1846342
0000d0 cd fc 82 bd e9 2d 08 bd 65 49 1e be 4b 21 45 3e
       -0.06395874 -0.03324691 -0.15457685 0.19250982
0000e0 61 0a 3a 3e 34 e7 08 3d 29 b1 34 be 27 5e 08 3c
       0.18168022 0.033423617 -0.17645706 0.008323229
0000f0 f2 ee 53 bc 11 6c f5 bc 07 c6 ea bd 4a 37 0b be
       -0.012935387 -0.029958757 -0.11463552 -0.1359531
000100 e1 53 80 be 8b dd 96 3e dc ba 0a 3e 85 df 91 3e
       -0.25063995 0.294659 0.13547844 0.28490844
000110 37 e2 90 3e 66 a1 ae 3e cd dc 0a be e4 5e 84 bd
       0.28297588 0.34107512 -0.13560791 -0.064634115
000120 e2 0b 91 3e 16 38 d4 bd 84 01 72 3e 6a d2 1c bb
       0.28329378 -0.1036226 0.2363339 -0.0023929127
000130 f5 d9 82 3e 27 08 65 be be 8f a6 3e 31 b5 ec 3c
       0.25556913 -0.22366391 0.32531542 0.028894993
000140 27 ee 84 bd 01 b9 55 be ee 2e 49 3d d2 de 3a be
       -0.064907365 -0.20871355 0.04911702 -0.18249062
000150 d0 20 ba bd 6c cf 95 3e fb a2 33 3e 40 11 22 3d
       -0.0908829 0.29259813 0.17542641 0.039567232
000160 61 ad 04 bd 30 85 8f be 51 29 a4 3e db 6b 37 be
       -0.03239191 -0.28031301 0.32062772 -0.17912237
000170 87 a4 5e 3e 0e dc 91 3e 7a 97 34 be 08 d0 75 be
       0.2174245 0.284882 -0.17635909 -0.24005139
000180 8a b5 a4 3e f1 bc 97 3e 70 25 13 3e 24 a8 b0 3d
       0.32169753 0.29636338 0.1436975 0.0862582
000190 cf b1 9a 3e e2 ea 39 3e e7 9f 67 bd e5 e1 b1 3e
       0.30213782 0.18156007 -0.05654898 0.34742656
0001a0 e2 cd 52 3e ff 88 df bd 18 98 61 3d 86 70 82 3e
       0.2058635 -0.10914802 0.05507669 0.25476474
0001b0 0f 6f 89 be c7 8f 7b 3e d8 39 34 be 00 b8 26 3c
       -0.26842543 0.24566565 -0.1760019 0.010175705
0001c0 6c 11 5a bd 6c d9 7e be 81 4e d7 bd 54 92 78 3e
       -0.05323927 -0.24887627 -0.1051302 0.2427457
0001d0 28 bf d0 bd 2b 42 02 be 15 03 ee bc 6e 90 e8 3d
       -0.1019271 -0.12720554 -0.029054204 0.11355673
0001e0 2b c8 00 3e ad 08 68 3e 94 c4 b6 bd 75 5f 31 be
       0.12576358 0.2265956 -0.08924213 -0.1732157
0001f0 f4 7b 19 be 7c 96 5d 3e ab 25 88 3e 03 89 b2 bd
       -0.1498869 0.21639436 0.26591238 -0.08717539

fc2.weight f4 [128, 128]
000000 38 77 bd 3c c6 10 69 bd 0a 83 c7 3c 71 f0 81 3d
       0.023128137 -0.056900762 0.024354476 0.06344689
000010 ca 3e b3 3d 88 f3 c2 3d 62 fc 0e 3e fe 6b a8 3c
       0.087522104 0.09519106 0.13963464 0.020559307
000020 a3 a7 1b 3d 30 85 c9 3d ea 11 27 3d 38 9e 2b bd
       0.038001668 0.098398566 0.04078857 -0.041898936
000030 6e 97 5c 3c 17 0a 2b bb 1f 86 c8 bb b9 8a 5f 3d
       0.013463838 -0.0026098543 -0.006119504 0.054575656
000040 f3 a6 5c 3d a7 d6 b1 3d 85 d9 03 bd 78 f1 cb bc
       0.053870153 0.0868352 -0.032189865 -0.024895415
000050 f1 fb ec bc ea 0c 91 3d 46 43 31 bd 98 64 07 bd
       -0.028928729 0.07082541 -0.043277048 -0.033054918
000060 f4 6e 20 bd 71 15 a9 3d e7 95 bf 3c 61 19 10 3c
       -0.039168313 0.08256043 0.023386909 0.008795113
000070 f3 e7 fd 3c 01 37 1f 3d 19 a7 0c 3e 78 86 26 3d
       0.030994391 0.038870815 0.13735618 0.040655583
000080 41 fc d8 3d 08 c4 96 3d 0e 7e c4 3d aa 26 8a 3d
       0.105949886 0.07361609 0.095943555 0.06745656
000090 f2 ce 02 bd e2 b1 3a 3d f3 cb 63 3d 5a da ed 3d
       -0.03193564 0.0455798 0.055614423 0.11613913
0000a0 68 f7 34 3d 57 fc b1 3d 28 c7 8f bc 1a f3 f8 3d
       0.044181257 0.08690708 -0.01755102 0.12155743
0000b0 a1 46 7d 3d 1e 7d 10 3e f2 d1 84 3d 17 4e d0 bd
       0.061834935 0.14110228 0.064853564 -0.101711445
0000c0 92 9c 1e 3d ee 83 ef bc 38 65 b2 3d f1 79 31 3c
       0.038723536 -0.029237714 0.08710712 0.010832296
0000d0 b6 92 68 bc 95 0c 76 bd 72 55 b7 3a eb af 09 3d
       -0.014195135 -0.060070593 0.0013987257 0.033615034
0000e0 69 ec 0d bb a1 36 0b 3e c7 09 be 3d e3 ca fb 3d
       -0.0021655804 0.13595058 0.09279209 0.12294557
0000f0 6b ca 67 3d 48 7d 27 3d 68 d2 4b ba 27 67 ef 3d
       0.056589525 0.040890962 -0.00077751884 0.116895966
000100 b2 3e 00 bd 22 49 c2 3c 62 ca e7 bc 24 86 ce 3b
       -0.03130979 0.023716513 -0.028294746 0.006302612
000110 52 67 a5 3d dc 68 6c bc 66 4b 54 3d b7 50 a4 bc
       0.080763474 -0.014429297 0.051829718 -0.02005802
000120 2a 83 02 3e 98 bf ab 3d 4f d1 0f bc e0 36 89 3d
       0.12745348 0.08386153 -0.00877793 0.0669992
000130 48 53 a6 3d fc 3a 2e bd a4 d6 44 3d 21 d4 06 3d
       0.081213534 -0.04253672 0.04805626 0.032917146
000140 3a 47 2c 3c 3f ae 2f 3d 78 0f 99 bd 80 ea 42 3c
       0.010515029 0.042890783 -0.074736536 0.0118967295
000150 d6 1f d9 3c 66 c9 ec 3d 8f a4 e5 3d cf 3e c1 3c
       0.026504438 0.11561851 0.11213028 0.02358952
000160 04 d3 e6 3b 3e b2 36 3d fa bb e6 bc d5 e5 92 3c
       0.007044198 0.04460358 -0.028165806 0.017931858
000170 84 c8 55 3d 38 31 a2 3d 4f 53 b8 3d de 0a 2d 3d
       0.05219318 0.07919544 0.09000265 0.042246692
000180 2a b8 90 3d ce 9a 71 3d a5 7d 14 bc 4b 4e a6 3d
       0.070663765 0.058985524 -0.009063159 0.08120402
000190 97 56 ad 3c 7b 80 1e bd 5b c1 66 3d 1a 16 8b bc
       0.021159453 -0.038696747 0.056336742 -0.016978312
0001a0 c9 c9 b5 3d 93 ac 2b 3d 85 6a aa 3d f3 9c b0 3d
       0.08876378 0.041912626 0.08321098 0.08623686
0001b0 8e ad 83 3d 71 54 08 3d 27 df d6 3c 20 b2 72 3d
       0.06429587 0.033283655 0.026229454 0.059251904
0001c0 de ba 75 3d b0 e3 c1 3d 9b f2 99 3d 12 e5 93 bc
       0.059992664 0.09467256 0.075169764 -0.018053565
0001d0 92 e9 82 3d a2 19 89 bc b4 9c d8 3d 9f e6 fd 3d
       0.06392206 -0.016735855 0.10576764 0.12397503
0001e0 02 4f 0d 3e 62 a0 00 3e 8e 00 55 3c ef 20 a2 3d
       0.1379967 0.12561181 0.0130006205 0.07916438
0001f0 3f a7 02 3e 36 e3 04 3d dc 68 1e 3d 35 bf be 3d
       0.12759112 0.032443248 0.03867422 0.093138136
000200 5d 80 9d 3d d6 ae 02 3d fb 94 a2 3d 79 74 ac 3d
       0.07690499 0.031905018 0.07938572 0.08420653
000210 5e c7 58 3d d0 83 f1 bb 0a 13 ab bd c6 fb 75 3d
       0.052924506 -0.0073704496 -0.08353241 0.060054563
000220 b4 d8 59 bd 00 12 d7 39 02 d9 46 3d d5 2e aa bd
       -0.05318518 0.00041021407 0.0485468 -0.08309714
000230 36 91 2d 3d c0 48 1b bc 60 6f b7 3c c0 8e 85 bc
       0.042374812 -0.009477794 0.022391975 -0.01630342
000240 bb c7 32 bd 18 50 5a bd fc 5d 9f bd 55 1e b1 bd
       -0.04364751 -0.05329904 -0.07781598 -0.086483635
000250 24 c7 bd bc ab b1 84 bd f7 bb a0 3d af 6a 97 3d
       -0.023166247 -0.064792 0.078483514 0.07393395
000260 f0 cd f7 3b 81 c4 84 3d aa 87 69 3d 30 84 c0 3b
       0.0075623915 0.06482793 0.057014145 0.005875133
000270 02 eb 53 3d 03 b3 58 bd 16 b3 77 3d e0 78 bc 3b
       0.051737793 -0.052905094 0.060473524 0.005751714
000280 ac 76 af 3c d0 f5 c4 bb 7b f6 ae bd c0 0b cf 3a
       0.021418892 -0.0060107484 -0.08543106 0.0015796348
000290 a7 97 74 bd 64 85 76 bd e3 4d 8f 3d dc 10 b6 bc
       -0.05971494 -0.060185805 0.069972776 -0.022224836
0002a0 ad 6c 32 bd a8 06 9e 3c 02 95 7f bd 4a a4 87 bd
       -0.043560673 0.019290283 -0.062397964 -0.066231325
0002b0 70 5c 4f 3c 48 e1 b4 bc 83 5a 3b bd fc 9e 8b bc
       0.012656316 -0.022080079 -0.045740616 -0.017043583
0002c0 ca 31 2c bd 73 19 89 bd ce 45 34 3d 60 df 97 3b
       -0.04203967 -0.06694307 0.044011883 0.0046347827
0002d0 20 84 1a bb ea 30 89 bd 40 21 5d 3b f1 d2 9b bd
       -0.0023577288 -0.06698783 0.0033741742 -0.07608593
0002e0 36 44 36 3d af 8b ad bd 9e b3 26 3d c9 ed 0d bd
       0.044498645 -0.08473908 0.04069864 -0.034650598
0002f0 0a 40 2b 3d cd c4 98 bd 10 19 0c 3d 43 7d a6 3d
       0.04180912 -0.07459412 0.03420359 0.081293605
000300 ce 95 4e 3d a9 f5 57 bd 40 fb 2b bb 80 8a 10 bd
       0.050435834 -0.052724514 -0.0026242286 -0.035288334
000310 40 2e 05 bc bb 7b 29 bd 34 29 b6 3c f5 7d a2 3d
       -0.008128703 -0.041377764 0.022236444 0.07934181
000320 80 69 fe 3c 7a d8 27 3d da 54 8b bd da ba 07 bd
       0.031056166 0.040977933 -0.068032935 -0.03313718
000330 fa a3 5b 3d 5a 70 7e 3d d0 55 84 3c 20 a5 cf 3c
       0.053623177 0.062118866 0.0161542 0.025347292
000340 7d 3d ab bd 14 cc 84 bd e9 08 1d bd fc 22 c2 bc
       -0.08361337 -0.06484237 -0.038338576 -0.023698322
000350 dc 0f b9 bc 73 72 1e bd 72 b8 2b 3d b8 eb 12 3c
       -0.02259057 -0.038683366 0.041923948 0.008967333
000360 70 fc 37 bd f6 ce a1 bd 92 45 3e 3d ea 2d e4 bc
       -0.044918478 -0.07900803 0.046453066 -0.027853925
000370 22 c8 5f bd f3 9f b4 3d ff 15 89 bd f6 75 72 3d
       -0.05463422 0.088195704 -0.066936485 0.059194528
000380 78 12 55 bd f6 d9 7a 3d 28 3f a0 bd e9 ec 38 bd
       -0.052019566 0.06124302 -0.07824546 -0.04514781
000390 dc f4 2a bd c0 73 92 bc f5 31 a1 bd b0 69 82 3c
       -0.041737422 -0.01787746 -0.07870857 0.015919536
0003a0 0c ad a6 bc 5a 6c 5b 3d 2c 92 b0 bc 6a e2 ac bd
       -0.020346187 0.05357013 -0.021554075 -0.084416226
0003b0 88 1f 98 3c d8 82 eb bc fc 66 e5 bc e7 e7 8d bd
       0.018569723 -0.028748915 -0.028003208 -0.069289975
0003c0 78 79 a0 bd ae ad 26 3d c0 c1 8c bd c0 00 0c bb
       -0.07835668 0.040692978 -0.068728924 -0.0021362752
0003d0 52 e9 66 bd 98 04 a1 bc 23 24 a8 3d b2 41 f0 bc
       -0.056374855 -0.01965551 0.082100175 -0.029328201
0003e0 25 95 b2 bd 82 82 41 bd 41 72 9a 3d 90 2a a2 bc
       -0.08719853 -0.047243603 0.075413235 -0.019795686
0003f0 68 96 52 3c 60 3d 0c 3b f2 c9 35 bd 1a e7 56 3d
       0.012853242 0.0021398887 -0.044382043 0.05246649

fc2.bias f4 [128]
000000 a9 51 de 3c ac 3d a5 3c b7 d9 5b bc 26 56 92 3b
       0.027138548 0.020171009 -0.0134186065 0.004465836
000010 2d 12 8a bd cf 53 93 3d 40 bf 4a 3b b9 f1 f7 3c
       -0.06741748 0.071937196 0.0030936748 0.03026663
000020 84 f8 71 3d 80 0e a5 bd c9 f3 f8 3d 03 4c a1 bb
       0.059074894 -0.08059406 0.12155873 -0.0049223914
000030 39 f3 70 3d 0d 3a 6e 3d fe df 25 3d 90 77 4c 3d
       0.058825705 0.05816083 0.04049682 0.04991871
000040 22 6e 1d 3d 85 b4 16 bc 20 38 85 bd 08 64 7c bd
       0.03843511 -0.009198313 -0.065048456 -0.061618835
000050 88 38 ce 3c d2 58 7a bd b1 77 1a 3d b0 e3 bb 3b
       0.02517344 -0.061119862 0.037711803 0.0057339296
000060 1a d6 ba 3c 43 e3 c0 3d 72 99 91 bd bb ec 46 3c
       0.02280717 0.09418347 -0.071093455 0.012141402
000070 67 8e b3 bd 84 7d 8d bd be 4c c3 3c b3 0f 2d bd
       -0.087673955 -0.06908706 0.023840304 -0.0422513
000080 2f e5 0d bd 70 7b 31 3d 4f 04 34 3d 97 5f 8d 3d
       -0.034642395 0.04333061 0.04394942 0.06902998
000090 cf af cf bc 89 99 9b 3a 44 73 84 3d 58 4c b1 3d
       -0.025352387 0.0011871319 0.06467298 0.086571395
0000a0 1e 88 87 bd 37 a6 e0 3d 08 41 ce 3c 30 53 7c bc
       -0.06617759 0.10969203 0.025177494 -0.015400693
0000b0 f3 f3 5c 3c 5b 63 be 3c 78 12 58 3d fb 85 7d 3d
       0.013485896 0.023240736 0.05275199 0.06189535
0000c0 d3 d2 ba bc 33 3a 5e 3c 10 96 4b 3d e1 bb c1 3d
       -0.022805607 0.01356368 0.049703658 0.09459663
0000d0 d7 bd 09 bd 93 9d e4 3c 4f e5 37 bd 5e cf a2 3d
       -0.03362831 0.027907168 -0.04489642 0.079497084
0000e0 d5 59 9c 3c 81 b3 20 3d 10 60 a4 bd 24 dc 91 3d
       0.019085804 0.03923369 -0.08026135 0.071220666
0000f0 c5 35 d3 bd d0 50 15 3e 75 e6 bf bc 7e 66 6d 3d
       -0.1031299 0.14581609 -0.02342532 0.057959072
000100 4c 21 f0 bb 7e 3d 87 bc cc dc 04 bd a3 fb db 3d
       -0.007328188 -0.016508814 -0.03243713 0.10741355
000110 86 99 58 bd fd a8 76 bd 21 32 2e 3c 0b ef d5 3d
       -0.052880786 -0.060219754 0.010632069 0.104459845
000120 d1 99 dd bc ba aa 80 3c 00 dd dc bb a0 dc 1c 3d
       -0.027050884 0.015706409 -0.0067402124 0.038296342
000130 18 35 14 3d d3 a0 96 bc 69 a3 0b bd 9e 60 65 3d
       0.036183447 -0.018387234 -0.034091387 0.056000344
000140 0c d7 d5 3d 6f 77 c6 3d 8e a0 94 bc 7e 00 19 3d
       0.104414076 0.09690749 -0.018142965 0.037353985
000150 1f 4d 6e 3d 80 a7 f6 bb ac c2 6d 3d ab 56 9c 3d
       0.058179017 -0.007527292 0.05804698 0.07633718
000160 0e 65 1f 3d b3 7c 62 bd c9 cf 62 bd 0b 3d 38 3d
       0.038914733 -0.055294704 -0.05537394 0.04498009
000170 6d 0c 93 bd c8 a3 0b 3d ca 0d 01 bd 60 e1 a2 bb
       -0.071801044 0.03409174 -0.03150729 -0.0049707144
000180 17 b7 47 3c cc 74 f6 3c 38 70 4b 3c 03 a3 35 3d
       0.012189648 0.03008499 0.012416892 0.044344913
000190 86 8c 13 3e d9 14 09 bd 52 24 bc bc 74 1c bb 3c
       0.14409074 -0.033467147 -0.022966538 0.022840716
0001a0 d5 7b 2b bd e5 ee ab bd 99 fd 3d 39 bf 2c b9 3d
       -0.041866142 -0.08395175 0.00018118917 0.09041738
0001b0 79 25 a2 bc e2 ce 88 3d 88 3c 3f bc ad 5d 5a 3d
       -0.019793259 0.06680085 -0.011672147 0.053311992
0001c0 2e c2 aa 3c 4a 6f a3 3d 44 a7 22 bd 70 6b 3f bd
       0.020844545 0.07980211 -0.0397103 -0.04673332
0001d0 98 20 b3 3d 3b f6 55 3d 69 03 aa 3d c9 11 84 3d
       0.08746451 0.052236777 0.08301432 0.06448705
0001e0 12 32 b2 bd 48 a2 a2 bd 49 fd 90 bc e6 a1 a7 bd
       -0.087009564 -0.07941109 -0.0176989 -0.081851766
0001f0 65 5c 4d bd d1 52 82 3d 49 79 ec 3d 63 5a a4 3d
       -0.050136942 0.06363452 0.11546571 0.080250524

fc3.weight f4 [3, 128]
000000 ef 01 95 bd 37 ad 40 bd a6 85 fc 3c ad 8e eb bd
       -0.072757594 -0.04704019 0.030825447 -0.115018226
000010 02 73 5a 3d 30 69 ae bd f6 dd 35 3d 28 f9 ab 3b
       0.053332336 -0.08516157 0.04440113 0.0052482076
000020 64 6f ae bd eb c5 b2 bd c5 7c e0 bd 09 1e 78 3c
       -0.0851734 -0.08729156 -0.10961298 0.01514388
000030 b8 4f 16 bc bf 63 b4 3b 42 6c 0e 3d 96 54 6c 3d
       -0.00917428 0.0055050547 0.03477121 0.057697855
000040 59 8a 77 bd f9 9b 15 bd 70 49 3b bd 49 fb 92 bd
       -0.060434673 -0.0365257 -0.045724332 -0.07176835
000050 18 92 57 bd 74 ce 33 bd 3e 15 7a 3c f7 77 b1 3d
       -0.05262956 -0.04389806 0.015263854 0.086654596
000060 0f 2d 16 bd f2 e1 9e 3c bc aa a4 bd e4 56 f9 bd
       -0.036664065 0.019394848 -0.080403775 -0.12174776
000070 a0 a0 90 bc e6 f1 74 bd ce 29 92 3b a8 9c 25 bb
       -0.017654717 -0.059801005 0.00446055 -0.0025270376
000080 a5 cf 37 bd d3 74 0b bd 9e cf 24 bd c5 ab b3 3b
       -0.04487576 -0.03404696 -0.04023706 0.005483123
000090 12 ba 79 bc 60 38 46 3d 28 42 3c bc f1 e3 22 bd
       -0.0152421165 0.048393607 -0.011490382 -0.039768163
0000a0 25 10 8f 3d 96 d0 45 3d 3c 96 16 bd c4 83 be bc
       0.06985501 0.048294626 -0.03676437 -0.02325619
0000b0 ae 2d a2 bd 31 aa 07 3d a1 42 35 bc cf b9 47 bd
       -0.07918869 0.03312129 -0.011063249 -0.048761185
0000c0 b0 5b cb bc 33 2c d9 bd 12 23 de bc af e2 a1 bd
       -0.024823993 -0.106041335 -0.027116332 -0.079045646
0000d0 93 68 b7 bd 86 46 3b bd 33 03 e4 3c 02 77 17 3d
       -0.08955493 -0.045721553 0.027833557 0.03697873
0000e0 c7 3d 38 bd 35 fa bf bb 35 0b dd 3c 05 72 6b 3d
       -0.04498079 -0.0058586844 0.026982883 0.057481784
0000f0 96 dc d2 3c fe df 3b 3d f6 06 37 3d 40 0f 40 3b
       0.02573995 0.045867912 0.044684373 0.0029305965
000100 e4 2f a4 3d 8d b0 86 3d 38 63 8a bd ec c1 2f bc
       0.08016947 0.06576643 -0.06757206 -0.010727387
000110 0c 6b 77 bd c8 22 7c bc 10 b5 35 bd ce b8 82 bd
       -0.060404822 -0.015389152 -0.044362128 -0.06382905
000120 0d be 22 3d 2f ba 78 3a b6 4b 84 3d db 79 25 3d
       0.039732028 0.0009488193 0.06459753 0.040399414
000130 4a d3 df 3c d8 b5 ca bd b4 d8 a5 3d 16 6a 8d 3d
       0.02732243 -0.09897965 0.080979735 0.06905
000140 40 35 61 3b f6 23 f6 bd c6 8e 28 bd 59 fd 82 bd
       0.0034364015 -0.12018578 -0.041151784 -0.063959785
000150 fa 81 18 3d 44 68 15 bd 9f 84 d6 bd 25 4c c6 bc
       0.03723333 -0.03647639 -0.10474514 -0.02420623
000160 7a 6c a5 bd 8f 4b 9b 3d 5e ba b4 bc b1 cb 83 bd
       -0.08077331 0.07582771 -0.022061523 -0.064353354
000170 d9 c5 26 bd 87 fd d9 bd f5 96 1e 3c 07 da 4d bd
       -0.040716026 -0.1064406 0.009679546 -0.050256755
000180 86 6e a5 3d 4b 51 c9 bd 31 65 8c bd dd 81 d8 bd
       0.08077721 -0.098299585 -0.06855238 -0.105716445
000190 6c f5 f9 bd ca 74 1c 3d 97 81 f5 bc 05 a6 63 3d
       -0.12205014 0.038197316 -0.02996902 0.05557825
0001a0 7b be 03 3d 74 13 3a bd 92 19 58 bc 7e 06 ee bd
       0.03216408 -0.04542871 -0.01318969 -0.11622332
0001b0 ee 44 3f bc bd 3c 3d 3d cb 86 8b 3d c0 f2 a6 3c
       -0.011674149 0.046200503 0.06812819 0.020379424
0001c0 45 73 6d 3d 55 68 70 bd 18 d4 f4 bc bc 89 85 bc
       0.057971258 -0.05869325 -0.02988629 -0.016301028
0001d0 48 70 81 bd e1 c2 db bd 73 ca 11 bd 29 b1 a5 3b
       -0.06320244 -0.107305296 -0.03559346 0.0050565195
0001e0 e8 21 54 3d f6 b7 6b 3d 7b 18 10 bd 48 31 24 3c
       0.051790148 0.057548486 -0.035179596 0.010021515
0001f0 77 9f 60 bd 7d 65 71 3c f9 11 ae bd 6f 8f ad 3b
       -0.054839578 0.014733669 -0.08499522 0.0052966396
000200 3a 1f 81 bd 70 ca 80 3b 2e 86 90 3d 78 18 c6 bd
       -0.06304784 0.0039303824 0.07056843 -0.09672636
000210 76 01 98 3c 83 a9 c6 bd b3 e6 9a 3d 78 76 09 bd
       0.018555384 -0.097003005 0.07563534 -0.033560246
000220 da f7 47 bc d4 eb 8e 3c 38 e6 da bd ba d2 74 3c
       -0.0122050885 0.017446436 -0.10688442 0.014942819
000230 27 aa 5c 3d 3c 4e 87 bc ec be a1 bd 86 07 42 3d
       0.053873207 -0.016516797 -0.078977436 0.047370456
000240 6c 51 de bd 73 25 ad 3c 58 f3 f5 3c 23 1c a3 3c
       -0.10855374 0.021136021 0.030023262 0.019910878
000250 17 d8 b2 3d 37 11 81 bd f2 6b 5b bc a0 95 27 bb
       0.08732622 -0.063021116 -0.013392435 -0.0025571361
000260 a0 45 96 3d 68 11 0b be fe f9 32 3d b0 1a fa bc
       0.07337499 -0.13580859 0.043695442 -0.030530304
000270 00 30 9e 3c 5c 85 e2 bc a2 a1 9e 3c f9 20 67 3d
       0.019309998 -0.027651481 0.019364182 0.05642793
000280 ba 49 dd 3c 58 5d 94 3d 0e 72 1d bd 57 67 6b bd
       0.027012695 0.072443664 -0.03843885 -0.0574716
000290 21 4c 7c bc a4 e1 a1 3d 88 39 a1 3d 9f dc 03 bd
       -0.01539901 0.07904366 0.07872301 -0.032192823
0002a0 37 10 53 3d 80 04 c6 bd 77 63 c3 3b 67 6a 98 3d
       0.051529136 -0.09668827 0.005962785 0.0744217
0002b0 14 f4 9b 3d 4b db 68 3c 2e 84 9b bc 53 fd 55 3d
       0.076149136 0.01421244 -0.018983927 0.052243542
0002c0 b2 53 df bc 3b 48 0e bc 45 58 63 bd 6d b5 b9 3c
       -0.027261589 -0.008684213 -0.055504102 0.022669518
0002d0 53 35 59 bd 5e f9 81 bd f0 ed 5b bd 08 94 07 be
       -0.05302937 -0.06346391 -0.05369371 -0.13240063
0002e0 20 53 0a be 08 ad de bd be 1a a0 3d b8 cb b3 bd
       -0.13508272 -0.10872847 0.07817601 -0.08779091
0002f0 81 10 28 3d e3 19 52 bd 3b fd c6 3b cb bf 37 bd
       0.041031364 -0.05129422 0.006072668 -0.044860642
000300 37 1d 9f 3c 28 34 af 3d c0 b6 c6 3b 7a 14 77 bd
       0.01942311 0.0855487 0.006064266 -0.060322262
000310 10 37 f8 3b ff d0 f9 bb 46 07 40 bd 31 bc d9 bd
       0.0075749233 -0.007623791 -0.046881936 -0.10631598
000320 20 bf 6c bd 11 27 ad 3d e3 21 82 3d 95 64 b8 bd
       -0.05779946 0.08454717 0.0635412 -0.090035595
000330 5f 54 3a bd 07 c8 7c 3b fb f5 9d 3d 82 13 9a 3d
       -0.04549062 0.0038571374 0.07712933 0.07523252
000340 ca 26 46 bd 0c db 1d bc 95 5d 84 3d de 5e 16 be
       -0.048376836 -0.009634744 0.06463162 -0.14684626
000350 05 8c 83 bd 8f 48 8b 3d 9c 8a ab bc bf 8f 8e bd
       -0.06423191 0.06800949 -0.020940118 -0.06961011
000360 8d 90 73 3d 47 8f ad 3d 42 9e a9 3d 71 9b 10 3d
       0.059464026 0.084745936 0.082821384 0.03530449
000370 88 08 86 3d 6e b5 8f 3c 92 ae 4e bd 8c 44 c9 3c
       0.06544596 0.017542567 -0.050459452 0.024568819
000380 bf d2 c5 bc b1 d5 a6 3b bf 99 13 3d e3 97 f6 bd
       -0.024148343 0.005091392 0.036035296 -0.12040689
000390 9d cd 16 be aa f2 74 3c c3 ef 80 bd 8b 42 c5 bd
       -0.14726873 0.014950434 -0.06295731 -0.09631833
0003a0 3b 9a 3b 3d 8b 8d b3 3d 64 bb b1 3b f0 e7 c1 bd
       0.045801383 0.087672316 0.00542395 -0.09468067
0003b0 b6 d3 88 3d 6d c7 a0 3d 42 4b 5c 3d a0 68 8b bd
       0.06681006 0.078505374 0.05378271 -0.06807065
0003c0 a3 7a 61 bd 31 3e 0e be 5b 5d 1f 3d fe 9a 6a 3d
       -0.055048596 -0.13890912 0.03890739 0.05727672
0003d0 18 60 06 bd 9f be 8e bd 15 a4 49 bc 9c 54 64 3d
       -0.032806486 -0.06969952 -0.012307187 0.055744752
0003e0 a5 cb 09 3d 8e fe 24 3d e9 dc 1f 3d 4f 41 ce bc
       0.033641476 0.040281825 0.039029036 -0.025177626
0003f0 98 3d 63 bd d4 7c 26 3d 19 2c 12 be c7 5d 97 3d
       -0.055478662 0.04064639 -0.14274634 0.073909335

fc3.bias f4 [3]
000000 cb cd d7 bc 08 2c a9 bc 1c 2d 8e 3d
       -0.026343247 -0.020650879 0.06942198
