scripts/models/pg/reinforce_run_4.pth (torch, 76888 bytes, 6 tensors)

fc1.weight f4 [128, 12]
00000000: 76be a5bd bb34 a23e 1f0e 64be f5c1 6b3e
00000010: d821 613d 8b2e 2abe 6627 953e e30f f43d
00000020: bf23 533e 2405 d03d d2b8 c6bd 0df6 203d
00000030: 4528 24be f3ad 48bd 214c 7bbe 8e7c e4bd
00000040: 0742 30bd a3b1 163e 4320 263d 1bed 8c3e
00000050: 48c7 69bd 22d9 dcbd b1f7 91bd dc54 fd3d
00000060: d6bc dabd 1ba0 90bd 22a2 293e 2c01 6dbd
00000070: ce59 56be 215a 473e 7eef 703e 29e1 89bd
00000080: bc3b 4cbe 3609 50bd d8e2 aa3d f0ce 1c3e
00000090: 0232 91bc 9ea6 523e 5ce3 1abe 75ba 8fbe
000000a0: 2df6 103e 8f10 8f3d 2f0d d1bc b37f f63c
000000b0: 2032 5cbe e18c 823d c926 8fbd 4583 5fbe
000000c0: 4650 323d e6ce 6c3e 2ced 3fbe 4e75 f5bd
000000d0: f54b 6b3e eb10 513e 6c51 6b3c b12f 47bd
000000e0: b696 3e3e c5e7 0fbd 2b4e 5ebe b895 7f3d
000000f0: 82d5 f4bd c0f4 59be 3c78 1cbe 4970 bd3d
00000100: deae 0f3e 1ea8 0bbc a5f0 7e3e 2f28 763d
00000110: b1b2 2bbe 8ad2 b0bd f6e5 b83c 9400 d43d
00000120: acf5 383e 4079 60bd dad7 a9bd fb97 dd3d
00000130: 63c0 663e 7391 183d 1a00 883e 6699 143e
00000140: b942 96bd b28a 7b3e 85e1 5abd 7ea2 1ebe
00000150: 33a4 283e 1500 e9bd e3db edbd 169f 393e
00000160: dab2 c73d 22a6 943e 2f29 4bbe 4a9e fe3d
00000170: 3617 df3d f127 a33d b918 28be 1d6b 703e
00000180: 000a 2d3e fe86 4f3e 335f 7b3e efa9 cbbc
00000190: 9248 a83e 1492 0abd 058a 4bbe 4621 163e
000001a0: 07fa 2cbd b322 913e 9e2f 8f3e 22a7 41be
000001b0: 42ea 673e 287a 093e 40ed 513e 165e 853e
000001c0: 1c89 813e 17d1 5b3e f6e4 003e 86c3 393e
000001d0: c4f7 8c3e 7124 303e 361a ffbd c47f 8f3e
000001e0: 1d7a 1d3e 97a0 5b3d 72f5 563e ca32 233e
000001f0: ce29 8a3e e3c6 a73d 6399 0ebe 42aa 37be
00000200: 2d72 4ebe 62cf 02be 946a 003d 2942 da3d
00000210: de06 93be c519 5a3e 746f 8bbd 2012 193d
00000220: 6fd6 8dbe f6b3 8bbe f2d6 fd3d 6986 45bd
00000230: 1223 1dbe 89c1 8cbe 4b96 8bbc 5262 c2bc
00000240: e86d 913e b1d4 15be d293 933b 6373 3f3e
00000250: bbf1 9c3e 416e 383e ee8a 593e 016b 663e
00000260: 4709 493d 981f 56bd 91f0 7f3e abad 44be
00000270: 4dba 603d fb0a 883e 1280 43be 142b 8bbe
00000280: d2db 9b3e 711d 4b3d cf19 873e 38b0 d4bc
00000290: f38e b83d 9281 c5bb 6726 63be 1ef7 813e
000002a0: 4bfd cc3d c4c1 19be c979 153e 7783 a7bc
000002b0: bf23 643e cc70 d0bd 5770 4d3e 8dd8 653e
000002c0: 2a32 15be 5cd7 d73c beb6 803e bfc8 2d3e
000002d0: 3d47 8d3e 3992 873e 7fd0 10be 77b7 833d
000002e0: 6087 283e 5c6c 1bbe d310 8e3e 2b2b 913d
000002f0: 132b 9cbd 6f45 ee3d 839f 4a3e f859 233e
00000300: 5ee6 943e 1313 f7bb 2192 debd 31f1 913e
00000310: 1156 0a3d c792 523e d709 723d 9dba 803e
00000320: aaf3 48be edc7 ce3d b2c2 d2bd 2bea 30bd
00000330: 94e7 fdbc bd8f 6c3e c9f9 173e 498b 9a3e
00000340: 79da 103e eaa8 813e 5d75 8fbd b107 6f3e
00000350: b98a f13c c6c8 473d b9b5 523e cc93 1cbe
00000360: eba7 90be 9c57 863d 0697 7fbe 12d1 a1bd
00000370: 5abf 5bbe b623 35be d454 b1bd 3ad0 403e
00000380: 0024 69be cd48 73be 1417 913d 3b37 e3bd
00000390: 627f c93c ea53 d3bd 3c05 fe3d 2e47 943e
000003a0: 3dd3 ab3e 9943 9e3e 21d3 2cbe 48cd b73e
000003b0: ca37 533e f745 b33d 9fdc 51be 6bb7 b93d
000003c0: b171 f73d 2dd6 28be b994 8ebe c7cd cc3d
000003d0: 2656 4fbe ecfc 943e 1aea d53c eb96 88bd
000003e0: 0f05 9c3e 386a 003e 2b73 24be 0db8 c63d
000003f0: e257 8c3e e813 a03d 0e19 c3bd f677 00be
-0.08092968 0.31680855 -0.22271012 0.23023207 0.054963917 -0.16619317 0.2913162 0.11917093
0.20619105 0.101572305 -0.097032204 0.039297152 -0.16030987 -0.048994016 -0.2454076 -0.111565694
-0.04303172 0.147162 0.04055811 0.27524647 -0.057074815 -0.10783602 -0.071273215 0.12369701
-0.10680549 -0.07061788 0.16565755 -0.057862446 -0.20932695 0.19467975 0.23528859 -0.06732399
-0.19944662 -0.050790034 0.08344048 0.15313315 -0.01772404 0.20571372 -0.15125793 -0.28071943
0.14156409 0.0698558 -0.025518982 0.030090189 -0.21503496 0.06374527 -0.069898196 -0.21827419
0.043533586 0.231258 -0.18742818 -0.11985265 0.22978194 0.2041661 0.014362674 -0.048629466
0.18612179 -0.035133142 -0.21709506 0.062398642 -0.11954786 -0.21284771 -0.15280241 0.09249932
0.1403155 -0.008523969 0.24896486 0.060096916 -0.16767384 -0.08633907 0.022570591 0.10351673
0.18062466 -0.054803133 -0.082931235 0.108200036 0.22534327 0.037248086 0.26562577 0.14511642
-0.07336945 0.24564627 -0.05343773 -0.15491673 0.16468887 -0.11376969 -0.11614206 0.18127093
0.0975091 0.29033 -0.19839929 0.12432535 0.10893099 0.079666026 -0.16415681 0.2347836
0.16898346 0.20266339 0.24548034 -0.024861304 0.32867867 -0.033830717 -0.19876869 0.1466113
-0.042230632 0.28346786 0.27966017 -0.18911412 0.22647956 0.13425505 0.2050066 0.26048344
0.2529992 0.2146648 0.12587342 0.18140993 0.2753278 0.17201401 -0.12456171 0.28027165
0.15378614 0.053619947 0.20992067 0.15937343 0.2698502 0.081922315 -0.139257 -0.17936042
-0.20160742 -0.12774423 0.03135164 0.1065715 -0.28716177 0.21298893 -0.06808367 0.0373708
-0.27702662 -0.27285737 0.12394513 -0.048223887 -0.1534541 -0.27491406 -0.017039439 -0.023728523
0.28404164 -0.14631917 0.0045037055 0.1869636 0.30653176 0.18010809 0.21244404 0.22501756
0.049081113 -0.052276224 0.24994113 -0.19206874 0.05486517 0.26570877 -0.19091824 -0.27181304
0.30441147 0.049588624 0.26386878 -0.025962934 0.090116404 -0.006027409 -0.22182618 0.25383848
0.10009249 -0.15015322 0.14597239 -0.02044843 0.22279261 -0.10177764 0.20062385 0.22445889
-0.14569917 0.026347809 0.2513942 0.1697111 0.27593413 0.26478747 -0.14142035 0.064314775
0.16457891 -0.15178055 0.2774721 0.07088312 -0.07625403 0.11634337 0.19787411 0.15952289
0.29082006 -0.0075401156 -0.108677156 0.28504327 0.033773486 0.20563804 0.059091415 0.25142375
-0.196242 0.100967266 -0.102910414 -0.04319207 -0.030994214 0.23101707 0.14841379 0.3018439
0.1414584 0.25324184 -0.07004807 0.23342778 0.029485093 0.048775457 0.20577134 -0.15290755
-0.2825311 0.06559679 -0.24959955 -0.07901205 -0.21459714 -0.17689404 -0.08658758 0.18829432
-0.22767639 -0.2375824 0.0708448 -0.11094519 0.024596874 -0.1031874 0.12403342 0.28960556
0.335596 0.30910948 -0.16877414 0.35898805 0.2062675 0.08753579 -0.20494317 0.09068187
0.12082232 -0.16487952 -0.2784784 0.100001864 -0.20247707 0.29099214 0.026112605 -0.0666941
0.3047261 0.12540519 -0.16059558 0.09703074 0.274108 0.07816297 -0.09526263 -0.12545761

fc1.bias f4 [128]
00000000: 2a94 243d f368 1f3e db61 a13e 9303 1a3e
00000010: 3b92 d5bd cb70 8c3e 5ce5 07be 6724 15bd
00000020: 192c 4f3e 155d 5a3e 1991 813e 2526 42be
00000030: c759 703c 066d 493e 2694 f23d 92ea bfbb
00000040: ea28 dcbc a9a3 973e f18a 5c3d f6c0 cebd
00000050: 93d1 9b3e e623 d43d e9e8 1bbd 7c85 a8bd
00000060: d34f 37be 5bdd 713e 6fde e23d 71d5 c9bd
00000070: 1721 3cbe aa9b 21bd 74ce bdbd 96e3 6d3d
00000080: f3c5 a83d 7785 3abd 1fad adbc da69 83bc
00000090: d312 413e 1a48 9ebd 250e 91be d3de 833c
000000a0: 75a0 ec3d 6667 77be 2e28 be3d 1afd 033e
000000b0: 6c4c 29bc df12 68be 7d5f 0e3e 6562 07bd
000000c0: d548 6a3e 615c a73d f7e5 2a3e cfea ad3d
000000d0: 8ac5 82be a794 22be 5ba2 f639 9281 9e3e
000000e0: 7a5b 1cbe f945 adbc 8349 5cbe b032 ebbd
000000f0: 73da 32be 4701 b3bd c9fd 51be 2416 04be
00000100: 60d9 a53e aa92 3d3d 42d4 1abe 5608 2ebe
00000110: 92cc 0b3e fbed cc3c 323c 77be f18d 96be
00000120: e329 783e 3ec5 d83d 6747 96bc eb55 1b3d
00000130: e504 c53b f935 393e d0b2 2cbe b716 06be
00000140: 8988 8dbd ca7f f8bd 617f 773d a06a 663d
00000150: b3e2 52be 2dcd 483e bc78 38be 6a79 933e
00000160: d0a9 b4bd ffb4 87be 7b9a 5e3e 8bfa eebd
00000170: 0e65 8b3e e557 7c3e e715 8e3e fc8f fabd
00000180: 8404 243d 76f5 d33d 1818 81be b83f 233e
00000190: a42b 05be 6803 b4bd 7f86 933e 3c5e 283d
000001a0: d67a 35be 284b 133d c4f5 603e 1789 f43d
000001b0: ed40 133e 5f0e 22be 0b1c 53be 4a67 0cbe
000001c0: 93e2 4a3c 179c 02be 753d 553e a61a 8eba
000001d0: ca7f e839 4672 80be 120b 1f3e ce4c 8dbe
000001e0: 5d8a 9f3e e2bc f73d f03e c7bd 7d13 0c3e
000001f0: 48be 00be 7da5 f73c 0680 bebd 1b53 0fbe
0.040180363 0.15567379 0.3151997 0.15040426 -0.10428282 0.27429804 -0.13271087 -0.03641167
0.20231666 0.2132457 0.25306013 -0.18959863 0.014669842 0.19670495 0.11844663 -0.0058568204
-0.026874978 0.2961705 0.053843442 -0.10095398 0.3043333 0.103584096 -0.038063917 -0.08228585
-0.17901544 0.23619597 0.11077582 -0.09855164 -0.18371998 -0.039455093 -0.092678934 0.05807837
0.08240881 -0.04553744 -0.021200715 -0.016041685 0.18854837 -0.07728596 -0.28331104 0.016097462
0.11554042 -0.24160537 0.092850074 0.1288952 -0.010333162 -0.22663449 0.13903613 -0.03305282
0.22879346 0.08171917 0.16689287 0.08492052 -0.25541335 -0.15877019 0.0004704174 0.3095823
-0.1526927 -0.02115153 -0.21512417 -0.11484277 -0.17466144 -0.08740478 -0.20506968 -0.12899071
0.32392406 0.046282448 -0.15120032 -0.16995367 0.13652256 0.025015822 -0.24144056 -0.29405168
0.24234729 0.10584496 -0.018344594 0.037923735 0.0060125464 0.18086995 -0.16865087 -0.13094603
-0.06910808 -0.12133749 0.060424212 0.05625403 -0.20594291 0.19609518 -0.18014807 0.2880357
-0.08821452 -0.26505277 0.21738617 -0.11668881 0.27225536 0.24642904 0.27751085 -0.12234494
0.04004337 0.10349552 -0.25213695 0.15942276 -0.13004929 -0.08789712 0.2881355 0.041105494
-0.1772264 0.035960346 0.21968752 0.1194021 0.14380236 -0.15825795 -0.20616166 -0.13711277
0.012383121 -0.12754856 0.20824225 -0.0010841682 0.000443457 -0.25087184 0.15531567 -0.2759766
0.3116025 0.120965734 -0.09728801 0.13679309 -0.12572587 0.030230278 -0.09301762 -0.13996546

fc2.weight f4 [128, 128]
00000000: 2f90 cabc ed8b 4f3d d9fc c2bc 8059 a8bc
00000010: 2426 533d a3f4 d63b 9fc5 41bc 291f 3bbd
00000020: 77ff 88bd 2050 8dbd 4852 bbbc c57c 6fbd
00000030: 77b2 a7bc b539 9c3c d542 a0bd 6e0c de3c
00000040: e0be a4bd d593 a9bd d298 c53c cdf3 9bbc
00000050: f9c2 68bd 453d 853d b2ad afbd ca4e 06bd
00000060: 0474 c7bd 8054 b0bd a59f d9bc abd6 633c
00000070: d122 0fba b3db 303d 3373 6dbc feb9 813d
00000080: 0f51 243c e2dc 0dbc a1bf 873d 5b56 22bc
00000090: 41df 8c3b b229 8c3d 5bff 01bd a778 e23c
000000a0: 739d 65bc dbc5 aa3d 659b c7bc 56a5 2b3d
000000b0: db28 adbd 8013 13ba b46f c1bd b25c a4bd
000000c0: 9673 a53d 7f2d 963d f29a 113d 2916 023c
000000d0: c721 b6bd 826f 073d 8222 403d 11b0 853c
000000e0: f9e1 913d e6f3 79bd 7522 10bd 3349 cd3b
000000f0: 97c3 6dbd d2ad c2bd 06f7 c23b f2c6 04bd
00000100: ed55 40bc e02c 9bbb 631a 933d 9a28 4e3d
00000110: a5b6 8abd 7eed 22bd 892b bb3c d61d 4a3b
00000120: 8798 79bd 8eed 273d 00af b1bd fbf7 993d
00000130: ca19 95bd 5e61 87bd ee98 87bc 5c96 54bd
00000140: 78e3 62bd 58ce c83c 02f8 22bd bb79 afbd
00000150: 89a1 a4bd 052c 3abc 3152 9fbd bc58 2ebd
00000160: 4569 77bb a04b 85bc 67b5 783d baca c4bd
00000170: 1412 84bd 7955 9c3d 271c 7d3d 9015 9e3b
00000180: 41d6 92bd 9422 333d 5f0a b43d e5d5 523a
00000190: 22b2 c0bd 90b1 973d 0072 5f3c e53f 8bbd
000001a0: 40f4 c63a 68c6 a9bd 0903 40bc f68a 553d
000001b0: f1d8 1b3d 7d88 053d e149 fabc 91c1 a73c
000001c0: 1f20 54bd ab83 d5bc e18d dcbb b385 43bd
000001d0: d9a2 2a3d 4364 fabd 067d 003d 87a9 35bd
000001e0: e2ba 17bd e519 38bd 90b0 abbd 8288 83bd
000001f0: c862 3cbd b3f0 983c 8c94 863c 20c9 94bc
00000200: 68ca 163c cbb2 aa3d 9eda 78bd e097 3c3b
00000210: be07 29bd ee6f 5a3d 0e69 173d 76fb 653d
00000220: 5bd9 a43d f60f 79bd 3cc4 00bd 9147 32bd
00000230: 974c 923d b0cc 0dbc 5082 73bd 5c5b d4bc
00000240: 9091 d33b 2510 67bd b822 753c fa85 0f3d
00000250: f0f1 afbd 77a7 a43d bc18 e93c 0876 5cbc
00000260: 62ec 9fbd 04ea 7bbd d6b6 4bbd 4f20 8c3d
00000270: d398 8a3d 86aa 113d 7509 8f3d 98c7 06bd
00000280: 2ba6 8abd 9166 b03d f234 233d b494 a3bc
00000290: 74f3 c7bc 438d a3bd bc46 983c 500c 023c
000002a0: 231d 58bd 68b3 5dbd 4200 1dbd 217f 893d
000002b0: aba6 96bd 54da 86bd 5a51 5d3d 57cb 96bd
000002c0: e1c6 993d 2dd7 1fbd 415b 9c3d d875 3cbc
000002d0: 9072 74bc ca20 7a3d 70da a9bd 1c2d ff3c
000002e0: eacc 83bd c1ab a2bd 4097 383c 84dd d33c
000002f0: 60e9 40bb 6f9f 8c3d d8a9 88bd 78a3 82bd
00000300: 06b7 9fbd 8e14 1fbd 46a6 a1bd 740f cd3c
00000310: a557 18bd 8f21 47bd fed0 693d 2004 48bb
00000320: 051a 35bd 6721 943d 26bc 793d e4ba 6dbd
00000330: 39ec a5bd c223 213d 92c8 433d dc45 90bd
00000340: 682d 01bd e0d7 82bc 184e 4ebd dae5 84bd
00000350: 6950 b1bd 440a 96bc 390a a53d e2b7 15bd
00000360: 8f63 ae3d 50d5 92bc 36e3 03bd dd3c a5bd
00000370: 31f5 58bd e686 573d 1eb1 593d d05a 84bb
00000380: 9c8f c93c b059 b7bb 2098 afbd f999 843d
00000390: 5a52 57bd 1a5b 203d 00ad 2bba 19ec 953d
000003a0: dede 16bd 9160 56bd 0077 b639 4839 8a3c
000003b0: 78c2 36bd 005f b3bb 54e0 b4bd 5b1a 973d
000003c0: 5754 8a3d c933 aabd b4ca d9bc 44ec d33c
000003d0: c1e0 5ebd b366 08bd e0dc d43c 0004 a2ba
000003e0: 7807 3c3c 82e1 3f3d 5df7 20bd b04f 1b3c
000003f0: 4bb0 a9bd 4796 883d b4ba adbc a07a 213c
-0.024726955 0.050670553 -0.023802208 -0.02055049 0.051550046 0.0065599247 -0.011826902 -0.045684014
-0.06689351 -0.06900048 -0.022866383 -0.0584686 -0.02047084 0.019070486 -0.07825247 0.027105536
-0.08044219 -0.0828015 0.024120722 -0.019037152 -0.056826565 0.06505827 -0.085780516 -0.032789983
-0.09738925 -0.08609867 -0.026565382 0.013906161 -0.0005460205 0.04317827 -0.014492798 0.06334303
0.0100290915 -0.00865862 0.06628347 -0.009908284 0.004299075 0.0684389 -0.031737667 0.027645422
-0.01401459 0.08338519 -0.02436609 0.041905724 -0.08455058 -0.00056105107 -0.09445134 -0.08025493
0.08078687 0.073328964 0.035548158 0.007939854 -0.08893161 0.033065327 0.04690791 0.016319307
0.07123179 -0.061023615 -0.03518911 0.0062648295 -0.058047857 -0.0950581 0.0059498576 -0.03241629
-0.011739236 -0.004735574 0.07182767 0.05033169 -0.06773118 -0.03977727 0.022847908 0.0030840538
-0.060936477 0.040998034 -0.08675957 0.07518002 -0.072803095 -0.06610368 -0.016552415 -0.051901206
-0.055392712 0.024512455 -0.0397873 -0.0856814 -0.08038623 -0.011363034 -0.07779349 -0.042565092
-0.0037751955 -0.016271412 0.060719874 -0.096089795 -0.06448761 0.0763349 0.061794426 0.004824348
-0.07169772 0.04373415 0.08791041 0.0008042737 -0.09408976 0.07406914 0.01363802 -0.06799296
0.0015178993 -0.08289796 -0.011719474 0.052134477 0.03804869 0.03260087 -0.030552806 0.020478042
-0.051788446 -0.02606376 -0.0067307805 -0.047734927 0.04165921 -0.12226155 0.03136923 -0.044351127
-0.03704346 -0.04494657 -0.08383286 -0.06422521 -0.045992643 0.018669462 0.016428255 -0.01816231
0.009203531 0.08334883 -0.060755365 0.0028777048 -0.04126715 0.0533294 0.036965422 0.056148015
0.0804927 -0.060806237 -0.031437144 -0.043525282 0.071435146 -0.008654758 -0.059450448 -0.02592247
0.0064565614 -0.05641188 0.014961891 0.03503988 -0.08591068 0.08039754 0.028454177 -0.013455875
-0.07808758 -0.06150247 -0.049734913 0.068421 0.0676743 0.035563014 0.06984226 -0.03290519
-0.06769975 0.08613313 0.039845414 -0.019968368 -0.02440808 -0.07985928 0.018588416 0.007937506
-0.052762162 -0.054126173 -0.038330324 0.06713701 -0.07356008 -0.065846115 0.05403266 -0.07363003
0.07508636 -0.039023567 0.07634593 -0.0115027055 -0.014919892 0.061066426 -0.08293617 0.03114944
-0.06435569 -0.07942916 0.01126653 0.025862463 -0.0029435977 0.06866347 -0.0667302 -0.063788354
-0.07798581 -0.03883796 -0.07893042 0.025031783 -0.03719296 -0.04861599 0.057084076 -0.0030520037
-0.044214267 0.072329335 0.060970448 -0.05803956 -0.081016965 0.039340742 0.0477987 -0.070445746
-0.031537443 -0.015972078 -0.050367445 -0.06489153 -0.08657915 -0.018315442 0.080585904 -0.036552317
0.08515083 -0.017923981 -0.032199107 -0.080682494 -0.052968208 0.052618884 0.053147428 -0.004039146
0.024604611 -0.0055954084 -0.085739374 0.064746805 -0.05256877 0.03914938 -0.00065489113 0.07320423
-0.036833636 -0.052338187 0.00034802407 0.016873017 -0.044619054 -0.0054739714 -0.0883185 0.07378074
0.06754368 -0.083106585 -0.026585914 0.025869496 -0.05441356 -0.033301067 0.025984228 -0.0012360811
0.01147639 0.04684592 -0.039298404 0.009479448 -0.08285578 0.06669288 -0.021207191 0.009855896

fc2.bias f4 [128]
00000000: 40c2 bf3c 0338 a7bd 8ade aabb 6433 243c
00000010: 9841 21bd f041 91bd 2abb d23d 98a5 683d
00000020: 3981 fc3c e520 12bb e701 1f3d 5796 543d
00000030: b012 24bc 19df 8dbc bde6 813d 3932 d93c
00000040: 4a33 dc3d 8be4 da3c 83eb e53c 3bfa 513c
00000050: 72a7 763b 85f1 143d 4269 abbd d01f 123b
00000060: 08b5 d53d 4dbb 173d fc10 a13d 5c6b ab3d
00000070: 1baf c1bd 3d64 813d eae2 6cbd 59a9 273d
00000080: 680d e33d c718 fe3c 1e0d b23c 4964 97bd
00000090: 069b d63c 5b28 8dbd ba71 2a3c 5b5c 053d
000000a0: 8eea 8d3d a897 bf3c b166 aa3d a517 af3c
000000b0: fd47 9b3d f203 a1bc 9dce 933d 69a2 c0bc
000000c0: 8a9b 4f3d da68 ce3c 328a 083d 0a85 5cbc
000000d0: 4f30 8e3c 0f0f abbd cbc4 a5bd c000 ebbb
000000e0: 7f8d 923d 1ca2 843d 4276 4dbd f978 ed3d
000000f0: 409b 28bc f9ad 973d 66b5 03bd fb1e eabc
00000100: 47cf acbd 1bf7 553d 167f 433c e57c e9bb
00000110: 46b0 d63d 6923 873d cdf4 d03c 85fb 64bd
00000120: c55d 5c3d 2bba 76bd 87c4 60bd 1fef 223d
00000130: 9ea2 6ebd e9fb 8dbd d64c 8ebd b94a 1f3b
00000140: 1598 28bd 3850 e63d 84db fdbc e2b3 233c
00000150: df68 153c 7aa5 c43d 6c4e fd3d c003 84bb
00000160: 49dc 933d c6c0 10bd 2570 86bd 48f8 6bbd
00000170: b871 32bd 241c 6c3d c909 4bbc 72d9 b0bd
00000180: 4710 a93d fddd 80bd c892 a73c 8c95 df3b
00000190: e0bd 373d e148 af3d bc65 903c 54c0 193d
000001a0: eb7e 593d dee1 763c 4d18 c1ba 3b23 8f3d
000001b0: 4798 8fbd 136f 55bc 4f5c 46bd e4c3 d03d
000001c0: 9dc9 f53c 11ad 80bd 2b0e 7a3d 4b42 0f3b
000001d0: 78ec c53d eaf5 b0bd 28cf 91bc d07a 5e3d
000001e0: 765e 94bd 2c92 513d 809e 22bd 50c9 9fbd
000001f0: 3643 34bc 2104 0f3d e8eb 30bc 2917 79bd
0.023408055 -0.0816498 -0.005214517 0.010022018 -0.039369196 -0.07092655 0.10289605 0.056798548
0.030823337 -0.0022297439 0.038820174 0.051901188 -0.010014221 -0.017318295 0.06342838 0.026513206
0.1075197 0.026720306 0.028066402 0.012816007 0.0037636426 0.036363143 -0.08369686 0.0022296794
0.104349196 0.03704386 0.07864568 0.083700866 -0.09457227 0.06317947 -0.05783359 0.040932987
0.110865414 0.031017674 0.02173477 -0.07392175 0.026196968 -0.06892463 0.010403091 0.03255878
0.069295034 0.023387745 0.08320368 0.02137358 0.0758209 -0.019655202 0.07217143 -0.023514943
0.050685443 0.025196481 0.03333492 -0.013459453 0.01735702 -0.083524816 -0.08094176 -0.0071717203
0.071558945 0.064762324 -0.050161608 0.11595339 -0.010290921 0.074062295 -0.032155417 -0.028579226
-0.084379725 0.05223761 0.011932155 -0.0071254843 0.1048284 0.06598551 0.025507355 -0.05590393
0.053800363 -0.060236137 -0.054874923 0.039778825 -0.058260553 -0.06932814 -0.06948249 0.0024306013
-0.04116066 0.11245769 -0.030988462 0.009991618 0.0091192415 0.09601875 0.123684734 -0.0040287673
0.072197504 -0.035340093 -0.065643586 -0.057609826 -0.043565482 0.057644024 -0.01239247 -0.086352244
0.08255058 -0.06292341 0.020455733 0.0068232473 0.044858813 0.085588224 0.017626636 0.037536934
0.053099554 0.015068499 -0.0014731974 0.069891416 -0.070114665 -0.01302697 -0.048427876 0.10193613
0.030003363 -0.0628301 0.061048668 0.0021859582 0.096642435 -0.086406544 -0.017798975 0.054316342
-0.072445795 0.05116479 -0.03970194 -0.07802069 -0.011002352 0.034916047 -0.010798432 -0.060813103

fc3.weight f4 [3, 128]
00000000: fffe 973d c23b 5a3d cab7 6b3d c9e1 12bd
00000010: 8ec9 6c3c f48e 01bd 34be 993d 1f0c 8bbc
00000020: 736a a93d 3470 773c cd74 9dbd 77f9 b8bd
00000030: 0d48 943d f93e 8fbd 230e acbd 7629 36bd
00000040: af14 3b3d 2d13 56bd d855 a23c 8f0f 803d
00000050: 9dda d5ba 9d5f 823d e995 393d b83f 83bd
00000060: 3243 d9bc ea5a 8abc 11c4 823c cea7 2c3d
00000070: 659a 933d fdf6 ebbb 67e4 133c 0c96 fa3b
00000080: 4202 e93c 0aac bcbc 79ad 0e3d 807c eabc
00000090: 7df1 1cbd e08a 2abd f980 83bd 3f9a 7ebc
000000a0: 97f5 41bd aa8a 853d e5e7 86bc d36c c13d
000000b0: bc4b fe3c 1f6d 80bd 35d1 94bd d427 f2bc
000000c0: 01bd ce3b 9cb1 833d feff adbd f2af 313d
000000d0: a547 6f3d ea14 893c 400a 763c a07e 51bd
000000e0: ef20 693d bcbe 713c bbea 19bd 8581 d83c
000000f0: 4b88 a0bd 7667 94bd 0165 afbd 2383 c83d
00000100: 2e1f 02bd adc4 f73c 61c4 83bd 126e 163c
00000110: c777 95bd 3799 623d 4c08 3e3d a4db 89bd
00000120: 43c1 ad3d 996c 083d 007e da39 2ebe 943d
00000130: 3b68 a33c 884c 483c 84c1 9e3c f87d 8b3d
00000140: cc8f 483d 5850 b6bd c9e5 6abd 6784 5dbd
00000150: 4666 c03c b62b b2bd 519c a3bd ba3b 283d
00000160: 0043 973b 9cfb 523d b06c 163d f1c2 413d
00000170: 5709 7fbd 641f bc3c f2fd d73c 54d8 a63d
00000180: 6083 713d 0c58 c8bc 59de 16bd 7c7f 873d
00000190: 7501 693d ec5d 163d 136b 8f3d bcc5 48bd
000001a0: a33d ad3d 10a2 1c3d 6154 acbd 0f2c 933d
000001b0: 0116 583d 0c31 7a3d b7c9 a63d e192 6abd
000001c0: 46a0 a33c 3313 62bd cc2e 37bd 15de dabd
000001d0: d4a6 cdbd df50 edb9 4fb1 a83b badb a3bb
000001e0: 36c4 b0bd ef52 573c 1f98 413c 3f66 ac3d
000001f0: bcc3 863c 9faa 7e3c f39a 7d3b a615 89bd
00000200: 7f79 84bd 9870 83bd ccad 01bd aeeb 80bd
00000210: 9f41 f5bd 90fb 37bd 84f6 26bd 6027 9e3d
00000220: 2b64 45bd a554 10be 55bf 35bd b3b7 08be
00000230: ce7e 363d 5a65 e1bc bf37 ebbc fa57 223d
00000240: 8c6b f0bd 30ab 9e3c 7243 ad3c 9b3c d1bd
00000250: 41be 02bd 4d5c eaba 366f 153c 7d3f 00be
00000260: eae6 503c a443 2d3d 8e5f acbd fc83 efbd
00000270: d3c6 013d 87e9 353b d704 673d 5245 dbbd
00000280: d0d3 2dbd ebe8 f0bd c87b 013d d8b8 763c
00000290: 31b7 d4bd 17d7 833d 4431 c03c 3f1c 07be
000002a0: 385b 83bd b0bf 31bd 2e36 89bd 12cd 82bd
000002b0: 109e 8ebb e20f 5fbd 65a6 6dbd 55da eabd
000002c0: c18f 25bd 8863 3e3d d961 453d 3250 dfbd
000002d0: f26c a2bc 9fe0 ff3a 22e2 203b 9020 07bc
000002e0: 9bb5 2bbd ef78 b8bb 3c10 a1bd 9f7d ccbd
000002f0: 35cc 9bbd d050 1a3d 03d8 703c 8f93 febd
00000300: 7067 dcbb 7a9b fabd 1490 17bc e6f5 a7bd
00000310: 3457 88bd 7311 0f3d e04c 86bd ac1a 57bd
00000320: e9b7 91bd 0c6e a3bc 3e05 733d 0908 a9bd
00000330: cfd3 4c3d b290 0a3d aaf2 373d 9ca8 223d
00000340: ce98 ebbc 9be5 0ebe 1178 92bd b274 cbbd
00000350: 4bc9 49bd b6ba b2bd 7388 eebd 1e76 6ebd
00000360: 8e1c 8abd aace 9e3d d66b 833d e1d4 9f3d
00000370: 00ff 743d 7686 53bd 9e7d 0b3d 6e79 c53c
00000380: 61ae 0a3d 391e 9ebd 242e 313c 4aaf 45bd
00000390: f78c 9cbd 531e eabd ac16 a53d a1f5 b1bc
000003a0: c93c 7fbd 4fed 57bd 8e86 a0bd a0ad ebbb
000003b0: 11a5 2f3d 3792 06be 381b 84bc a9b8 ffbc
000003c0: 5ad8 82bd f6f8 3a3d 3977 943d 2544 4b3d
000003d0: 26b1 f4bc 0c91 c73c bfa9 c6bd 4d6d 62bd
000003e0: b023 583d fe72 9cbc 48b9 443c 58af 6b3c
000003f0: 7605 e9bd c334 0abc c5f0 0abd 4600 a63d
0.074216835 0.053279646 0.05754832 -0.035859857 0.014452351 -0.03163047 0.075069815 -0.016973553
0.08272257 0.015102435 -0.076882936 -0.09031957 0.07240305 -0.06994433 -0.08401134 -0.044473134
0.045674022 -0.05226438 0.019816324 0.062529676 -0.0016315762 0.06365893 0.04530898 -0.06408638
-0.026521299 -0.016889054 0.015962632 0.04215222 0.07207183 -0.007201074 0.009026623 0.0076472815
0.02844346 -0.023031253 0.034833405 -0.02862382 -0.03831624 -0.041636348 -0.06421084 -0.015539705
-0.047353353 0.06520589 -0.016467998 0.09444585 0.031041972 -0.06270813 -0.072664656 -0.029560007
0.006309152 0.06430361 -0.08496092 0.043380685 0.058417935 0.016733605 0.015017092 -0.05114615
0.056916174 0.014754947 -0.037577372 0.026428947 -0.07838496 -0.07246296 -0.08564187 0.09790637
-0.031768017 0.03024515 -0.06433941 0.009181516 -0.07298236 0.0553219 0.04639463 -0.06731346
0.08484127 0.03330669 0.00041674078 0.072628364 0.019947162 0.012225278 0.019379385 0.06811136
0.04896526 -0.08902043 -0.057348046 -0.054081347 0.023486268 -0.086997434 -0.07988799 0.041072585
0.0046161413 0.051509485 0.036724746 0.04730505 -0.062264767 0.022964187 0.026366208 0.0814673
0.05896318 -0.024456047 -0.03683314 0.066161126 0.056886155 0.036710665 0.07002845 -0.0490167
0.08459022 0.038240492 -0.084145315 0.07186138 0.05275536 0.06108193 0.08143943 -0.05726898
0.019973885 -0.05519409 -0.044722363 -0.1068689 -0.100415856 -0.00045264416 0.00514809 -0.0050005587
-0.08631174 0.0131423315 0.011816054 0.084179394 0.016450755 0.015543609 0.0038697093 -0.06693582
-0.06468486 -0.0641796 -0.031659886 -0.06294952 -0.11975407 -0.044917643 -0.04076244 0.07722354
-0.04819123 -0.1409479 -0.04437192 -0.13351326 0.044554524 -0.027514149 -0.028713105 0.039634682
-0.11739263 0.019368738 0.021150324 -0.10216638 -0.03191972 -0.0017880291 0.009120753 -0.12524219
0.012750367 0.042300835 -0.08416663 -0.11695096 0.031683754 0.0027757601 0.0564011 -0.10706581
-0.04243833 -0.117631756 0.031612188 0.015058719 -0.103865035 0.064375095 0.023460992 -0.13194369
-0.06413883 -0.043395698 -0.06699787 -0.0638677 -0.0043523386 -0.054458506 -0.058020014 -0.11467425
-0.040420298 0.04648164 0.048189018 -0.10903968 -0.01982734 0.0019521898 0.0024548848 -0.00824751
-0.04192124 -0.005629651 -0.078644246 -0.09984898 -0.07607309 0.037674725 0.014699939 -0.12430488
-0.006726198 -0.12236686 -0.0092506595 -0.08201198 -0.06657258 0.03492875 -0.065576315 -0.05251567
-0.07115156 -0.019949935 0.05933117 -0.08253486 0.050006684 0.0338294 0.044909157 0.03971158
-0.028759386 -0.13954775 -0.07151807 -0.09934367 -0.049264234 -0.087270185 -0.116471194 -0.058218114
-0.067437276 0.07754262 0.064170524 0.07804275 0.0598135 -0.051641904 0.034055345 0.024105754
0.033857707 -0.07720608 0.010814223 -0.04826287 -0.076440744 -0.11431565 0.08060965 -0.02172357
-0.06231383 -0.05271655 -0.07838164 -0.0071923286 0.04288203 -0.13141714 -0.01612626 -0.031215983
-0.06388922 0.045647584 0.072493024 0.049625535 -0.029869627 0.024361156 -0.09700345 -0.05528002
0.05276841 -0.019097801 0.012007065 0.014385067 -0.11377995 -0.008435431 -0.033921022 0.08105521

fc3.bias f4 [3]
00000000: 5aef 9c3d c836 b1bd ee52 0b3d
0.0766284 -0.08653027 0.034014635
