scripts/models/pg/reinforce_run_7.pth (torch, 76888 bytes, 6 tensors)

fc1.weight f4 [128, 12]
000000 73 81 58 3e e3 58 60 bd 67 96 38 3e 53 16 91 3d
       0.21143131 -0.05477227 0.18026124 0.07084336
000010 9b b7 41 be a9 ef 7c 3e 99 be 77 be 46 7c 93 bd
       -0.18917696 0.24700798 -0.24193801 -0.07201438
000020 03 0e 40 3e 58 a3 90 be 94 7c 90 be 9c e9 ae 3d
       0.18755345 -0.2824962 -0.28220046 0.08540651
000030 52 af 85 be 66 61 54 be fc d0 b1 3d b1 f7 92 be
       -0.2611032 -0.2074028 0.08682439 -0.287046
000040 cf 99 ad 3d 4b 7b 99 bd 7a cd fb bd f6 9a 7f 3e
       0.08476602 -0.074942194 -0.12295051 0.24961457
000050 0e ef 84 be 1d 64 a3 bd bf b0 0c be 27 e1 61 bd
       -0.25963634 -0.079780795 -0.13739298 -0.055146363
000060 7e 4f 0a be fe fa 35 be 6c ff 7b be d0 e4 1e be
       -0.13506886 -0.17771527 -0.24609154 -0.15516973
000070 59 5f 8f 3d b8 3d cb 3d c4 25 83 be 3c a8 80 3e
       0.07000608 0.09923881 -0.2561475 0.25128353
000080 f7 80 28 3e bd f1 a8 3d a6 4a 3f bd 55 f0 30 3e
       0.16455446 0.08249233 -0.04670205 0.1727918
000090 89 f2 49 3e 3b 37 8d 3e 20 a8 8d 3d 0f bd 81 be
       0.19721426 0.275812 0.06916833 -0.25339553
0000a0 c5 f8 05 be 92 f9 b5 3c ba 14 57 be 98 06 15 be
       -0.1308318 0.022213731 -0.21004 -0.14553297
0000b0 6d a7 55 be ad f7 1e bd eb 28 50 be 6f 06 dd bd
       -0.20864649 -0.03881042 -0.20328109 -0.10792243
0000c0 86 09 4c be dd ac 1e 3e ad e6 34 3e a5 d0 6f 3e
       -0.19925508 0.1549563 0.17666121 0.23419435
0000d0 8c 70 0d be 5a ce 9a be 5c 5c 90 bd 24 72 fd 3d
       -0.13812464 -0.3023556 -0.07048866 0.12375286
0000e0 cd ec 62 be 26 df df bd c8 fe 83 3e 28 8c fe bd
       -0.22160645 -0.10931234 0.2578032 -0.124290764
0000f0 9e e4 08 3e be 10 75 3d 6d 76 04 bd b7 1a 71 3d
       0.1336846 0.05983042 -0.032339502 0.058863368
000100 0e 11 99 3c f1 50 1f 3e 8f df 94 bd 7a 21 5f 3e
       0.01868489 0.1555822 -0.07269203 0.21790114
000110 a3 1c 13 3e 96 92 41 3e 55 e4 d1 3d ea 1f d2 3d
       0.14366393 0.18903574 0.10248629 0.102599934
000120 a0 1b 5e bc 60 83 13 bd 15 95 03 3e 45 97 8b 3e
       -0.013556391 -0.03601396 0.12849839 0.27263847
000130 80 0b 61 bc 94 65 32 be 7b 23 57 3e 23 4f 47 be
       -0.013735652 -0.17421561 0.21009628 -0.19463782
000140 28 0c 51 3e 7b 72 69 3e 01 32 91 bd 16 5d 72 be
       0.20414793 0.22797577 -0.070896156 -0.23668322
000150 1e 00 3e 3e f5 77 85 be 51 fc 42 be 32 c7 74 be
       0.18554732 -0.26068082 -0.19041564 -0.23904112
000160 b5 60 49 3d 8d 15 8f 3e 37 c8 00 bc 04 6f d3 bd
       0.049164493 0.2794613 -0.007860235 -0.10323909
000170 e6 4d 78 3e ee e4 2c be 86 18 74 3c 7f c3 53 3e
       0.24248466 -0.16884205 0.014898425 0.20680045
000180 45 2d d8 3d 4d 89 c2 bd 9d 72 a4 bd 95 6c 14 be
       0.105555095 -0.09498844 -0.08029673 -0.14494546
000190 a8 d9 47 3e 2f fe 9a 3e ff dc eb 3d 00 cd c4 3d
       0.19516623 0.30272052 0.11516761 0.09609413
0001a0 98 f2 48 3d be a5 86 bc 18 9a 05 be b7 df 87 bd
       0.04905948 -0.016436454 -0.13047063 -0.06634467
0001b0 02 d6 3d be 04 3e 98 3b 75 ac 8c be e7 7a fb bb
       -0.18538669 0.0046460647 -0.27475324 -0.007674563
0001c0 77 c1 93 bd 2f 1e 38 be ad 64 77 bd ac 3a 20 be
       -0.07214635 -0.17980264 -0.060398746 -0.15647382
0001d0 aa ea 30 3e d8 62 34 be 8f 59 6d bd 10 c0 a5 3d
       0.17277017 -0.17615831 -0.057946738 0.08093274
0001e0 a9 ad 9c 3d 5b fa 60 3e a8 96 c8 3d 87 75 71 be
       0.076503105 0.21970503 0.097943604 -0.2357999
0001f0 9d 18 90 bd e8 e5 99 3e 2e ae f8 3d 06 c7 2a be
       -0.070359446 0.30058217 0.12142597 -0.16677484
000200 d6 5d 1d be 41 bb 4a bd ed c5 07 3d 3c 86 ed bd
       -0.15367827 -0.049494985 0.03314774 -0.11597869
000210 1f e0 e4 3d b8 67 a8 3d f4 de 23 3e 1a e7 fe bd
       0.1117556 0.08222908 0.16003019 -0.12446423
000220 00 b0 d6 b8 4e f0 29 3d 6b 99 43 3e b6 85 7e 3c
       -0.00010237098 0.041488938 0.19101493 0.015534809
000230 6d 51 36 3e 4f f8 82 be 31 11 14 be e8 ee d1 3c
       0.17804499 -0.2558007 -0.14459683 0.025626615
000240 3f 20 4e 3e 00 df 48 be e4 20 85 3e 9a dc 84 be
       0.20129488 -0.19616318 0.26001656 -0.25949556
000250 96 f8 d1 3d a4 66 19 3e ee 45 97 bd 1d 90 7b 3e
       0.10252492 0.1498056 -0.07386385 0.24566694
000260 5e ab 97 3d 17 be 10 be 13 7e 48 be e5 52 8b be
       0.074057326 -0.14135014 -0.19579343 -0.2721168
000270 a2 28 90 3e 74 c5 1f bd 31 d0 7e 3e 99 87 47 be
       0.28156 -0.039006665 0.24884106 -0.1948532
000280 a6 e0 90 be 24 0f 8c be c8 53 82 bd cb 82 6a 3e
       -0.28296393 -0.273553 -0.06363636 0.22901456
000290 b5 6c 82 3e f9 1c 86 bc fd 22 75 3d 06 6c f7 3b
       0.25473562 -0.016371237 0.05984782 0.007550719
0002a0 b7 24 09 3d a4 18 75 3e a1 99 9e 3d 43 a8 c7 bd
       0.03348228 0.23935181 0.07744146 -0.0974889
0002b0 99 7f 74 be 74 31 23 3e 07 94 5a 3e bf ce c4 3d
       -0.238768 0.15936834 0.2134553 0.09609746
0002c0 85 45 4b 3d 91 ab 9e 3c 32 13 b8 3d 85 68 86 be
       0.049626846 0.019368919 0.08988036 -0.26251617
0002d0 13 84 c2 bd 74 bf ad bd 57 96 5e 3e a0 85 dd bd
       -0.094978474 -0.084837824 0.21737038 -0.108165026
0002e0 8e f7 80 be 59 88 40 bc 07 eb 19 be 1d df 98 3e
       -0.2518887 -0.011751258 -0.15031062 0.29857722
0002f0 c0 3f 4e 3e 5e 7e ea bd 4d 0f 2b 3e 58 7e 78 3e
       0.20141506 -0.11449884 0.16705056 0.24266946
000300 80 6f 57 be 46 21 6a be 34 73 8d 3e 50 ed 24 3e
       -0.21038628 -0.22864255 0.27626956 0.16106153
000310 46 c8 ff 3d 06 06 32 3d b1 42 71 be f0 c8 0e be
       0.12489371 0.043462776 -0.23560597 -0.13943839
000320 e5 e2 28 3e 13 d8 14 3e e3 38 12 be 41 b6 7d 3e
       0.16492803 0.14535551 -0.14279513 0.24776556
000330 48 52 5a be e4 8f 50 bd 0c 70 e9 bd 94 24 01 3e
       -0.2132045 -0.050918475 -0.11398324 0.1261161
000340 3f 65 25 3e a4 43 32 be 91 ae 2d be 03 44 f6 bd
       0.16151904 -0.17408615 -0.16961123 -0.12024691
000350 d0 b5 35 be f5 16 a9 bc f9 04 17 3e c5 f7 df bc
       -0.17745137 -0.02064083 0.1474799 -0.027339825
000360 f0 2d 99 bd ec 16 ec bd 29 46 1f 3e 55 77 84 be
       -0.07479465 -0.115278095 0.15554108 -0.25872293
000370 10 51 a8 bc d5 23 9e ba a6 1b 91 be 87 29 81 3d
       -0.020546466 -0.0012065122 -0.28341407 0.06306749
000380 60 44 12 3e 93 58 c7 bd fb 1d c9 3c c9 81 6a 3d
       0.14283895 -0.09733691 0.024550429 0.05725268
000390 15 ff 4a 3e 99 d1 71 3e d1 48 e6 3d ee a1 fa 3c
       0.19823869 0.23615111 0.112443574 0.030594792
0003a0 7f fc 64 bc a4 da 06 be 55 d7 2b bd 5f 08 8f 3d
       -0.013976215 -0.13169342 -0.041953404 0.069840185
0003b0 f0 f9 a9 3d de d5 5c 3e 51 d3 84 3e 39 7b 4e 3d
       0.08299625 0.21565959 0.25942472 0.050410483
0003c0 57 6f 1e 3d 2b 6f 10 be e4 82 0d be 8d 4f 33 3d
       0.0386804 -0.14104907 -0.13819462 0.043777037
0003d0 aa 6f 33 3e 08 af 89 3e 90 7a b4 3d 8f 85 9c 3d
       0.17523065 0.2689135 0.088124394 0.07642662
0003e0 ed cc 37 be 2c 01 b0 3d d1 4f cb 39 8e e4 e5 bd
       -0.17949267 0.085939735 0.00038778645 -0.11225234
0003f0 83 3e 83 3e af ad 92 3e 75 13 8d 3e 15 96 78 3e
       0.2563363 0.28648135 0.27553907 0.24276002

fc1.bias f4 [128]
000000 cf dd 38 3e 7c b3 9d 3d e5 a6 42 3e 3b bb 85 bc
       0.18053363 0.077002496 0.19008978 -0.01632463
000010 49 e0 48 3e 16 0b 51 be 5b 37 44 be 5b ae 98 3e
       0.19616808 -0.20414385 -0.19161741 0.29820523
000020 70 18 1d 3e b2 7f 48 3e 5e f5 86 bd ac eb 62 be
       0.15341353 0.19579962 -0.06589769 -0.22160214
000030 23 16 85 bd 26 5b 6e 3e ee 0a 2a bd e8 0e 4b be
       -0.06498363 0.23276958 -0.04151433 -0.19829905
000040 25 17 95 bd ad 69 9e bd ee bb 4f be 0b 1d 9e 3d
       -0.07279805 -0.07735 -0.20286533 0.07720383
000050 48 dd 37 3e b6 7a 98 3e 48 73 79 3e 87 b4 55 be
       0.17955506 0.2978112 0.24360383 -0.20869647
000060 6e 61 24 be 1c 16 8c be ad b8 89 3e 9f 4d d4 3c
       -0.16052791 -0.27360618 0.2689871 0.025915919
000070 6f c1 4e 3e a4 ee f0 3c ef 79 a2 3d e5 2a 73 3e
       0.20190977 0.029410668 0.07933413 0.23746832
000080 35 c3 92 3e fb e9 7a 3d a7 51 a3 bd 90 43 80 be
       0.28664556 0.061258297 -0.07974558 -0.25051546
000090 55 37 d0 3a 46 b9 8e be 41 bf 36 be 92 15 7c be
       0.0015885631 -0.27875727 -0.17846395 -0.24617603
0000a0 d2 8b f3 3d bf 1d 88 3d ca 7d 2c 3e 65 26 07 3e
       0.11891903 0.066462986 0.1684486 0.1319824
0000b0 9d cf 70 be 7b cb 4d be 5d 35 17 3e 48 15 81 3e
       -0.23516698 -0.20097153 0.1476645 0.2521155
0000c0 1a d7 79 be ae 0b 41 bd 28 23 8e 3e e1 93 63 be
       -0.24398461 -0.04713028 0.27761197 -0.2222438
0000d0 df d4 2b bd 5f 2e d0 3d 8a 8a 61 be ef 06 f7 bc
       -0.041951057 0.101650946 -0.22025505 -0.030154673
0000e0 03 92 db 3d a9 ee 12 be 6f e5 ce 3c 5e 4a 68 3e
       0.10721209 -0.14348854 0.025255887 0.22684619
0000f0 1c 35 39 be c4 ba 84 be a7 b0 83 be 4d a0 13 be
       -0.18086666 -0.2592374 -0.25720713 -0.14416619
000100 a5 94 8d 3d 0e db 18 3e 6c bf 66 3e 9b 7e d7 bc
       0.06913117 0.14927313 0.22533959 -0.026305487
000110 84 e6 82 3d 74 f2 00 be 20 02 94 be 55 e5 94 bd
       0.063916236 -0.12592489 -0.2890787 -0.07270304
000120 00 68 e1 bb 26 ab 1a 3c 6d b4 ba bd 5d 62 87 bc
       -0.006878853 0.009440219 -0.09116445 -0.016526395
000130 cc c7 32 be 71 8a 4e 3e e7 47 22 bd a7 00 69 be
       -0.17459029 0.20169999 -0.039619353 -0.22754155
000140 76 69 21 3e f2 36 43 be 4a ca 0c bd 62 26 79 3e
       0.15762886 -0.19063929 -0.034372605 0.24331048
000150 33 27 e6 3d c6 b8 af 3b 5d 7d cc 3d b4 0b 9b 3e
       0.112379454 0.005362603 0.09984849 0.30282366
000160 cf 15 e1 3d 8a f3 98 3d 71 c6 91 3e 0e 18 29 be
       0.10990488 0.074683264 0.2847171 -0.16513082
000170 88 bf 51 3d c4 5f 0e 3e 5d 1c 83 3e 14 47 10 3e
       0.05120805 0.13903719 0.25607577 0.14089614
000180 bd 5b 3e 3e 95 e2 66 3b d6 75 8c bb b5 17 05 be
       0.18589683 0.0035230268 -0.004286508 -0.12997325
000190 94 bc 4c 3e 5e b5 86 3d 0e 11 7e be e8 33 26 3d
       0.19993812 0.06577562 -0.24811193 0.040576845
0001a0 82 9f 96 3e 5e 3f b4 bd af 03 41 3e 10 8d e3 3a
       0.2941857 -0.08801149 0.18849061 0.0017360765
0001b0 ec 5f b5 bb 56 d3 46 bd 9b c0 f8 3c 73 7a 87 be
       -0.0055351164 -0.04854139 0.030365279 -0.2646061
0001c0 de c4 16 3e 8d 14 a7 bd 5f 4c 2f be ef 45 bd bb
       0.14723536 -0.081582166 -0.17118977 -0.005776159
0001d0 0a a8 1c 3e 51 d3 8d be 77 53 fe 3d bf 62 84 bd
       0.15298477 -0.27700284 0.124182634 -0.06464147
0001e0 92 fd 55 3e c1 6e bb 3d 41 de 91 3e 84 4b 13 be
       0.2089751 0.09151984 0.2848988 -0.14384276
0001f0 6d 95 1e 3e 07 05 dd 3d 04 dc 0d 3e 76 e2 a4 bd
       0.15486689 0.107919745 0.1385346 -0.080510065

fc2.weight f4 [128, 128]
000000 0e 3d 63 3d 84 ab 76 3d 95 fd 8b bd 5a 5a 20 3d
       0.05547815 0.060222164 -0.06835476 0.039148666
000010 ea 78 d6 bc 8f 02 6c 3d 86 5d 0e bd c8 fd 8b bd
       -0.026180703 0.057619628 -0.03475716 -0.06835514
000020 0c c4 bf bc db 67 bd 3c 36 89 d6 bc 18 ca bc 3c
       -0.023408912 0.023120811 -0.026188474 0.023045585
000030 ad c0 a3 bd 41 29 83 bd cc e9 f3 3c 5f 23 88 3c
       -0.07995734 -0.06404353 0.029774569 0.016618429
000040 45 cf bd 3c 3a 15 07 3d 4c 2d 53 3b fe e3 91 3d
       0.023170123 0.032979228 0.0032223044 0.07123564
000050 0b 56 78 bd 1b 62 9f 3d 26 41 1f bd fa 02 a6 bd
       -0.060628932 0.07782384 -0.03888049 -0.081060365
000060 b9 58 94 3d 73 49 4b bc 95 84 df bc 82 d6 9b 3d
       0.07243485 -0.012407648 -0.0272849 0.076092735
000070 e9 11 c0 bb f3 49 ea bb 1f af 83 bd d6 b8 b3 bc
       -0.00586151 -0.0071499287 -0.06429886 -0.021938723
000080 81 e7 f8 bc 03 43 61 bd 8b 7b d0 3c 04 38 2b 3d
       -0.030383827 -0.054995548 0.025449535 0.041801468
000090 21 cc 58 bc c0 90 30 bd d3 18 77 ba a0 fe f4 bc
       -0.013232262 -0.043106794 -0.00094260013 -0.02990657
0000a0 78 26 cf 3b 8c 08 a9 3d 6e d2 16 bd bb b4 93 3d
       0.0063217245 0.08253583 -0.036821775 0.07212206
0000b0 6d 2f 9a 3d c7 8b 8d 3d ee 25 2f bd a7 ac 35 3d
       0.07528577 0.06911426 -0.042760782 0.044354107
0000c0 6a b7 a7 bd 4a 6d a3 bd a8 68 12 3d b1 9b 89 3d
       -0.0818928 -0.079798296 0.03574434 0.06719149
0000d0 4d 9b 45 bd 44 60 3d bc c5 b7 b3 3c 47 3d 62 3d
       -0.04824381 -0.011558596 0.021938214 0.05523422
0000e0 d7 49 bb 3c a9 6f 6f bd 7d cf 6c bd 02 26 d1 bc
       0.022862358 -0.058456097 -0.057815064 -0.025530819
0000f0 4a ba 87 3b 9f 4b d2 ba 8a 01 1b 3d 23 4d 09 3a
       0.0041420804 -0.0016044265 0.037843265 0.00052376295
000100 77 92 b0 bd a0 9b 79 3d f0 6a 2f 3b 23 a1 3a 3b
       -0.08621686 0.06093943 0.002676662 0.0028477393
000110 9a d6 34 3d 86 c3 ad bc 93 b4 36 3d ee 38 9f 3c
       0.044149972 -0.021211397 0.044605803 0.019436326
000120 e1 19 89 bd af 07 3b 3d 59 09 bb bd 64 d4 41 3c
       -0.06694389 0.045661625 -0.09132642 0.011830423
000130 ba 98 5f bd cd a9 90 bd 69 75 fd 3c 97 3c 9c 3d
       -0.05458901 -0.07063637 0.030939775 0.07628744
000140 6f ea 8c 3c 9e fa 51 3d ca 7a 34 3d 87 4f 87 3d
       0.01720163 0.051264398 0.044062413 0.066069655
000150 cb 9c c2 3c 77 fa b0 bd 12 8c 81 3d a5 57 e9 bc
       0.023756405 -0.086415224 0.063255444 -0.028484175
000160 a6 e1 63 bd 4b 45 58 3d ee e5 a3 bd f0 ec 8b 3d
       -0.055635117 0.052800458 -0.0800284 0.068323016
000170 89 8f b1 bc 69 b2 da 3c d6 31 88 bc 25 c7 46 bd
       -0.021674888 0.0266964 -0.016625326 -0.048529763
000180 af 74 a5 bd 4c 45 0b bd 68 09 e0 bb 61 0c 1b 3d
       -0.08078896 -0.034001634 -0.006837059 0.037853602
000190 1b c2 85 3a 9b 0e 73 bd 09 b7 06 3d fc ff 83 bd
       0.0010204943 -0.0593401 0.0328894 -0.064453095
0001a0 07 f8 81 bd 4f ad 7d 3d a7 71 81 bd 0f cc 81 bd
       -0.063461356 0.061932858 -0.063205056 -0.06337749
0001b0 60 f2 a4 3d 26 3b 51 bd b6 31 7a bd 56 7d 31 3d
       0.08054042 -0.0510818 -0.061082564 0.04333242
0001c0 70 c6 9a bd 96 75 9d 3d 13 f3 62 bd 83 9c a4 3b
       -0.0755738 0.07688443 -0.055407595 0.0050235405
0001d0 99 b8 8b 3c 06 a3 e0 bc 3e e5 93 3d bd fb e2 3c
       0.017055796 -0.027421486 0.07221459 0.027707929
0001e0 6a ca 5d 3d f0 23 0e bd 87 7b 94 3d d7 3a 06 3d
       0.054148115 -0.03470224 0.072501235 0.032770958
0001f0 91 e5 75 bd 04 99 32 3d c2 e2 ba 3b db 1d 98 3d
       -0.060033385 0.04360296 0.005703301 0.074275695
000200 aa 62 5f bd 43 47 44 3d 27 0b 81 3d d3 7e a9 bd
       -0.054537453 0.047919523 0.06300955 -0.08276143
000210 30 df 99 3d a5 84 90 bd c1 60 ed bc 50 0d 32 3d
       0.07513273 -0.0705655 -0.0289768 0.043469727
000220 ef c6 ad bd bf 43 2c 3c 37 c9 85 3c 45 90 8d bc
       -0.08485209 0.010514199 0.016331298 -0.017280707
000230 c0 9d b3 3d 03 05 9e bc 83 49 3a bd af d9 15 bd
       0.08770323 -0.0192895 -0.045480262 -0.036584552
000240 05 b7 9c 3d 60 15 29 bd e9 b9 32 bd 16 04 b8 bd
       0.07652096 -0.04128015 -0.04363433 -0.08985154
000250 5a be c9 3c bc 55 7f bd 6b 1f 83 3d be af 91 3d
       0.0246269 -0.062337622 0.06402477 0.07113598
000260 7a 15 b1 b8 a4 13 a6 bd d2 e0 89 3d ce a6 8c bd
       -8.444018e-05 -0.08109215 0.06732334 -0.06867753
000270 41 07 b7 bd 0c 57 2d 3d 4b 3d 27 3d 10 89 67 bd
       -0.089369304 0.042319342 0.040829938 -0.056527197
000280 77 e5 17 3d 49 70 ff 3c cf f9 5e 3d 80 ae 22 3a
       0.03708407 0.031181471 0.054437455 0.0006205812
000290 cd f6 54 3d 0e 71 96 3d 35 84 6f bd 6d 36 aa 3d
       0.05199318 0.07345782 -0.05847569 0.08311162
0002a0 97 82 32 3d ac 89 ab 3d db e8 5c 3d 6f bb 15 bd
       0.04358157 0.08375868 0.053933006 -0.036555704
0002b0 5f 23 b3 3d 9f c3 97 bc 27 e3 f4 3c 35 01 6d bd
       0.08746981 -0.018525897 0.02989347 -0.05786248
0002c0 49 92 a5 bc 6f 7c c8 bc ed c0 0a 3d 6e 17 3b bd
       -0.020211356 -0.024473397 0.033875395 -0.04567664
0002d0 83 ad e2 3c ff c2 a0 bd 0d 4b 6d 3d 91 cc 61 3d
       0.027670627 -0.078496926 0.057932902 0.05512673
0002e0 60 37 59 bc 65 1c 03 bd 4f 21 82 3d 51 f6 8a bc
       -0.013257831 -0.0320095 0.06354009 -0.016963156
0002f0 57 3f 18 3b 6a 46 42 3d c8 47 ea 3c a9 44 bd 3c
       0.0023231113 0.047430433 0.028598681 0.023104029
000300 28 8e 69 3c 3e 32 9b 3c f9 0a 98 3d 30 7f db 3c
       0.014255084 0.018944856 0.07423968 0.026794046
000310 ef b5 05 3c 3c 8d 31 bd 11 91 48 bd cc 8e 97 bd
       0.008161052 -0.043347582 -0.04896647 -0.07400283
000320 a0 5f 9b 3d 09 ff 4b bd e8 43 22 ba 99 e6 47 bd
       0.075865984 -0.049803767 -0.00061899284 -0.0488039
000330 b3 e9 90 bd 25 9b b1 bd 4c 55 54 3d 6f 11 1c bd
       -0.070758246 -0.086721696 0.051839158 -0.038102563
000340 b3 3e 7d bd 6e d5 8e bd 4b bc 54 3d e4 0f 2f 3c
       -0.061827373 -0.06974302 0.051937383 0.010684941
000350 c8 a2 d2 bc 28 d8 1f 3d 40 0a 41 bc c7 0d 0b bd
       -0.025712386 0.039024502 -0.011782229 -0.033948686
000360 90 03 83 bd d6 3f 06 bd 66 f9 82 3d 57 e9 2d 3d
       -0.06397164 -0.032775722 0.06395225 0.04245886
000370 68 31 26 bc eb 9d 58 bd b3 65 70 3d 88 8f ac 3b
       -0.010143615 -0.052884977 0.058690738 0.0052661337
000380 e3 a6 a3 bd 7f 45 09 3d 11 26 82 3c bc a8 85 bc
       -0.079908155 0.033513542 0.015887292 -0.01631581
000390 16 be 6e bd 77 c6 b4 bd 21 ad 03 3c 54 59 9f bd
       -0.05828675 -0.08826917 0.008036883 -0.0778071
0003a0 a8 6a 1b bb 6b 6b 01 3d c8 81 98 3a 44 07 08 3d
       -0.0023714695 0.031596582 0.0011635358 0.033210054
0003b0 b7 58 5c bd 8b 1d 62 3b e3 06 5a 3d 5c e5 2c 3c
       -0.053795543 0.0034502472 0.053229224 0.01055273
0003c0 79 65 79 3d 4d af b3 bc 1a b7 5f 3d 35 2e 8b bd
       0.060887787 -0.021934176 0.05461798 -0.06795923
0003d0 31 2c b9 b8 7e 02 8b bd c1 49 8d bd 19 de 75 bd
       -8.829719e-05 -0.06787585 -0.06898833 -0.060026262
0003e0 59 b8 2f 3d 9b 87 aa 3d 95 35 b7 bd cf 2f 8e 3c
       0.042900417 0.08326646 -0.08945767 0.017356781
0003f0 ca 84 a8 3d 55 c1 9c 3d fb 8d 6d 3c f2 aa 80 bd
       0.082284525 0.07654063 0.014499183 -0.06282605

fc2.bias f4 [128]
000000 f3 c3 18 3c 3f a0 a8 bb 36 06 4c 3d d3 a7 ac 3d
       0.009324062 -0.005146056 0.04981061 0.084304474
000010 35 fb 22 3d cf 8b bf 3c 6d 85 02 bd d7 d7 24 bd
       0.03979035 0.023382096 -0.031865526 -0.040244903
000020 ef 64 a8 3c 45 21 85 3d 16 1f c1 3d e7 b7 b7 3d
       0.020555941 0.06500486 0.09429757 0.089706235
000030 3a 31 3b bc 73 d4 67 bc 80 6e 6c bd bf 71 9e 3d
       -0.011425311 -0.014149773 -0.05772257 0.07736539
000040 3d bb 0f 3d 78 0c 64 bd d3 d3 1d 3c eb 17 a3 bd
       0.035090674 -0.055675954 0.009633022 -0.07963546
000050 d9 1e 2d 3d 86 64 13 3d 92 40 62 bd 7f 6f 4d bd
       0.042265747 0.03598454 -0.05523736 -0.05015516
000060 af 18 36 3d cc d8 92 bc 15 64 91 bd 32 50 2b 3d
       0.044457134 -0.017925642 -0.07099167 0.041824527
000070 e1 26 b8 3d e7 e9 6b 3d 9d 30 44 3d 51 e0 85 3d
       0.089917906 0.057596114 0.047897924 0.065369256
000080 c9 fe c1 3d ca ea 03 bd d7 e1 ef 3c 96 75 7e bd
       0.094724245 -0.032206334 0.029282494 -0.062123857
000090 5f ec 88 3d be 1b b7 bb 19 6d b4 bc 77 5c ad 3c
       0.06685709 -0.005588024 -0.022024678 0.021162255
0000a0 8d 7e 82 bc 88 c5 bb 3d c7 cb 52 bd aa 25 8a bd
       -0.015929485 0.091685355 -0.05146387 -0.06745465
0000b0 9b 50 48 3d d0 1e b2 3c fc 75 67 3d 2a 3d a8 bd
       0.048904996 0.021743208 0.056509003 -0.08214791
0000c0 18 58 47 bd 0f 99 d6 3c 81 cd ba bd 0a b3 00 bd
       -0.048667997 0.02619603 -0.09121228 -0.031420745
0000d0 c0 18 9e bc b9 03 42 bd bd 7d 3d bd e1 8a d2 3d
       -0.019298911 -0.04736683 -0.04626249 0.10280395
0000e0 eb 7a bc bd 9b 8e 27 bd ee 04 9a 3d a1 94 b5 3d
       -0.09203132 -0.040907484 0.075204715 0.08866239
0000f0 67 09 2a bd 7a 60 0d 3d 84 2c c4 bc 15 25 8d 3d
       -0.041512873 0.034515835 -0.023947008 0.068918385
000100 59 97 97 3d c0 a1 84 3d 9f 4b 79 3c fd ce 12 bc
       0.07401914 0.06476164 0.015215783 -0.008960483
000110 15 69 87 3d 2b 7e a5 3d f2 fb 9a 3d a5 2e 8e bd
       0.0661184 0.08080705 0.07567586 -0.069424905
000120 21 c0 2d bd 16 9c 62 bd bf 54 fd 3a 24 a2 a2 bd
       -0.042419557 -0.055324636 0.0019327624 -0.07941082
000130 b0 1f 01 bd bc 0a 06 3d 93 d6 4d 3d f5 a2 4f 3d
       -0.03152436 0.03272508 0.050253462 0.050692517
000140 89 c8 76 3c 0f 35 ad bd 5a 74 47 bd 92 b5 32 3c
       0.01506246 -0.08457386 -0.048694946 0.010907548
000150 a0 2e 2b 3d ee c2 30 3d 24 15 f4 3c 5b 56 0a bd
       0.041792512 0.04315465 0.029795237 -0.03377376
000160 a9 aa 4a 3d 53 79 1f 3b 18 50 41 3b e0 d6 8c 3b
       0.04947916 0.002433379 0.0029497202 0.004298076
000170 1f 64 7a bd d2 3a 31 3b 61 4b 94 3d 00 41 7b 3d
       -0.06113064 0.0027043116 0.0724094 0.061341286
000180 b6 d5 13 3d b0 4e c3 ba be 1c 28 bd 12 38 d4 bc
       0.036092483 -0.001490077 -0.041043036 -0.025905643
000190 48 e6 0e 3d 86 87 88 3d dc 21 e1 bb 34 2c 28 3d
       0.034887582 0.06666474 -0.0068704914 0.04105778
0001a0 f4 07 6c bc 85 c4 e1 bc fe 80 58 3c 85 05 0b bd
       -0.014406193 -0.027559528 0.013214348 -0.03394081
0001b0 df c6 d3 3c 1c 39 98 bd 37 f0 1f 3c 6b 7e 1d bd
       0.025851665 -0.07432768 0.0097618615 -0.03845064
0001c0 60 6b 07 3d f8 80 38 3d e2 58 24 bc 76 7a a1 3b
       0.033061385 0.04504487 -0.010030957 0.0049279286
0001d0 2e 4a c1 3c e6 7d 99 3c 65 86 ae bc 15 52 e6 bb
       0.023594942 0.01873679 -0.021304319 -0.007028828
0001e0 0f f6 8f bd a9 e2 f3 bc 08 3c 94 3d d5 2b cd 3c
       -0.07029354 -0.029771166 0.072380126 0.025045315
0001f0 cb 06 4f bd be 61 cb 3b a0 92 f6 bb a4 c1 aa bd
       -0.050543588 0.00620672 -0.0075248033 -0.08337715

fc3.weight f4 [3, 128]
000000 82 a4 78 bb 81 bd c3 bc 75 db 22 bd f3 f1 63 bd
       -0.0037939851 -0.023894073 -0.03976007 -0.055650663
000010 4b 8b 64 3d 0d c3 b5 bd e6 f4 70 bd 50 b7 29 3d
       0.055796903 -0.088750936 -0.058827303 0.041434586
000020 82 ec b1 bd 9d 91 54 3d 44 13 66 bc 9e 13 ac bc
       -0.086876884 0.05189668 -0.014042679 -0.021005448
000030 6a 2c e2 3c 4a 3e 2c 3b 41 e4 93 bd b9 9a 9f 3c
       0.027609069 0.0026282244 -0.0722127 0.019482957
000040 13 1e 72 bd ca 13 d9 b9 4a df af bd 35 ff 20 bc
       -0.059110712 -0.0004140421 -0.08587511 -0.009826471
000050 8b e0 07 bc c4 df 88 3c 03 0c 83 3d ea 9a 2a bd
       -0.008293281 0.016708262 0.063987754 -0.041651644
000060 b1 f4 a7 3d 07 03 92 3d 03 1f 80 bd 2b b5 18 3d
       0.08200968 0.07129484 -0.06255915 0.03728215
000070 f0 2f 10 3d 9a 90 a4 3d da f4 fe bc 58 c1 4b bd
       0.035201967 0.08035393 -0.031122614 -0.049744934
000080 3e 79 95 bc 24 6a bb 3b c7 73 74 bd 0a ad db bd
       -0.01824629 0.00571944 -0.059680726 -0.10726364
000090 cd dc 94 bc fd ae c7 bd a0 5b d9 3c 71 47 0f bd
       -0.018171692 -0.09750173 0.026532948 -0.03498024
0000a0 72 1c 15 3d b8 15 52 3d 58 53 a1 bd a1 0a 2d 3c
       0.03640408 0.051290244 -0.07877225 0.010561616
0000b0 fe b0 44 3c 1e ea 72 3d 7d 26 87 bc ec c3 9c 3d
       0.012005089 0.059305303 -0.016497845 0.07654557
0000c0 f0 cf 7e bd fb 46 9a 3d 58 d1 4e 3d cf 8b 56 3d
       -0.062210023 0.0753307 0.050492615 0.052379426
0000d0 40 0a 05 3d 7e 0c 05 bd 01 ee 86 bd e9 5e 54 3d
       0.03248048 -0.032482617 -0.065883644 0.051848326
0000e0 16 c3 90 bc dd 05 09 3d 43 64 01 b9 47 9c 29 bd
       -0.01767115 0.033452857 -0.00012339749 -0.041408803
0000f0 40 2e a0 bc fa 76 cc bd 65 70 ba bd b2 ec 96 3c
       -0.019553304 -0.099836305 -0.09103469 0.018423412
000100 48 4a c0 bd fe 39 82 3d 37 2c e4 3c 93 a4 46 3d
       -0.09389168 0.063587174 0.027853115 0.048496794
000110 98 5e a6 bd a6 ac a4 bd aa 8f bb bd 66 6b 00 3d
       -0.08123511 -0.080407426 -0.09158261 0.031352423
000120 01 dd 5f 3d a8 55 86 bd 88 4a 8c 3d 06 0f 49 bd
       0.054654125 -0.065593064 0.06850153 -0.049086593
000130 0d 1a a5 3d b4 cb a8 3d 83 ee 8b 3d 0a 19 9e bb
       0.080616094 0.08241978 0.06832602 -0.004824762
000140 c8 64 89 3d a1 50 7e 3d 6f 74 1d 3b e1 8d a3 bc
       0.067086756 0.062088612 0.0024025699 -0.019965114
000150 af 12 bb 3d 2c 1f 40 3d a6 23 47 3d e2 4e 80 3d
       0.09134423 0.046904728 0.04861798 0.06265046
000160 6f a2 4f bd c3 0d 46 bd b9 b3 ef 3b 47 80 a3 bc
       -0.050692018 -0.048352968 0.007315126 -0.019958628
000170 6f 3f b2 3c 53 5c bb bc aa 5e b3 bd 39 da 47 3d
       0.021758763 -0.022871172 -0.0875829 0.048792098
000180 39 96 09 bc df b0 2c bd 63 c5 d7 b8 44 58 1e bd
       -0.008397632 -0.042160865 -0.00010288765 -0.038658395
000190 70 d8 cf bc a1 34 2a bd 46 b1 5a 3b 92 c7 bd b9
       -0.02537176 -0.041554097 0.0033369823 -0.0003619758
0001a0 f7 6b 78 bd df 0d fb 3b 1c cf 52 3d ce 66 3c 3d
       -0.06064984 0.0076615657 0.051467046 0.04599648
0001b0 89 90 6a 3d 3d 70 8e 3d 52 17 a3 bd 7e da ce bd
       0.057266746 0.069550015 -0.07963432 -0.10100268
0001c0 65 9f a6 3d 68 c4 38 3c 71 6f 0a bd 5a a3 a1 bd
       0.08135871 0.011277296 -0.033797685 -0.07892485
0001d0 92 a5 b7 bd a3 41 e2 bc bf 9d 83 3d 49 7f 45 bd
       -0.08967127 -0.027619189 0.06426572 -0.04821709
0001e0 c1 11 b2 3d 4c e0 fb 3c 21 78 8a 3d d3 12 a2 bd
       0.086947925 0.030746602 0.06761194 -0.07913747
0001f0 a1 b8 12 bd 31 cf ad 3d 24 cd 39 bd 1e 1c 46 bd
       -0.035820607 0.08486784 -0.045361653 -0.04836666
000200 0b 91 0f 3d 71 05 30 3d cd fc 85 bb 2a 47 89 bc
       0.035050433 0.04297394 -0.004088974 -0.016757566
000210 85 75 04 bd aa 13 02 3d 18 14 2b bc 68 e6 7e bd
       -0.032338638 0.031757034 -0.010441802 -0.06223145
000220 d0 ba 83 bc 04 11 58 bd ca 53 b8 bd c8 1c 98 bd
       -0.01608029 -0.052750602 -0.090003565 -0.074273646
000230 2a 55 b3 bd 2d 6c 2b bc 56 c1 08 3d 06 8b c2 bd
       -0.08756478 -0.010462803 0.033387505 -0.09499173
000240 b2 c6 a3 bc c7 ec b7 bd 39 bc c4 3c f9 a7 15 3d
       -0.019992206 -0.089807086 0.024015533 0.036537144
000250 ee b5 11 3c 55 b5 42 3d 46 e6 a2 bd 4b 13 65 bd
       0.008893473 0.047536213 -0.079540774 -0.055926602
000260 4d c8 7d 3d 89 3a 9b 3d d3 9b f6 bc 96 6d 45 3c
       0.0619586 0.07579524 -0.0301036 0.012050053
000270 1a 84 51 bd d7 a7 cb 3b 49 98 0e 3d 9e 6a c2 bc
       -0.051151372 0.0062150764 0.0348132 -0.02373248
000280 b1 6c 5f bd 43 1e cc bd 37 ca 4f 3d 33 cc 83 3d
       -0.054547016 -0.099667095 0.050729956 0.06435432
000290 ef 02 59 bd 2a e5 9e 3d 80 47 af 3c 81 cf d4 bd
       -0.052981313 0.07758553 0.021396399 -0.10391141
0002a0 40 b2 55 bd 5a 23 92 bd 18 40 91 bb 19 60 98 bd
       -0.052171946 -0.07135649 -0.0044326894 -0.07440204
0002b0 79 64 83 bc 56 c3 88 3d 15 b9 13 3d 37 1e 8f 3d
       -0.01603912 0.066778824 0.03606518 0.06988185
0002c0 f0 82 91 bc 7f 44 9e 3d 29 1d 11 bd 1c 6a 8e 3d
       -0.017762631 0.07727908 -0.0354282 0.069538325
0002d0 d8 92 df bd c1 84 a7 bd 92 ad dc 3c 9e 65 8a bd
       -0.1091668 -0.08179618 0.026938234 -0.06757663
0002e0 0a 91 d8 bc 50 5b 12 bc 8e f8 49 3d 69 e3 de bd
       -0.026436348 -0.008932903 0.049309306 -0.10883219
0002f0 40 b5 85 3d c5 69 e1 3c 02 73 64 3d ca f0 a2 3d
       0.06528711 0.027516255 0.055773742 0.07956083
000300 ca 95 2a 3d 0d b7 02 3d 92 ab 54 3d bb ea d3 bc
       0.041646756 0.031912852 0.051921435 -0.025868764
000310 ed 91 70 bc 96 4f 42 3d dd 79 a7 bc 48 42 29 3d
       -0.014683229 0.04743918 -0.020443851 0.041322976
000320 57 58 90 3d 84 c1 e5 bc 01 02 7b bd 47 af 50 3c
       0.070480995 -0.028046377 -0.061281208 0.012737102
000330 1f 47 94 3d 13 ce 4e bb 24 11 01 bd 08 5c 96 3d
       0.07240128 -0.0031555935 -0.031510487 0.07341772
000340 93 72 fc 3c ba fd 68 3d 43 c8 8b 3c 6d a2 f7 bc
       0.030816352 0.056882598 0.017063266 -0.030228818
000350 97 f5 93 bd 6e e2 59 bd 16 ad 4b 3d b9 1b 59 3d
       -0.07224577 -0.053194456 0.049725614 0.053004954
000360 a1 ee 8f 3d 69 ff 5d 3c ca d3 ac bd 8d 94 44 3c
       0.07027937 0.013549664 -0.08438833 0.011998308
000370 df b7 85 bd ae c2 92 3c ea fd 8f bc d7 df 64 bd
       -0.06529211 0.017915096 -0.01757713 -0.055877533
000380 96 bd 70 bd c4 23 a7 bc 4f 98 b8 bc 04 f3 b2 bd
       -0.058774553 -0.020402797 -0.022533564 -0.08737758
000390 80 49 19 bc ae ca 69 bc e5 91 a2 3c 48 9e 10 3d
       -0.009355903 -0.014269514 0.019844959 0.0353072
0003a0 6e b4 9f bd 4e 34 0f 3c 41 07 90 3d 18 99 6c 3d
       -0.07798086 0.008740498 0.070326336 0.05776319
0003b0 2e b1 b5 bd 31 6d 98 3d e2 1d 7a 3d 26 6d 3e bb
       -0.08871685 0.074427016 0.061063655 -0.0029056757
0003c0 c2 68 f3 3c da 03 7c 3d 8a b0 d7 3c 2c 48 b7 bd
       0.029713038 0.06152711 0.026329298 -0.089493126
0003d0 42 f0 62 3c 13 16 11 3b df e3 74 3d 1a a4 84 3d
       0.013851227 0.0022138401 0.059787627 0.064766124
0003e0 66 41 95 bd e0 91 9b bd 9b 60 b5 bd 93 08 06 3c
       -0.072878644 -0.07596183 -0.08856317 0.008180755
0003f0 af a3 8c bd b7 cb b2 bd 31 96 e4 bc 4d 90 8e 3d
       -0.06867158 -0.08730262 -0.027903648 0.06961117

fc3.bias f4 [3]
000000 ee f7 ba bd 4e 71 7f 3d e0 60 d3 3d
       -0.0912932 0.062363915 0.10321212
