scripts/models/pg/reinforce_run_10.pth (torch, 76898 bytes, 6 tensors)

fc1.weight f4 [128, 12]
0	0xbe48d4ed	-0.19612475
1	0xbdd67e8e	-0.10473357
2	0xbe166832	-0.14688185
3	0xbe6539b9	-0.223853
4	0x3df02c61	0.117272146
5	0x3dd766ff	0.10517692
6	0xbe45c221	-0.19312336
7	0xbe2735e0	-0.16329145
8	0xbd36967f	-0.044577118
9	0x3e468403	0.19386296
10	0xbe45d486	-0.19319353
11	0x3e780437	0.24220358
12	0x3d9a9b1b	0.07549115
13	0xbd75fe04	-0.0600567
14	0xbe0f5441	-0.13996984
15	0x3e4c0c1a	0.19926491
16	0x3d81ad52	0.06331886
17	0xbdf9060e	-0.12159358
18	0xbd5fe4c1	-0.054661516
19	0x3e440abf	0.19144724
20	0xbb8a0f84	-0.0042132754
21	0x3dc3528b	0.09537228
22	0x3e647a66	0.22312316
23	0xbdff4d42	-0.12465908
24	0xbce97f40	-0.02850306
25	0x3e1424dd	0.14467187
26	0x3e94c7c8	0.2905867
27	0xbcf41bb0	-0.029798359
28	0xbcad3dd1	-0.02114764
29	0x3e233c78	0.15941036
30	0xbd3baac4	-0.04581715
31	0x3d2dfe94	0.042479113
32	0x3e8b28a7	0.27179453
33	0xbe0c2edc	-0.1368975
34	0x3e9d33a8	0.30703473
35	0x3e8061e0	0.25074673
36	0x3e230800	0.1592102
37	0xbe8d6a39	-0.27620104
38	0x3e0701b9	0.13184251
39	0x3ea1284d	0.3147606
40	0x3e47536c	0.19465417
41	0x3e61b356	0.22041067
42	0xbc8bf45b	-0.017084291
43	0x3eca98b7	0.39569637
44	0xbe68b0bc	-0.22723669
45	0x3e0046cd	0.12527008
46	0xbe26e38a	-0.16297737
47	0xbe1a31f5	-0.1505812
48	0x3dc917fd	0.098190285
49	0x3e89fd0c	0.26950872
50	0xbe006624	-0.12538964
51	0x3dd84768	0.10560495
52	0xbda1d3a4	-0.07901695
53	0x3ea7c590	0.32767916
54	0xbdf155ea	-0.11783965
55	0x3d4f6d5e	0.05064141
56	0x3e25b91a	0.16183892
57	0x3e874726	0.2642147
58	0xbe87c657	-0.2651851
59	0xbe65ef51	-0.22454573
60	0x3de125cf	0.109935395
61	0x3d9f1902	0.07768442
62	0x3e7269f6	0.23673233
63	0x3bcf008d	0.0063172043
64	0xbdd49da7	-0.10381632
65	0xbc11d35f	-0.008900492
66	0x3e695ecf	0.22790073
67	0xbe2a2104	-0.16614157
68	0xbe0f0bf4	-0.13969404
69	0xbcc9e9c0	-0.024647593
70	0x3c7a2f4e	0.015270067
71	0xbe4cdd95	-0.20006402
72	0xbe6ed11e	-0.2332196
73	0xbde57636	-0.112041876
74	0xbd152318	-0.03641042
75	0xbe5d6e7c	-0.21624178
76	0x3da4896c	0.08034024
77	0x3df6749c	0.1203396
78	0x3dd68940	0.10475397
79	0xbe559f36	-0.20861515
80	0xbda88238	-0.08227962
81	0xbe1430d9	-0.14471759
82	0xbdee6198	-0.11639708
83	0xbdc3984a	-0.09550531
84	0x3e437df6	0.19091019
85	0xbc1ea36d	-0.009682518
86	0x3c7818b3	0.0151426075
87	0xbde4738a	-0.1115485
88	0x3e0a642a	0.13514772
89	0xbe691c6e	-0.22764751
90	0x3eae01af	0.3398566
91	0xbdeb41a4	-0.11487129
92	0x3e6021d7	0.21887909
93	0xbd3613f5	-0.044452626
94	0x3e8713af	0.26382205
95	0x3dd20de0	0.10256553
96	0x3e07ced8	0.13262498
97	0xbdc4348b	-0.09580334
98	0x3dfe0204	0.12402728
99	0xbe551669	-0.2080933
100	0xbe0f454b	-0.13991277
101	0x3eeda58e	0.4641537
102	0xbd68f6db	-0.056876045
103	0x3ed2a9b4	0.41145098
104	0x3e892128	0.2678311
105	0x3e763503	0.2404366
106	0x3c5a6129	0.013328829
107	0xbe0be7f6	-0.13662705
108	0x3decc880	0.1156168
109	0xbe270418	-0.16310155
110	0xbe0cf75f	-0.1376624
111	0xbcb4905a	-0.022041488
112	0xbe3c3d3a	-0.18382731
113	0xbe86ee6f	-0.26353785
114	0xbceb646d	-0.02873441
115	0x3e22cd53	0.15898637
116	0x3d32e47c	0.04367493
117	0xbce531ed	-0.027977908
118	0xbd9cad6a	-0.076502636
119	0x3e30885a	0.17239514
120	0x3e0ab08b	0.13543908
121	0x3e851c88	0.2599833
122	0x3e88bbc7	0.26705763
123	0xbc44d1b8	-0.0120128915
124	0x3e853d82	0.2602349
125	0x3e16eefd	0.14739604
126	0x3e1c1e96	0.15246043
127	0x3ebb9b61	0.36641982
128	0x3e4c48c1	0.19949628
129	0xbd79550b	-0.06087212
130	0xbe685246	-0.22687635
131	0xba355502	-0.0006917269
132	0x3db34666	0.08753662
133	0x3e5ca259	0.21546306
134	0x3e1ebcf3	0.15501766
135	0xbd97facb	-0.07420882
136	0x3e0a6106	0.13513574
137	0x3e6ce8f2	0.23135737
138	0xbe4787aa	-0.19485345
139	0x3e40abd1	0.18815543
140	0xbcae1bdb	-0.021253517
141	0x3e3f4b06	0.18680963
142	0xbd378525	-0.04480471
143	0xbe164934	-0.14676362
144	0xbe4b1ea8	-0.19835913
145	0x3d8be252	0.068302765
146	0xbe1c71c3	-0.15277772
147	0xbe60b179	-0.219427
148	0xbe0a27b4	-0.13491708
149	0x3e94cdba	0.29063207
150	0xbe6da976	-0.23209175
151	0x3e999ba2	0.3000155
152	0x3e898140	0.26856422
153	0xbcf39711	-0.02973512
154	0xbe2a56cc	-0.16634673
155	0x3de06db4	0.10958424
156	0xbe510140	-0.20410633
157	0x3e11d7fb	0.14242546
158	0x3d5e6aaf	0.05430096
159	0x3e8a9884	0.27069485
160	0x3e38c700	0.18044662
161	0x3e9e6ad2	0.30940872
162	0x3df86536	0.121286795
163	0x3e8d2951	0.27570584
164	0x3e27fd49	0.16405214
165	0xbe0eda55	-0.13950475
166	0x3da71c96	0.08159749
167	0xbe50d86f	-0.20395063
168	0xbe1067e1	-0.14102127
169	0x3e8338d7	0.25629303
170	0x3e76ae50	0.24089932
171	0x3e47e331	0.1952026
172	0x3dd938be	0.10606526
173	0x3ee7a147	0.45240232
174	0xbe4e3177	-0.20136057
175	0x3e2d114b	0.16901128
176	0x3dd9dd10	0.106378675
177	0xbe4dedb1	-0.20110203
178	0xbdc7b58d	-0.09751425
179	0xbb6ea7aa	-0.0036415854
180	0x3e423580	0.18965721
181	0xbe46b45d	-0.1940474
182	0xbd9893c5	-0.0745006
183	0x3dc422ae	0.09576927
184	0xbe8ae550	-0.27128077
185	0xbcafc63b	-0.021456828
186	0xbe6d2f33	-0.23162536
187	0xbe2ddb7b	-0.16978256
188	0x3e5cf9d9	0.21579684
189	0x3df38a3b	0.118916
190	0x3e8e5168	0.27796483
191	0xbcb525ff	-0.022112845
192	0xbd9c72a2	-0.07639052
193	0x3e0225df	0.12709759
194	0xbe59e625	-0.212792
195	0x3e26091f	0.16214417
196	0x3b9f6655	0.004864494
197	0x3e99cb15	0.30037752
198	0x3d1dd76e	0.038535528
199	0x3ed5c1f2	0.4174953
200	0x3d063a57	0.03277048
201	0x3dd12f32	0.1021408
202	0x3d7cc0f6	0.06170746
203	0x3e8cfbf9	0.2753599
204	0xbe5b099a	-0.21390381
205	0x3dda8229	0.10669357
206	0x3e8277af	0.25481936
207	0x3dd611bd	0.10452602
208	0x3e9b3ca5	0.30319706
209	0xbcde4c50	-0.027135998
210	0x3e0096d4	0.12557536
211	0xbe19c0f8	-0.15015018
212	0x3e4f0df1	0.20220162
213	0xbe4a94d4	-0.19783336
214	0xbd7cb26c	-0.061693594
215	0x3e82c67a	0.2554205
216	0xbdd58eb5	-0.1042761
217	0xbd489f01	-0.048979763
218	0x3debc106	0.11511426
219	0xbdc6211b	-0.09674283
220	0xbd1db390	-0.038501322
221	0x3da53676	0.08067028
222	0xbe167d8b	-0.14696328
223	0x3ebda1e5	0.37037578
224	0x3e58986b	0.21151893
225	0xbe43c47c	-0.19117922
226	0x3db72fd3	0.089446686
227	0x3e4957a0	0.19662333
228	0x3e770111	0.241215
229	0x3e0c70f7	0.13714968
230	0xbe86ba01	-0.26313785
231	0x3e80aa32	0.2512985
232	0xbe3b59ef	-0.18296026
233	0x3ee56197	0.44801018
234	0x3db52106	0.08844189
235	0x3df7833d	0.120855786
236	0x3dbeea1b	0.09321996
237	0xbd508baf	-0.050914463
238	0xbe035611	-0.128258
239	0x3de2e3d9	0.11078615
240	0x3d210cb9	0.039318774
241	0xbc97d840	-0.018535733
242	0x3e1c016d	0.15234919
243	0x3d9b5475	0.07584468
244	0x3d4d3569	0.050099764
245	0xbd71d2df	-0.059038993
246	0x3e6c6e58	0.23088968
247	0x394565f6	0.00018825367
248	0x3e749ae5	0.23887213
249	0xbe878c5c	-0.26474273
250	0xbe3b7c73	-0.18309192
251	0x3e91b143	0.28455552
252	0x3e4d5514	0.20051986
253	0xbe76b324	-0.24091774
254	0xbe2aa136	-0.1666306
255	0x3e81248a	0.2522319

fc1.bias f4 [128]
0	0x3d832d7c	0.0640516
1	0x3e888f66	0.26671904
2	0x3e201861	0.156343
3	0xbe0360df	-0.12829922
4	0x3e0d0e11	0.13774897
5	0x3ea387c8	0.3193953
6	0xbe28f387	-0.16499148
7	0x3da5d129	0.08096535
8	0xba673bb7	-0.0008820849
9	0x3dc7c4c1	0.09754325
10	0x3c5b2935	0.013376524
11	0x3e144e2f	0.1448295
12	0x3e965db6	0.2936837
13	0x3e0c2dbf	0.13689326
14	0xbc8f9a0f	-0.017529516
15	0xbde6a66b	-0.112622105
16	0xbbd8654f	-0.006603874
17	0xbbc28a24	-0.005936878
18	0x3e8be379	0.27321985
19	0xbe713464	-0.23555142
20	0x3ce26824	0.027637549
21	0x3e47ec92	0.19523838
22	0x3e4ff59d	0.20308538
23	0x3e7c0bb6	0.24613842
24	0x3dbddc3a	0.092705205
25	0xbe7f4812	-0.24929836
26	0x3d63b14c	0.055589005
27	0x3e9bd4f0	0.30435896
28	0x3d7b2438	0.061313838
29	0x3c945995	0.018109122
30	0xbd2a8ef1	-0.041640226
31	0x3ce5f0db	0.02806895
32	0x3d929847	0.07157951
33	0xbd403664	-0.04692687
34	0x3e9344d8	0.2876346
35	0x3e7406af	0.23830675
36	0x3e96b1fa	0.2943266
37	0xbd2e7436	-0.042591296
38	0xbdc475f2	-0.09592809
39	0x3ec50f3d	0.38488188
40	0xb9c46c1a	-0.00037464575
41	0xbe59adbc	-0.2125768
42	0x38631820	5.4143486e-05
43	0xbddddbd6	-0.10832946
44	0xbe0783ff	-0.13233946
45	0x3dbd94e8	0.09256917
46	0x3dc81a21	0.09770609
47	0x3e50ee49	0.20403399
48	0x3e4047b5	0.18777354
49	0x3e8ba1c7	0.27271864
50	0xbd13ad4c	-0.03605394
51	0x3e0fdcac	0.14049023
52	0x3e02d50f	0.12776588
53	0x3e8d0361	0.2754164
54	0x3e89d7b6	0.26922387
55	0x3e7c8d5e	0.24663302
56	0xbe4b7671	-0.198694
57	0xbe202a7a	-0.15641204
58	0x3ccddca1	0.025129618
59	0x3e6eda6c	0.23325509
60	0x3d5ab68d	0.05339675
61	0xbe6ed0d2	-0.23321846
62	0xbe3aa0ea	-0.18225446
63	0x3deb9c50	0.115044236
64	0x3e94dfcc	0.29076993
65	0x3d1d53b3	0.0384099
66	0x3d5de8df	0.05417716
67	0x3dbff753	0.09373345
68	0xbdc6bf92	-0.09704508
69	0xbcb6b02a	-0.022300798
70	0x3d9c2231	0.07623709
71	0x3dc3fd8e	0.09569846
72	0x3da60845	0.08107046
73	0xbd324eea	-0.04353229
74	0xbe8318e8	-0.2560494
75	0x3e97d6e6	0.29656142
76	0x3e6273e8	0.22114527
77	0xbe7f6c67	-0.24943696
78	0x3e74552f	0.2386062
79	0x3d5dcd8f	0.054151114
80	0x3dbebde2	0.09313561
81	0x3e495ea8	0.19665015
82	0x3e7694cf	0.24080203
83	0x3ebe1927	0.37128565
84	0x3eb0adbb	0.34507546
85	0xbe2f94d0	-0.17146611
86	0xbd5cb437	-0.053882804
87	0x3e324c78	0.17411983
88	0x3ea6ec99	0.32602385
89	0x3e10e70c	0.14150637
90	0xbe72315a	-0.23651639
91	0x3d978314	0.07398048
92	0xbe3812ae	-0.17975876
93	0x3d57e7f5	0.052711446
94	0x3dd035b0	0.1016649
95	0xbe889445	-0.2667562
96	0x3c6a2ebb	0.014293368
97	0xbe81d9c3	-0.25361452
98	0xbe3d50bd	-0.1848783
99	0xbe0aa489	-0.13539328
100	0xbc24e4ad	-0.010064286
101	0xbe8afd20	-0.27146244
102	0xbe7dafab	-0.24774043
103	0xbe222bcf	-0.15837024
104	0xbe2279fb	-0.15866844
105	0x3e6772c1	0.22602369
106	0x3e412f93	0.18865804
107	0xbdf220c5	-0.118226565
108	0xbdd0092e	-0.10158001
109	0x3dfe24b5	0.12409345
110	0xbe8642b7	-0.26222774
111	0xbdbc3b09	-0.091909476
112	0xbe74a059	-0.23889293
113	0x3cdee612	0.027209315
114	0xbe03c92c	-0.1286971
115	0xbd06e295	-0.03293093
116	0x3e4010d5	0.18756421
117	0x3ea62c96	0.3245589
118	0xbe645dd5	-0.22301419
119	0xbe84678b	-0.25860247
120	0x3d1a4e44	0.037672296
121	0x3ebc87cd	0.36822358
122	0x3e93175a	0.28728753
123	0x3e68d5a2	0.22737744
124	0x3da39c37	0.0798878
125	0xbe46f7df	-0.19430493
126	0xbe21b62d	-0.15792151
127	0xbe0b0cf2	-0.13579157

fc2.weight f4 [128, 128]
0	0xbd890770	-0.06690872
1	0xbd498653	-0.049200367
2	0x3dc0bbc9	0.09410817
3	0x3e26a2fa	0.16273108
4	0x3da5408f	0.08068954
5	0x3d3174b1	0.043324176
6	0x3d1a49f6	0.03766819
7	0xbd42caf6	-0.04755684
8	0x3e25c80b	0.16189592
9	0xbd553105	-0.0520487
10	0x3cf94677	0.030429108
11	0x3d0c97b2	0.034324355
12	0x3daa4c52	0.08315338
13	0x3d928654	0.07154527
14	0x3d8c3369	0.06845743
15	0xbdc66422	-0.096870676
16	0x3dc9f81a	0.09861775
17	0x3d0f1fff	0.034942623
18	0x3b82fe73	0.003997618
19	0x3e02fdf3	0.12792186
20	0xbd462e9b	-0.04838429
21	0x3dbe553b	0.092936
22	0x3dd9b7c9	0.10630757
23	0xbd693c50	-0.056942284
24	0x3d97b3d3	0.074073456
25	0x3e0a2dd4	0.13494045
26	0x3c08e41e	0.008355169
27	0x3dce7bbc	0.10082194
28	0x3d857282	0.06515981
29	0x3e000c7b	0.12504761
30	0xbd053330	-0.03251952
31	0xbd76b6b7	-0.060232844
32	0x3d5acba9	0.05341688
33	0xbd2c407f	-0.042053696
34	0xbd5b5d24	-0.053555623
35	0xbb7d06a4	-0.0038608694
36	0x3d2f2d6e	0.042767935
37	0xbdd1762f	-0.1022762
38	0x3bfcbcb2	0.007712924
39	0x3c4fd621	0.01268533
40	0xbd942a9e	-0.07234691
41	0x3c4c8599	0.012483024
42	0x3cae3477	0.021265252
43	0x3c16e5a8	0.009210028
44	0xbd936c4b	-0.071983896
45	0x3decdb4b	0.11565264
46	0xbdcc5a5f	-0.099781744
47	0x3de48081	0.11157323
48	0xbca2cb29	-0.019872265
49	0x3c6d9016	0.014499685
50	0xbcba46b2	-0.022738788
51	0xbc5cd82d	-0.013479275
52	0x3d5714e9	0.052510176
53	0xbd975089	-0.07388408
54	0x3d9299bb	0.07158228
55	0x3df0f6a8	0.11765796
56	0xbd16797a	-0.036736943
57	0xbd5e1f62	-0.054229148
58	0x3ce55758	0.02799575
59	0x3c485669	0.012227633
60	0xbb8ee36c	-0.004360607
61	0xbd640aef	-0.05567449
62	0x3d8d3f87	0.068968825
63	0xbc5a34c8	-0.013318248
64	0x3e02f714	0.12789565
65	0x3defe20b	0.11713036
66	0xbbcab1d9	-0.006185752
67	0xbdb55202	-0.088535324
68	0x3da5551d	0.08072875
69	0xbd875325	-0.066076554
70	0x3c4311fd	0.011906144
71	0xbd416f0f	-0.047225054
72	0x3d55888f	0.052132186
73	0x3e35b6b6	0.1774548
74	0x3c747308	0.014920004
75	0x3d1b785b	0.037956577
76	0x3b916ae2	0.0044377903
77	0x3e2fc6db	0.17165701
78	0x3d995e2d	0.07488666
79	0x3d512a3a	0.05106566
80	0xbd873c6e	-0.06603323
81	0x3d80fbe0	0.06298041
82	0xbd052842	-0.032509096
83	0xbc8f4224	-0.017487593
84	0xbc3261dc	-0.010887589
85	0x3c6f53f8	0.014607422
86	0x3cdecacd	0.027196312
87	0xbcd5e444	-0.026109822
88	0x3b771d58	0.00377067
89	0x3dbd7bd8	0.09252137
90	0x3c761455	0.015019496
91	0x39fe132a	0.00048460934
92	0xbcd66bbc	-0.026174419
93	0x3db2227e	0.08697985
94	0x3d95156e	0.07279478
95	0x3db9045d	0.09034035
96	0xbd9e0fa8	-0.0771783
97	0x3d8023d7	0.06256836
98	0x3d776c65	0.060406107
99	0x3e018c29	0.12651123
100	0xbdf66d7a	-0.120326
101	0xbd27bfa7	-0.04095426
102	0x3d0f34d0	0.034962475
103	0xbdd26f3e	-0.10275124
104	0x3d840306	0.06445889
105	0x3e06908e	0.1314108
106	0xbbeb3e86	-0.0071790842
107	0xbd47a9e3	-0.048746
108	0xbb8dceef	-0.004327647
109	0x3d8e7bdc	0.06957218
110	0xbd9b4671	-0.07581795
111	0x3e0d8dfa	0.13823691
112	0x3d872b6c	0.06600079
113	0x3d93884c	0.07203731
114	0xbd4ffd9e	-0.050778978
115	0x3cb9fcef	0.022703616
116	0x3ccc0814	0.024906196
117	0xbd9a1d39	-0.07525105
118	0x3d026a32	0.031839557
119	0x3d9748aa	0.073869064
120	0x3ccabf8d	0.024749542
121	0x3d393183	0.045213234
122	0x3d99bf86	0.07507233
123	0x3da5f296	0.0810291
124	0x3c82addd	0.015952045
125	0x3abbc1fb	0.0014324778
126	0x3d9c0953	0.07618966
127	0x3df2cac9	0.118550844
128	0xbcc474d5	-0.023981491
129	0xbcbf9d6f	-0.0233905
130	0xbd179af5	-0.037013013
131	0xbd97b4d6	-0.074075386
132	0x3d44583e	0.047935717
133	0xbb11fe5e	-0.0022276859
134	0xbd9bd880	-0.076096535
135	0xbd8e02f7	-0.06934159
136	0xbcc0b4eb	-0.023523768
137	0xbd5c8afb	-0.05384348
138	0x3c4cbcce	0.012496186
139	0xbc7fb2b0	-0.015606567
140	0x3da4f4dc	0.08054516
141	0xbd17ad97	-0.037030783
142	0xbd890fe3	-0.06692483
143	0xbd89e748	-0.067335665
144	0xbc81094a	-0.0157515
145	0x3d6d7a8b	0.057978194
146	0xbd96cc34	-0.073631674
147	0xbbc14a97	-0.0058987844
148	0xbc1bfd9e	-0.009520916
149	0xbcda8d80	-0.0266788
150	0xbd7d818c	-0.061891124
151	0xbdc10ed7	-0.094266586
152	0xbd8dc70d	-0.069227315
153	0xbceb89da	-0.028752256
154	0xbd28d627	-0.041219857
155	0xbb3e46be	-0.0029033865
156	0x3c9fb699	0.019496249
157	0xbd65f808	-0.056144744
158	0x3d7c7211	0.06163222
159	0xbd98a3d4	-0.07453123
160	0x3bd42922	0.00647463
161	0x3d9d7c1e	0.07689689
162	0x3d5c6adf	0.053812858
163	0xbdc3ca59	-0.09560079
164	0x3d55e7c8	0.052222997
165	0xbbae558b	-0.005320256
166	0xbd8ecb14	-0.06972328
167	0xbd62529e	-0.05525457
168	0x3d120bae	0.03565567
169	0x3bcc9a10	0.0062439516
170	0x3c885468	0.01664181
171	0x3c4f0b58	0.012636982
172	0xbd242944	-0.040078416
173	0x3d00adf9	0.031415913
174	0xbd29a608	-0.041418105
175	0xbd878eda	-0.06619044
176	0xbd7013d8	-0.058612674
177	0xbdbb4d21	-0.091455705
178	0x3d90e180	0.07074261
179	0xbbedba31	-0.0072548618
180	0x3c48c643	0.0122543005
181	0xbd452141	-0.048127417
182	0x3d897610	0.06711972
183	0x3c18036b	0.009278159
184	0x3d6cd384	0.057818905
185	0x3ca3d320	0.019998133
186	0x3d4711a1	0.048600797
187	0xbdae2cf9	-0.085046716
188	0x3bbca96e	0.0057575023
189	0x3d97c4b3	0.07410564
190	0x3ccc24c8	0.024919882
191	0x3d65e93e	0.05613064
192	0xbcc1a281	-0.023637058
193	0x3d17e708	0.037085563
194	0xbda633b8	-0.08115333
195	0x3d71f515	0.05907162
196	0x3bcd7a9e	0.0062707206
197	0x3bb56670	0.005535893
198	0xba10e2ea	-0.0005526977
199	0x3c89a905	0.016804228
200	0x3c65408e	0.013992442
201	0xbd9babd4	-0.07601133
202	0xbd4b30be	-0.04960703
203	0x3d387039	0.0450289
204	0x3d18bc2b	0.037288826
205	0xbd2dde70	-0.04244846
206	0xbce8f787	-0.028438343
207	0x3d56adbf	0.05241179
208	0xbc25007e	-0.010070918
209	0xbd220895	-0.039558966
210	0xbd0ebec4	-0.034849897
211	0x3ca5a76e	0.020221438
212	0x3d13c6a5	0.036078114
213	0x3d9b3cdb	0.07579967
214	0xbb31076b	-0.0027012478
215	0xbd581ce1	-0.052761916
216	0xbd743864	-0.05962409
217	0xbd2d2cfe	-0.042279236
218	0xbd423592	-0.04741437
219	0xbdaee8b1	-0.08540476
220	0xbb51777a	-0.0031962083
221	0x3d2a333e	0.041552775
222	0x3d9f2450	0.07770598
223	0xbd95c9f6	-0.073139116
224	0xbcaf682a	-0.021411974
225	0xbd9a37cc	-0.07530174
226	0x3cd2d18c	0.025734685
227	0x3d5db5fd	0.054128636
228	0xbdafa7da	-0.08576937
229	0x3d49ac56	0.049236618
230	0xbcb6cf97	-0.022315783
231	0x3d9f98b6	0.07792799
232	0xbb0f9e81	-0.0021914544
233	0xbc0652bf	-0.008198439
234	0x3d983375	0.0743169
235	0xbd2d3de3	-0.042295348
236	0xbdaf2347	-0.085516505
237	0xbc1c864d	-0.009553504
238	0x3cc133cb	0.023584267
239	0xbd630d9a	-0.055432893
240	0x3d2486b0	0.04016751
241	0xbbe9a8e8	-0.007130731
242	0x3d700cac	0.058605835
243	0xbd3e8dbd	-0.04652189
244	0xbd91df71	-0.07122696
245	0x3d986ec0	0.07442999
246	0xbd7f3202	-0.06230355
247	0xbd95d14d	-0.073153116
248	0x3d9910be	0.074738964
249	0xbd092a2a	-0.033487476
250	0xbd716ea1	-0.058943395
251	0xbd9f0e66	-0.07766418
252	0x3d928b08	0.07155424
253	0xbd4a1036	-0.049331866
254	0xbcaf10cc	-0.021370314
255	0x3d82838e	0.06372748

fc2.bias f4 [128]
0	0x3dbdb15d	0.09262345
1	0x3c2d37cc	0.010572385
2	0x3da065a2	0.07831885
3	0x3ddccaf3	0.10780897
4	0xbdb13543	-0.08652737
5	0xbd94194c	-0.072313875
6	0xbdaba577	-0.08381169
7	0x3d04e1ba	0.032441832
8	0xbd8464ed	-0.064645626
9	0x3defd6ec	0.11710915
10	0xbd6e6f2f	-0.0582115
11	0xbd0da076	-0.034576856
12	0xbd4801ae	-0.048829727
13	0x3dd74a23	0.10512187
14	0xbd5760c5	-0.05258252
15	0x3e1d21fb	0.15344994
16	0x3c8f3370	0.017480582
17	0xbd1672e1	-0.03673065
18	0x3dc5c75e	0.09657167
19	0xbd36e67f	-0.044653412
20	0xbd5eaad8	-0.054362148
21	0x3dd82821	0.10554529
22	0xbd3a58ab	-0.045494717
23	0x3c8b252d	0.0169855
24	0xbd94caf2	-0.07265271
25	0x3dde146c	0.10843739
26	0xbc09df57	-0.008415065
27	0xbb1df175	-0.0024100218
28	0xbcd719f3	-0.02625749
29	0xbc0c8817	-0.008577368
30	0x3d603ae8	0.054743677
31	0x3d2d8901	0.042366985
32	0xbd45ea69	-0.048319254
33	0xbdcb32d7	-0.09921806
34	0x3de5dea8	0.11224109
35	0x3ddd28e9	0.107988186
36	0xbd745d30	-0.059659183
37	0x3db10506	0.08643536
38	0x3dbb2f8f	0.091399305
39	0x3dbefdd7	0.0932576
40	0xbd8552b0	-0.06509912
41	0xbb6e518d	-0.0036364526
42	0x3ccdb083	0.025108581
43	0x3ba741a0	0.0051042587
44	0xbd333c18	-0.04375848
45	0xbcad7ac8	-0.02117671
46	0xbda704dd	-0.081552245
47	0xbca318ab	-0.019909224
48	0xbd90731c	-0.07053205
49	0xbdbd0cc1	-0.09230948
50	0x3cb17ebb	0.021666875
51	0xbd5746f6	-0.052557908
52	0xbdb4bddf	-0.088252775
53	0x3d05385e	0.03252446
54	0x3cfe1e4a	0.031020302
55	0xbd7da632	-0.061926074
56	0xbbcdf007	-0.006284717
57	0x3cbd4b19	0.023107098
58	0xbda3cf0e	-0.07998477
59	0xbd34d6d6	-0.044150196
60	0x3d7f63c5	0.062351007
61	0x3d94ae5a	0.072598174
62	0x3e1baf41	0.15203573
63	0x3b29979f	0.0025877727
64	0xbd9fec87	-0.07808786
65	0xbcf8ac8b	-0.030355712
66	0x3d2fa6dc	0.04288374
67	0x3d77c207	0.060487773
68	0xbc017a66	-0.007902717
69	0x3c68bb82	0.014204862
70	0x3c83f8f6	0.016109925
71	0xbc07ff79	-0.0083006555
72	0xbda76810	-0.08174145
73	0x3aedf733	0.0018155336
74	0x3d5a71e8	0.053331286
75	0xbd147610	-0.036245406
76	0xbbfaba2a	-0.007651587
77	0x3d2f3728	0.04277721
78	0x3d3381a4	0.043824807
79	0x3d8a5f67	0.06756478
80	0x3d7a6fa5	0.06114163
81	0x3d91b0cd	0.071138
82	0x3bb75a4b	0.0055954806
83	0x3cd41db6	0.025893074
84	0x3d940160	0.07226825
85	0x3d4cd888	0.050011188
86	0xbd39eae4	-0.045390025
87	0xbdbaf329	-0.0912841
88	0xbda8d076	-0.08242886
89	0x3d50183a	0.050804354
90	0x3c285b88	0.010275729
91	0xbc96e153	-0.01841799
92	0xbda7f742	-0.082014576
93	0xbda883c5	-0.08228258
94	0x3d86c303	0.06580164
95	0x3df1682d	0.11787448
96	0x3ba624df	0.0050703133
97	0x3d6aa43b	0.05728553
98	0x3d0eb3ae	0.034839325
99	0xbbbb9c20	-0.0057253987
100	0x3cf9d620	0.03049761
101	0xbd202ed8	-0.039107174
102	0x3d53a8b1	0.05167455
103	0x3ce28284	0.027650125
104	0xbc739801	-0.0148677835
105	0xbbd47bf7	-0.0064845043
106	0x3d07a5ab	0.033116978
107	0x3d5974f7	0.053090062
108	0x3d1c0d4d	0.038098622
109	0xbd261131	-0.04054374
110	0xbd8564ec	-0.0651339
111	0xbc7f607b	-0.015586968
112	0x3ca4210b	0.020035287
113	0x3cb80898	0.022465035
114	0x3cf05e09	0.029341714
115	0x3c10baf6	0.008833637
116	0xbd8bd8a7	-0.068284325
117	0x3bec36f1	0.007208698
118	0x3d34e9d5	0.044168312
119	0x3d13643f	0.035984274
120	0xbcf4571e	-0.029826697
121	0x3db6195b	0.08891555
122	0xbd928348	-0.07153946
123	0x3cd3154b	0.02576699
124	0xbd93de91	-0.072201855
125	0xbdb42267	-0.08795624
126	0x3cfd2acf	0.030904202
127	0xbc10a275	-0.008827795

fc3.weight f4 [3, 128]
0	0x3d163bd9	0.03667817
1	0xbd4b7afe	-0.04967784
2	0xbcb43420	-0.021997511
3	0x3dafaf73	0.08578386
4	0x3d4cc735	0.049994666
5	0x3c9771d3	0.018486893
6	0xbd26e4e5	-0.040745635
7	0xbcbf6f58	-0.023368523
8	0x3d3a87ba	0.045539595
9	0x3de0e966	0.10982017
10	0x3c6b56f9	0.014363998
11	0x3d023512	0.031788893
12	0xbd870bbd	-0.06594036
13	0x3d4318e1	0.04763115
14	0xbdd7dba8	-0.10539943
15	0x3dfaead8	0.12251824
16	0xbdbff7b2	-0.09373416
17	0xbd974467	-0.073860936
18	0x3e07418c	0.13208598
19	0xbd6512c6	-0.055926107
20	0x3c918866	0.017765235
21	0x3df0d2de	0.1175897
22	0xbbd1be70	-0.0064008757
23	0xbbb241cc	-0.0054399725
24	0xbda500bc	-0.08056781
25	0x3e254742	0.16140464
26	0x3df687e4	0.12037638
27	0x3e02650a	0.12733856
28	0xbd6aeb1a	-0.057353117
29	0xbdf2a7e7	-0.11848431
30	0x3ca69ba5	0.020337889
31	0xbd6846e4	-0.05670823
32	0x3c837bec	0.016050301
33	0x3d7514ad	0.05983417
34	0x3e0d18ac	0.13778943
35	0x3e18c1d0	0.14917684
36	0x3d90812a	0.07055886
37	0x3bbad208	0.005701307
38	0x3e38006f	0.17968915
39	0x3e0d602c	0.13806218
40	0xbd75277b	-0.059852105
41	0x3e2da51f	0.1695752
42	0xbd07c4e0	-0.03314674
43	0xbcead0ac	-0.028663956
44	0xbdf456e9	-0.11930639
45	0xbd93ee0e	-0.0722314
46	0xbddcb520	-0.10776734
47	0x3d293e7c	0.041319355
48	0xbdec15e1	-0.115276106
49	0x3c88038f	0.01660326
50	0x3d8700c1	0.06591941
51	0x3cb62e60	0.02223891
52	0x3c943d2e	0.018095579
53	0xbdec3696	-0.11533849
54	0xbd53f435	-0.051746566
55	0xbdf996a8	-0.121869385
56	0xbdbe78db	-0.09300395
57	0x3d224d94	0.039624766
58	0x3c21e881	0.009882093
59	0x3b60fecf	0.0034331565
60	0xbc532f12	-0.01288964
61	0xbd3f55f3	-0.046712827
62	0x3e2363eb	0.15956084
63	0xbe13f121	-0.14447452
64	0x3c9d26b5	0.019183496
65	0xbc917248	-0.017754689
66	0x3e3ab8d3	0.18234567
67	0x3dde9974	0.108691126
68	0xbe0a6d12	-0.1351817
69	0x3c891bdf	0.016736923
70	0xbe1b3d22	-0.15160039
71	0x3ce29ffe	0.02766418
72	0xbda43484	-0.08017829
73	0x3c7840b6	0.015152147
74	0x3dc5e938	0.096636236
75	0xbd9c8ee0	-0.07644439
76	0xbc104fd6	-0.008808097
77	0xbd85da4a	-0.06535776
78	0x3e2bb2f9	0.16767491
79	0xbd49a9f5	-0.04923435
80	0xbda61ab3	-0.08110561
81	0x3deb5fb9	0.11492867
82	0x3b39392c	0.0028262837
83	0x3c845d9f	0.016157923
84	0xbca23fd7	-0.019805832
85	0x3e565bf9	0.20933522
86	0x3c36d486	0.011159068
87	0x3d413058	0.047165245
88	0xbd370819	-0.044685457
89	0x3dcbb3df	0.09946417
90	0x3de73e43	0.11291172
91	0x3e2334a2	0.15938047
92	0xbd16baf7	-0.036799397
93	0xbe4c235d	-0.19935365
94	0xbc12910f	-0.0089457175
95	0x3da441c3	0.080203556
96	0x3b924302	0.0044635544
97	0x3c3eec9e	0.011653094
98	0x3bb8f381	0.0056442623
99	0x3c8386e0	0.016055524
100	0xbda1e9ce	-0.07905923
101	0xbd909fce	-0.0706173
102	0x3b6ca37f	0.0036108193
103	0xbc35dabe	-0.0110995155
104	0x3d8de099	0.06927604
105	0xbdfc0ed4	-0.12307516
106	0x3d993da6	0.07482462
107	0x3d4e9629	0.050436173
108	0x3d1d4c9e	0.038403146
109	0xbd01e5c3	-0.03171326
110	0xbe47fee9	-0.19530834
111	0xbe028747	-0.12746917
112	0xbdd82a12	-0.10554899
113	0x3c5cdea7	0.013480819
114	0x3c86331e	0.016381796
115	0x3b95293e	0.0045520356
116	0x3d5cc593	0.05389936
117	0x3de0aaf2	0.10970105
118	0xbc9efc0f	-0.0194073
119	0x3da21db8	0.07915825
120	0xbd64e1d3	-0.055879425
121	0x3e267363	0.16254954
122	0x3d4a2479	0.04935119
123	0x3e027b38	0.12742317
124	0xbdbc04d9	-0.09180612
125	0xbd9d08bc	-0.076676816
126	0x3d6fe26c	0.058565542
127	0x3dde762a	0.10862382
128	0xbd2e88fa	-0.0426111
129	0xbd0d05c2	-0.03442932
130	0xbda312b6	-0.07962553
131	0xbe324aef	-0.17411397
132	0xbb24768e	-0.0025095078
133	0x3d8a0e80	0.06741047
134	0xbcc21258	-0.023690388
135	0xbbfbe550	-0.0076872483
136	0x3d584f75	0.05281015
137	0xbe300d1f	-0.17192505
138	0x3c117655	0.00887831
139	0x3d0e7da6	0.034787796
140	0xbc02fbc0	-0.007994592
141	0xbd4c728f	-0.04991394
142	0xbd0af027	-0.033920433
143	0xbe1b4451	-0.1516278
144	0xbdc2ac76	-0.095055506
145	0x3d467e44	0.04846026
146	0xbd8bd6c5	-0.068280734
147	0x3bc437eb	0.0059881113
148	0xbddb8301	-0.107183464
149	0xbdf55ed1	-0.119809754
150	0x3d8fd0e9	0.07022268
151	0x3dc0767d	0.093976
152	0x3d76881a	0.06018839
153	0xbdd208c6	-0.1025558
154	0xbddd9127	-0.10818701
155	0xbc4938f8	-0.012281649
156	0xbe063552	-0.13106278
157	0xbca9d5b2	-0.02073178
158	0xbb4d0181	-0.0031281414
159	0xbd0d312f	-0.034470733
160	0x3d8a3185	0.06747726
161	0x3d8bb64f	0.06821882
162	0x3c867507	0.016413225
163	0x3d0f11a9	0.03492895
164	0x3a537542	0.0008066484
165	0xbdb73218	-0.089451015
166	0xbcd0290e	-0.025410201
167	0xbe085317	-0.13312946
168	0xbda0e84e	-0.078568086
169	0x3c160877	0.009157292
170	0xbd2802cc	-0.041018292
171	0x3a61cf80	0.0008613989
172	0x3ca9deaa	0.020736057
173	0xbd534930	-0.05158347
174	0xbd06665d	-0.032812465
175	0x3cf7708f	0.03020504
176	0xbdb2b535	-0.08725969
177	0xbd0b916a	-0.034074225
178	0xbd68481a	-0.056709386
179	0xbd6a47a6	-0.057197236
180	0x3cd62875	0.026142338
181	0xbc83d873	-0.016094422
182	0x3d444746	0.047919534
183	0xbdc2c7bc	-0.095107526
184	0xbd969e53	-0.07354417
185	0xbd74ee5d	-0.059797633
186	0x3d09fddf	0.033689376
187	0x3da02565	0.078196324
188	0x3db21430	0.08695257
189	0x3d592717	0.053015795
190	0xbdd62439	-0.10456128
191	0xbcca8dd0	-0.024725825
192	0x3bdd1e8f	0.0067480276
193	0xbd9ee417	-0.077583484
194	0xbe104bd5	-0.14091428
195	0xbdad3a0b	-0.084583364
196	0x3d12d327	0.0358459
197	0x3b14d1fb	0.0022708166
198	0xbd7ceb47	-0.061747815
199	0x3d5da379	0.054110978
200	0xbda0a133	-0.07843246
201	0xbd6ed605	-0.058309574
202	0xbe2487ae	-0.16067383
203	0xbb8b3627	-0.004248399
204	0xbe0a582f	-0.13510202
205	0xbda7ff5d	-0.082030036
206	0xba9d20de	-0.0011987945
207	0xbe153b8f	-0.14573501
208	0x3d0a0741	0.033698324
209	0xbd247542	-0.04015089
210	0x3d9d7461	0.07688213
211	0x3d9ee7f4	0.07759085
212	0xbe1752f5	-0.1477774
213	0xbc3137db	-0.01081654
214	0x3d1a1334	0.03761597
215	0xbd36aef6	-0.04460045
216	0xbd5fd499	-0.05464611
217	0xbe288f47	-0.16460906
218	0x3b0239aa	0.0019870796
219	0xbe1ea575	-0.15492804
220	0xbbb08dd1	-0.0053879996
221	0xbcba77f2	-0.022762273
222	0x3d8e57ae	0.06950317
223	0xbe07f135	-0.13275607
224	0x3d8becf8	0.068323076
225	0xbcc9c76b	-0.024631223
226	0xbe289f45	-0.16467007
227	0xbbd5afa0	-0.0065211803
228	0xbdc8ce17	-0.098049335
229	0xbd7c642b	-0.061618965
230	0xbe188de8	-0.14897883
231	0x3c893e09	0.016753213
232	0xbdc71696	-0.09721105
233	0xbd0fcbe7	-0.035106566
234	0x3d8fbb6a	0.07018168
235	0xbab94a70	-0.0014136564
236	0x3d309d3c	0.0431187
237	0xbd958115	-0.07300011
238	0xbdb27543	-0.08713772
239	0xbdc2c63a	-0.09510465
240	0xbd513993	-0.051080298
241	0x3d95d859	0.07316656
242	0xbd90759a	-0.07053681
243	0xbe01c698	-0.12673414
244	0xbd918295	-0.07104985
245	0xbe035229	-0.1282431
246	0xbc9b9ae9	-0.018994765
247	0x3da71a00	0.08159256
248	0x3db20370	0.08692062
249	0xbdab2c87	-0.08358102
250	0x3ca3768e	0.019953992
251	0xbd69ee81	-0.05711222
252	0xba1bf464	-0.0005949198
253	0xbce473df	-0.027887283
254	0xbd7a4a87	-0.06110623
255	0xbd35abf4	-0.04435344

fc3.bias f4 [3]
0	0x3ce50fc5	0.027961621
1	0xbcd7db3c	-0.026349656
2	0xbd460ae2	-0.048350222
