scripts/models/pg/reinforce_run_1.pth (torch, 76888 bytes, 6 tensors)

fc1.weight f4 [128, 12]
0.14180744 0.27342972 -0.045508616 -0.23416503 0.1578468 -0.23170714 0.32576278 -0.16649942
-0.12833887 0.2742233 -0.22341627 0.2899519 0.02213376 -0.20437995 0.07701971 -0.030032054
0.12681392 -0.15456699 0.18854876 -0.13081115 0.024955781 0.14237861 0.11360842 -0.1457524
-0.17949705 -0.14809026 -0.19889848 0.089653365 -0.005056 0.334244 -0.15028907 0.2269734
0.12418405 0.07517907 -0.08509868 0.097242355 -0.28781494 -0.2001828 -0.22977385 0.24657503
-0.045021594 -0.12498347 0.1946638 -0.20102708 0.06289052 0.022490634 -0.20947267 0.050410394
0.20795615 -0.04676368 0.32986465 0.13153818 0.05147585 -0.22513314 0.133867 0.11119375
0.10424167 0.16138451 0.098891094 0.049075905 0.0010791481 -0.06497329 0.19505234 -0.22488229
0.09074394 0.18835324 0.24983318 -0.015593076 -0.09121759 -0.11521817 0.13573755 -0.13171051
-0.20850131 0.14496872 0.16008447 0.066046715 0.022851055 0.18705322 0.24886538 0.3400041
0.26666707 -0.13667813 -0.1819369 0.20102745 0.18931633 -0.0069671995 0.23783894 0.21924292
-0.23833191 0.08423759 0.10085362 -0.3251979 -0.0141881285 0.049436066 -0.0038930275 0.053379107
-0.16075955 -0.06323609 -0.1000987 -0.072507754 -0.20936793 0.22658835 -0.03036475 0.37277433
-0.18931296 0.1938221 0.0066489503 0.16056643 0.16689868 0.007033378 -0.024774343 0.3134532
-0.005577743 -0.20394601 -0.21894997 -0.09036776 -0.16244566 -0.26420504 -0.07506863 -0.043104272
-0.31099412 0.07992013 -0.097543456 -0.10991051 0.08715815 0.1670998 0.08224125 -0.29586986
-0.14458779 0.15077078 0.046200447 0.050522525 0.05139008 0.24832755 0.016533196 0.048664123
0.14869258 0.05620694 -0.07281381 -0.28283453 -0.03551662 -0.23041743 -0.24519767 -0.22072011
0.17339179 -0.06114036 0.15077007 0.10805855 -0.21317303 -0.18276443 0.18592203 0.19777085
-0.038423717 0.1968468 0.10400143 0.1733767 0.13952333 0.010857713 0.21339273 -0.029195026
-0.2495588 -0.09030842 0.111203544 0.37299663 0.22065121 0.2833885 -0.13732934 0.09778182
-0.1787082 0.09223313 0.056166746 -0.16886884 0.23943168 -0.0148326205 0.26922193 -0.17125213
-0.11741129 0.12215895 -0.13489793 -0.1907241 -0.1893563 -0.26181874 0.23790152 0.07602753
0.11922703 -0.24250585 -0.06349133 -0.31983432 0.23938382 0.055843525 0.2901066 -0.12597698
-0.0573135 0.049452893 0.25437027 -0.13972847 -0.14980192 -0.04605261 -0.038762916 -0.017976616
0.07104175 -0.103304006 0.25779784 0.23074189 -0.1210149 0.09018365 -0.22881274 -0.029809646
0.25368077 0.04952786 0.04235415 -0.2727873 0.18946807 0.019207375 -0.20745069 0.11656135
-0.07012707 0.13681647 0.046655804 -0.05674082 -0.18981375 -0.23939839 -0.25539026 -0.11719976
0.14487593 0.13428785 -0.06748777 0.015075244 0.17011265 -0.021992434 -0.15905975 0.19983505
0.11713959 0.087449536 -0.208451 -0.09701739 0.18967628 -0.06741811 0.13338034 0.00019355817
-0.06668122 0.12980337 0.16848728 -0.04039149 -0.21397649 0.044465747 0.075111575 0.10113518
-0.06239623 0.057969566 -0.18339589 0.08222701 -0.2577077 0.18337186 0.2771684 0.3146797
00000000: f835 113e fbfe 8b3e 3e67 3abd f5c8 6fbe
00000010: 97a2 213e a344 6dbe 61ca a63e d37e 2abe
00000020: 446b 03be ff66 8c3e 3cc7 64be 9374 943e
00000030: dc51 b53c fa48 51be 82bc 9d3d c805 f6bc
00000040: 82db 013e cf46 1ebe ed12 413e 5cf3 05be
00000050: 1170 cc3c b3cb 113e 88ab e83d 1e40 15be
00000060: 13ce 37be f9a4 17be 0bac 4bbe 2f9c b73d
00000070: cdac a5bb 0822 ab3e 61e5 19be b76b 683e
00000080: 3554 fe3d 7cf7 993d 3748 aebd 0027 c73d
00000090: 7b5c 93be b8fc 4cbe d649 6bbe 2a7e 7c3e
000000a0: 9068 38bd 55f7 ffbd f255 473e 0bda 4dbe
000000b0: bfcc 803d 473e b83c 0180 56be 217b 4e3d
000000c0: 75f2 543e 468b 3fbd 05e4 a83e f2b1 063e
000000d0: 57d8 523d 4d89 66be 6e14 093e 8cb9 e33d
000000e0: a87c d53d fb41 253e 6a87 ca3d d103 493d
000000f0: 3472 8d3a b710 85bd cdbb 473e 8b47 66be
00000100: f5d7 b93d acdf 403e 45d4 7f3e 1a7a 7fbc
00000110: 4ad0 babd 81f7 ebbd c9fe 0a3e 1fdf 06be
00000120: 5e81 55be ae72 143e 2fed 233e 8043 873d
00000130: 2332 bb3c e18a 3f3e 91d6 7e3e 0415 ae3e
00000140: 9688 883e 5af5 0bbe ab4d 3abe 24da 4d3e
00000150: 24dc 413e 1b4d e4bb 0d8c 733e 3781 603e
00000160: 480d 74be c284 ac3d 588c ce3d 5780 a6be
00000170: 5375 68bc 797d 4a3d 2a22 7fbb 0da4 5a3d
00000180: 279e 24be ec81 81bd 8c00 cdbd f27e 94bd
00000190: 8c64 56be c706 683e 7fbf f8bc 47dc be3e
000001a0: 42db 41be 4d79 463e 70df d93b 876b 243e
000001b0: 7de7 2a3e 4078 e63b 90f3 cabc f07c a03e
000001c0: 80c5 b6bb 39d7 50be 6c34 60be bb12 b9bd
000001d0: 2858 26be e245 87be 95bd 99bd 1b8e 30bd
000001e0: 9f3a 9fbe 2aad a33d ddc4 c7bd c318 e1bd
000001f0: f97f b23d 361c 2b3e 1a6e a83d 417c 97be
00000200: d20e 14be a863 1a3e ae3c 3d3d b5f0 4e3d
00000210: 687e 523d 9449 7e3e a070 873c 0854 473d
00000220: de42 183e 4039 663d 681f 95bd b0cf 90be
00000230: e079 11bd 8cf2 6bbe 1915 7bbe 7404 62be
00000240: 9e8d 313e 506e 7abd 7863 1a3e cd4d dd3d
00000250: 084a 5abe 9926 3bbe 5862 3e3e 7184 4a3e
00000260: 3062 1dbd 3592 493e b4fe d43d a989 313e
00000270: 34df 0e3e 8de4 313c a083 5a3e 682a efbc
00000280: 588c 7fbe 9ff3 b8bd afbe e33d 6af9 be3e
00000290: 64f2 613e 4c18 913e 10a0 0cbe d641 c83d
000002a0: 48ff 36be b9e4 bc3d 1a0f 663d f4eb 2cbe
000002b0: 942d 753e 8504 73bc 75d7 893e b85c 2fbe
000002c0: 5575 f0bd 792e fa3d af22 0abe 2e4d 43be
000002d0: 9ee6 41be 1b0d 86be 759c 733e 52b4 9b3d
000002e0: 4d2d f43d 7453 78be be07 82bd 53c1 a3be
000002f0: 0821 753e 2ebc 643d da88 943e 1c00 01be
00000300: 90c1 6abd 1e8f 4a3d d23c 823e fb14 0fbe
00000310: ad65 19be a9a1 3cbd ddc5 1ebd b243 93bc
00000320: 567e 913d 0d91 d3bd 14fe 833e 9a47 6c3e
00000330: a9d6 f7bd 35b2 b83d e34d 6abe 5c33 f4bc
00000340: 72e2 813e badd 4a3d 8c7b 2d3d c7aa 8bbe
00000350: eb03 423e c958 9d3c f46d 54be b8b7 ee3d
00000360: c89e 8fbd 9e19 0c3e 281a 3f3d 1069 68bd
00000370: 895e 42be da24 75be 83c2 82be 6e06 f0bd
00000380: 5b5a 143e c182 093e 0737 8abd 28fe 763c
00000390: 0332 2e3e 7a29 b4bc 8fe0 22be 8fa1 4c3e
000003a0: e2e6 ef3d be18 b33d 2e74 55be 0eb1 c6bd
000003b0: 803a 423e 8212 8abd db94 083e e0f5 4a39
000003c0: 2a90 88bd 2deb 043e ee87 2c3e 8c71 25bd
000003d0: a71c 5bbe b721 363d 19d4 993d f61f cf3d
000003e0: 3093 7fbd 7f71 6d3d 22cc 3bbe a266 a83d
000003f0: 43f2 83be d5c5 3b3e 04e9 8d3e b31d a13e

fc1.bias f4 [128]
0.3072954 0.15865329 0.20327134 -0.18281525 0.29927576 0.09549309 0.15293716 -0.062495396
0.04486028 0.046180714 0.06064319 -0.16745639 0.27905288 -0.046191897 0.32367012 0.03411896
0.29064056 0.2637656 -0.1937942 -0.15001465 0.32157403 0.057313975 -0.24719444 0.1899368
-0.02616922 -0.011740976 0.18940063 -0.10508782 0.2845845 0.32570475 0.17596512 -0.21260583
-0.073212594 0.025267834 0.20590171 0.31948486 -0.13107702 -0.22180414 0.20806679 0.038965587
-0.2672194 0.26618117 0.2666047 -0.15788516 -0.030681405 0.17777991 0.027224455 -0.2134661
-0.013486656 -0.054315362 0.32098135 0.22094981 -0.018485421 0.18778649 -0.09662846 0.13198254
0.16115014 0.28980574 0.023808341 0.06671943 0.2584015 0.18522581 0.102430336 0.14749339
-0.08174908 -0.08981203 -0.14675683 0.017703772 -0.01739196 0.15605198 0.14706138 -0.15415087
-0.19410227 0.12527514 -0.06380025 -0.20605955 -0.22185858 -0.28191897 -0.06301963 0.15020591
-0.14997195 0.11310183 -0.27352533 0.07138297 -0.2578403 0.048667945 0.10087684 0.082447715
-0.054248806 0.10518251 -0.027152851 0.034051623 -0.10894755 -0.13490674 0.051871512 0.32633778
-0.1184629 0.30231035 0.09906006 0.13273448 -0.05169424 -0.23454829 0.16089945 -0.31591433
-0.2746291 -0.10690207 0.28317955 0.1905503 -0.27409622 -0.11139727 0.23013607 -0.06285616
-0.2248407 -0.08915856 -0.22117785 0.08411626 -0.044826206 0.03401968 0.02062178 0.21740502
-0.116328485 0.10537751 0.027999075 0.10649755 -0.280947 0.029364882 -0.038831465 -0.20301789
00000000: d355 9d3e 0276 223e 5d26 503e ec33 3bbe
00000010: ac3a 993e e291 c33d 8f9b 1c3e 2cfb 7fbd
00000020: 6abf 373d fd27 3d3d fe64 783d b079 2bbe
00000030: 05e0 8e3e b733 3dbd 17b8 a53e 53c0 0b3d
00000040: d7ce 943e 490c 873e fd71 46be 719d 19be
00000050: 5aa5 a43e 0fc2 6a3d 8a20 7dbe cb7e 423e
00000060: d560 d6bc 395d 40bc 3df2 413e 4838 d7bd
00000070: 0fb5 913e c6c2 a63e 3330 343e 58b5 59be
00000080: 7cf0 95bd 7dfe ce3c e6d7 523e 8593 a33e
00000090: 0e39 06be a020 63be 760f 553e 619a 1f3d
000000a0: fbd0 88be e648 883e 6980 883e a6ac 21be
000000b0: 9257 fbbc f00b 363e d205 df3c db96 5abe
000000c0: 23f7 5cbc c979 5ebd ab57 a43e ab40 623e
000000d0: bd6e 97bc 1a4b 403e 24e5 c5bd 6e26 073e
000000e0: 8b04 253e 6b61 943e b609 c33c 32a4 883d
000000f0: 344d 843e d6ab 3d3e ffc6 d13d 8208 173e
00000100: 106c a7bd 5fef b7bd 6c47 16be 8007 913c
00000110: 9579 8ebc 17cc 1f3e 4297 163e bad9 1dbe
00000120: bfc2 46be 2048 003e b5a9 82bd 4601 53be
00000130: e52e 63be af57 90be 7010 81bd 94cf 193e
00000140: 3f92 19be efa1 e73d 830b 8cbe 3c31 923d
00000150: a503 84be 0a58 473d 8498 ce3d 59da a83d
00000160: ff33 5ebd ee69 d73d a86f debc b779 0b3d
00000170: e51f dfbd fe24 0abe 3977 543d bf15 a73e
00000180: ad9c f2bd 6cc8 9a3e 00e0 ca3d 8ceb 073e
00000190: 57bd 53bd 6d2d 70be d3c2 243e 86bf a1be
000001a0: 2f9c 8cbe 79ef dabd e9fc 903e 9e1f 433e
000001b0: 5756 8cbe 4024 e4bd caa8 6b3e bbba 80bd
000001c0: a43c 66be c398 b6bd 727c 62be 2545 ac3d
000001d0: af9b 37bd 3858 0b3d 02ef a83c 6c9f 5e3e
000001e0: a13d eebd 2ad0 d73d 515e e53c 631b da3d
000001f0: 49d8 8fbe 9f8e f03c be0d 1fbd ece3 4fbe

fc2.weight f4 [128, 128]
0.061714463 0.010042116 0.060433842 -0.097288646 -0.04795868 -0.0742388 -0.06964263 0.027295396
0.027639497 0.029555857 0.026283568 -0.034804836 -0.026035367 0.073718816 0.027377248 -0.032779235
-0.045772057 -0.08311031 -0.05562317 -0.025486687 0.061369482 -0.0689606 0.02875194 0.041452784
-0.042620517 -0.0038886012 -0.062500365 -0.024462435 0.054040242 0.02293034 0.05321989 -0.032055397
-0.024583036 0.060238935 0.06621212 -0.07140247 -0.016048454 -0.041946314 -0.04942224 -0.025571175
-0.011500683 -0.08088311 0.040795833 -0.02225657 -0.023657909 0.014297043 -0.0045504323 0.064614974
0.06845502 0.05965746 0.07027645 -0.008304045 -0.07644188 -0.0035974346 -0.005538444 -0.08277371
-0.05302147 0.026457485 -0.05483744 0.03099171 0.050186165 0.022837859 -0.07174967 -0.061058197
0.052428 -0.09476169 0.044333808 -0.09276818 0.08863045 0.058474604 0.028032955 0.058126744
0.06629175 0.04521275 -0.010522475 -0.06283696 0.07705139 -0.040197514 -0.018233718 0.027208148
-0.0024863514 -0.0008875938 0.050649792 0.07319693 0.0015693868 -0.02970476 0.05519795 0.029288981
0.062738724 0.0019888172 -0.0896519 0.07018234 -0.05572527 -0.005846741 0.002982776 0.0010410127
0.027003124 0.028225059 -0.05044493 -0.046755742 -0.070458 -0.03619464 -0.021567663 0.059910525
0.042717583 0.058069255 -0.007942367 -0.042717777 0.083528444 -0.011236774 0.011672112 0.03793437
-0.021361237 0.07298913 0.042630866 0.05804926 -0.036994737 0.04564663 -0.09100548 -0.074371874
-0.07983728 -0.002462415 0.008429349 0.066274494 -0.06092563 0.03264168 0.0215363 -0.038425464
-0.027686924 -0.077795416 0.032839905 -0.022299584 -0.09216078 -0.031628318 -0.069660194 -0.075822756
-0.096267484 -0.049002428 -0.029936064 -0.028317075 0.07241565 -0.0014903945 -0.012059638 -0.030712927
-0.034448918 -0.06610567 0.024780288 0.03790975 -0.092071846 -0.064904876 0.033156484 -0.081027284
0.06332515 -0.057674307 -0.055904564 -0.005742477 0.061049532 0.06891045 -0.052591722 -0.05540947
-0.051677 -0.015450829 -0.037006516 0.027698552 -0.036688335 -0.054377485 0.0514272 0.010822174
0.002005471 0.0064979037 0.07078741 -0.085058525 -0.031408858 0.025155703 -0.050345056 0.057895042
-0.045395337 -0.04732813 0.0246747 0.061104637 -0.09149799 -0.05237126 0.02610008 -0.061045233
0.07401774 0.03797421 -0.02702517 0.034533963 -0.031710494 -0.0561802 -0.066687785 0.03575245
0.00064662844 0.07808836 -0.053452034 -0.023314036 -0.05115167 -0.07778357 -0.094827645 -0.031253103
-0.06487673 0.06783355 -0.09065892 -0.06356006 -0.09625995 -0.049128883 0.046135962 -0.041449863
-0.006017828 -0.07947576 0.0031583116 0.06673645 -0.016251676 0.070294954 -0.08372007 -0.07641925
0.04518131 -0.095603205 -0.07932981 -0.026981525 0.01131105 0.003755211 -0.03506923 -0.048959352
0.044661082 0.043730307 0.0016661485 -0.08198563 -0.031353448 -0.0474382 -0.024234006 -0.07435885
-0.00026992708 0.023269787 -0.031372495 0.064635634 0.07056057 0.04569842 -0.03353855 -0.007290047
-0.025069945 -0.066768214 0.060990237 -0.040362734 0.061391186 -0.07675289 -0.00087687373 0.062349528
0.08204607 -0.0052898275 -0.054870658 0.03657752 0.0072781593 -0.026553594 -0.021814002 0.035032697
00000000: 4ec8 7c3d b087 243c 7a89 773d 453f c7bd
00000010: 5270 44bd 830a 98bd cca0 8ebd 989a df3c
00000020: 3a6c e23c 201f f23c a350 d73c 848f 0ebd
00000030: 1f48 d5bc e4f9 963d 4046 e03c 8543 06bd
00000040: 7b7b 3bbd bd35 aabd 1fd5 63bd 75c9 d0bc
00000050: 915e 7b3d 373b 8dbd 3089 eb3c 65ca 293d
00000060: da92 2ebd e7d7 7ebb 3100 80bd 7265 c8bc
00000070: 4d59 5d3d 69d8 bb3c 19fd 593d 854c 03bd
00000080: 5d62 c9bc 1abd 763d 389a 873d 753b 92bd
00000090: 0c78 83bc e6cf 2bbd fa6e 4abd a47a d1bc
000000a0: 5c6d 3cbc 0ba6 a5bd 8819 273d 6953 b6bc
000000b0: 3bce c1bc 253e 6a3c cb1b 95bb db54 843d
000000c0: 2532 8c3d 615b 743d 19ed 8f3d b00d 08bc
000000d0: 8f8d 9cbd f0c2 6bbb d67b b5bb 4385 a9bd
000000e0: 0a2d 59bd 5ebd d83c 399d 60bd 54e2 fd3c
000000f0: 0290 4d3d 7616 bb3c 7ef1 92bd 2918 7abd
00000100: bebe 563d 6b12 c2bd 5e97 353d 3efd bdbd
00000110: e283 b53d 1183 6f3d 5ea5 e53c 4f16 6e3d
00000120: f8c3 873d 0131 393d 7566 2cbc aab0 80bd
00000130: 1fcd 9d3d 26a6 24bd e15e 95bc 9fe3 de3c
00000140: 0ef2 22bb 69ad 68ba 2876 4f3d 46e8 953d
00000150: e2b3 cd3a 6657 f3bc 3f17 623d 72ef ef3c
00000160: 297d 803d d156 023b 6a9b b7bd c2bb 8f3d
00000170: 2e40 64bd 0596 bfbb ad7a 433b 9772 883a
00000180: a835 dd3c 3d38 e73c 589f 4ebd f382 3fbd
00000190: 494c 90bd d540 14bd abae b0bc bd64 753d
000001a0: a2f8 2e3d 07da 6d3d b420 02bc d6f8 2ebd
000001b0: f610 ab3d 721a 38bc 633c 3f3c 1261 1b3d
000001c0: c3fd aebc 537b 953d b49d 2e3d 10c5 6d3d
000001d0: cb87 17bd f6f7 3a3d 1561 babd 4850 98bd
000001e0: ba81 a3bd 7860 21bb 411b 0a3c ecba 873d
000001f0: 278d 79bd 48b3 053d e56c b03c 0564 1dbd
00000200: b0cf e2bc 3453 9fbd 2383 063d 9ead b6bc
00000210: cbbe bcbd b28c 01bd 01aa 8ebd f648 9bbd
00000220: e327 c5bd c5b6 48bd 7a3c f5bc 36f9 e7bc
00000230: a84e 943d 5759 c3ba ca95 45bc ad99 fbbc
00000240: 4f1a 0dbd 6962 87bd 0800 cb3c 4147 1b3d
00000250: 2a90 bcbd d9ec 84bd 18cf 073d a2f1 a5bd
00000260: 9eb0 813d e53b 6cbd 2ffc 64bd 632b bcbb
00000270: 130f 7a3d ec20 8d3d 6b6a 57bd 0af5 62bd
00000280: 43ab 53bd 7925 7dbc 2594 17bd 13e8 e23c
00000290: 8246 16bd edba 5ebd 54a5 523d 7d4f 313c
000002a0: 386e 033b 5eec d43b fdf8 903d 2a33 aebd
000002b0: 93a6 00bd 5513 ce3c 9e36 4ebd 5a23 6d3d
000002c0: 76f0 39bd 24db 41bd 9922 ca3c db48 7a3d
000002d0: 4c63 bbbd 3f83 56bd d6cf d53c 910a 7abd
000002e0: 9d96 973d d88a 1b3d e463 ddbc 7c73 0d3d
000002f0: dde2 01bd 361d 66bd 9b93 88bd 2971 123d
00000300: 8082 293a caec 9f3d 85f0 5abd 14fd bebc
00000310: 6a84 51bd fe4c 9fbd ff34 c2bd 4103 00bd
00000320: 17de 84bd 51ec 8a3d 62ab b9bd c72b 82bd
00000330: f023 c5bd 5e3b 49bd 10f9 3c3d 55c7 29bd
00000340: 3331 c5bb 30c4 a2bd adfb 4e3b 1fad 883d
00000350: 3c22 85bc cdf6 8f3d 6e75 abbd b281 9cbd
00000360: 0a10 393d 9dcb c3bd ab77 a2bd 5c08 ddbc
00000370: fb51 393c fc19 763b c1a4 0fbd 9a89 48bd
00000380: 8aee 363d 8d1e 333d ab62 da3a 15e8 a7bd
00000390: 796c 00bd 8f4e 42bd 6586 c6bc 7449 98bd
000003a0: 0085 8db9 48a0 be3c 7280 00bd b05f 843d
000003b0: 0f82 903d 442e 3b3d b85f 09bd 59e1 eebb
000003c0: 7c5f cdbc c6bd 88bd e6d0 793d 6553 25bd
000003d0: 5375 7b3d 9f30 9dbd 00de 65ba 3862 7f3d
000003e0: c507 a83d 4a56 adbb 0ec0 60bd 4fd2 153d
000003f0: a07d ee3b ec86 d9bc 47b3 b2bc 727e 0f3d

fc2.bias f4 [128]
-0.105941445 0.025362544 -0.06954203 -0.024174914 0.014106569 -0.06817167 0.059516765 0.1239115
0.047940698 0.0041834977 0.018020317 -0.005825544 -0.0014721361 0.112071395 0.058362618 0.12075092
-0.09215734 0.12096247 0.028517943 0.04554847 0.034307603 -0.067166805 0.05090265 0.06385774
0.056430172 0.027708963 0.062238697 0.022536801 0.064087644 -0.07160251 0.044913314 -0.05895387
-0.06281627 0.07112966 0.050008498 -0.063581735 -0.03578878 0.100992724 0.02942578 -0.056498166
-0.04637018 -0.088830754 0.08135389 0.04221792 -0.0047291256 -0.06362401 0.07902639 -0.06202112
-0.075522535 0.083649635 0.13256057 -0.012984244 -0.07226764 -0.0643689 -0.05751639 0.03710156
-0.07424667 -0.0809225 0.10846167 0.022234619 0.0077931606 -0.0030919432 0.07306859 -0.044299945
0.080588296 0.076296605 0.009356268 0.061873164 -0.026527189 0.008284998 -0.053002864 -0.021667948
0.10958134 -0.090522505 -0.06956704 -0.058722217 -0.05856348 -0.025072843 0.09365548 -0.025238173
-0.022385187 0.06358153 -0.078310676 -0.07337069 -0.015546406 -0.07595098 0.09391438 -0.0450487
0.012517161 0.057467453 0.044083767 -0.039384227 0.07446041 -0.07537912 0.050849497 -0.025968514
-0.019306438 0.058991734 0.043559097 0.011567396 0.07400371 -0.05216163 0.092406906 0.07665148
-0.09089664 0.10208321 0.04495022 -0.087228134 -0.034538724 -0.016012754 -0.014853175 -0.014437385
-0.04473086 -0.0781366 0.00083192065 -0.03466226 0.10104511 0.06034355 0.018821303 0.02028769
0.05176096 -0.07372104 -0.052191854 0.04452214 0.059790313 0.05592093 0.014505293 0.07687619
00000000: d4f7 d8bd 1cc5 cf3c 0d6c 8ebd 780a c6bc
00000010: 3d1f 673c 979d 8bbd dac7 733d 50c5 fd3d
00000020: 775d 443d b915 893b 589f 933c 34e4 bebb
00000030: b1f4 c0ba b085 e53d a40d 6f3d 424c f73d
00000040: fdbc bcbd 2cbb f73d 769e e93c 0891 3a3d
00000050: 2186 0c3d c08e 89bd 4c7f 503d d9c7 823d
00000060: 5323 673d e8fd e23c 01ee 7e3d 199f b83c
00000070: 6240 833d 56a4 92bd 06f7 373d 9d79 71bd
00000080: d1a5 80bd 6dac 913d b6d5 4c3d 2437 82bd
00000090: 4197 12bd 46d5 ce3d 550e f13c 9f6a 67bd
000000a0: a8ee 3dbd e6ec b5bd de9c a63d b3ec 2c3d
000000b0: c8f6 9abb 4e4d 82bd 97d8 a13d dc09 7ebd
000000c0: 8fab 9abd 8050 ab3d f5bd 073e debb 54bc
000000d0: 0e01 94bd d8d3 83bd 4e96 6bbd cef7 173d
000000e0: a30e 98bd b2ba a5bd 2721 de3d 6025 b63c
000000f0: c55d ff3b 33a2 4abb fca4 953d dc73 35bd
00000100: 7a0b a53d 6541 9c3d 084b 193c b76e 7d3d
00000110: 8c4f d9bc cdbd 073c 8819 59bd fb80 b1bc
00000120: 2e6c e03d dd63 b9bd 2a79 8ebd b586 70bd
00000130: 42e0 6fbd 9065 cdbc 72ce bf3d 49c0 cebc
00000140: 2461 b7bc 0837 823d 5961 a0bd 5f43 96bd
00000150: 5ab6 7ebc 308c 9bbd 2f56 c03d fc84 38bd
00000160: c714 4d3c fe62 6b3d 2e91 343d 5b51 21bd
00000170: b37e 983d 5e60 9abd 9047 503d ecbb d4bc
00000180: 8928 9ebc 51a1 713d 066b 323d 2d85 3d3c
00000190: 428f 973d 6fa7 55bd d53f bd3d 73fb 9c3d
000001a0: 0528 babd 0111 d13d b91d 383d aaa4 b2bd
000001b0: 7a78 0dbd 2e2d 83bc bb5a 73bc c88a 6cbc
000001c0: b537 37bd 1506 a0bd 4015 5a3a 04fa 0dbd
000001d0: bdf0 ce3d cc2a 773d 222f 9a3c 5f32 a63c
000001e0: 4d03 543d 0efb 96bd 20c7 55bd d95c 363d
000001f0: b0e6 743d 580d 653d 9ca7 6d3c 4471 9d3d

fc3.weight f4 [3, 128]
-0.0070429826 0.01387576 0.0018629913 -0.02409616 0.046105333 0.07751883 -0.14293069 0.17725423
0.02817298 -0.081958614 -0.0595602 0.038780484 0.127385 0.08839089 0.09590568 -0.0018238282
-0.16629072 0.060165357 -0.030437285 0.040476736 0.08884664 0.06141264 -0.023304245 -0.022656456
0.033773568 -0.040254023 0.013420877 -0.108636975 -0.04440154 0.035804443 -0.09537469 0.054871712
0.059579983 -0.018151643 0.1270422 -0.032298073 -0.19386272 0.14849922 -0.05846505 0.018163713
-0.13947205 0.071777396 0.013367093 -0.17521438 0.15117548 0.027418546 0.17446487 -0.15942091
0.08649597 0.12742539 0.099231355 0.12382322 -0.0674649 -0.07295727 0.024802059 -0.060773097
-0.10670209 -0.040756736 0.13278145 -0.13857925 -0.16102059 -0.22335911 0.051186644 -0.038387988
0.018129567 0.14004825 0.13766724 -0.02347696 -0.12536158 -0.00046884888 0.0019544526 -0.13227376
0.13566294 -0.031811256 -0.096822456 -0.050474312 -0.05293857 -0.023651607 0.09747142 0.0016751353
-0.05005167 0.105397396 -0.11381243 -0.018227018 -0.12686007 -0.22904181 0.12125311 -0.2131449
-0.022296 -0.14384003 0.10493657 -0.018725798 0.006934329 -0.054889433 -0.1718718 -0.076659106
-0.082703106 -0.001199123 0.14182654 0.0836451 -0.05149248 0.015019766 0.17327563 -0.01850883
-0.06889071 -0.006900566 0.021286555 -0.003225248 -0.013363836 0.035998855 0.076795936 -0.043234915
-0.05777667 0.070533626 -0.081535 0.070706144 0.13541818 0.11387313 -0.0320587 -0.10513431
-0.084914625 -0.057337724 0.01617933 -0.0029125814 -0.12895952 0.15398555 0.13004509 0.06658695
0.037697375 -0.054457564 0.053589396 0.043660108 -0.014273868 0.04152388 -0.0025353045 -0.1303465
-0.1241366 0.012987411 0.008280756 -0.053349536 -0.08336003 -0.1466036 -0.19204871 -0.130619
0.0066781812 -0.09342534 0.059866767 0.024766218 0.08114441 -0.029996121 0.027324574 -0.042783882
0.031067116 -0.118002206 0.03098552 0.0667351 -0.09787038 0.04334975 0.0034603393 0.058859956
0.051015846 0.045827653 -0.13286138 0.0655297 0.022361971 -0.12384834 -0.028592588 0.02731689
-0.0057977242 0.085124135 -0.16067778 0.06166519 -0.03993259 0.06998474 -0.08668837 0.065042615
-0.028475337 0.006170248 -0.11345561 -0.038606934 0.054770175 -0.059808407 0.07405121 -0.009343253
-0.049331415 -0.0849035 -0.07320518 -0.09861407 0.0039636777 0.064765744 -0.056635913 -0.057139445
-0.15274449 -0.101611115 -0.06492768 0.058674395 0.0065690456 0.076446295 0.0063278507 0.036289196
-0.061795224 0.025154732 0.091890424 -0.058039226 -0.00092451274 0.005331793 -0.11406396 -0.046156324
0.041634876 0.04337522 -0.113952145 -0.067031644 -0.00081591005 0.012247307 -0.08644978 0.064774826
-0.03810671 0.0027260687 -0.062171094 0.08307434 -0.123277605 -0.01748489 -0.029412659 -0.047698103
0.010399787 0.043671533 -0.12454389 -0.09892445 0.06349406 -0.02281944 -0.09706505 0.088044316
-0.0025779824 -0.14806862 0.031612344 0.052167334 -0.039895363 0.032215334 -0.04016387 -0.035885382
0.041577894 -0.047074478 -0.05830269 -0.047709078 -0.15994279 -0.16165665 0.06710433 -0.12154007
0.06274032 -0.054612644 0.019948808 0.056272306 0.015091927 -0.03571333 -0.14597937 -0.0068333494
00000000: d2c8 e6bb 2857 633c 9d2f f43a 4f65 c5bc
00000010: f2d8 3c3d 31c2 9e3d 6c5c 12be 2282 353e
00000020: 05cb e63c ebd9 a7bd 65f5 73bd 49d8 1e3d
00000030: 3771 023e 4806 b53d 326a c43d 850d efba
00000040: 1d48 2abe f36f 763d 9d57 f9bc efca 253d
00000050: 3af5 b53d d28b 7b3d 8be8 bebc 089a b9bc
00000060: 2756 0a3d 67e1 24bd 3de3 5b3c 107d debd
00000070: 64de 35bd aea7 123d ce53 c3bd 29c1 603d
00000080: 240a 743d c1b2 94bc 5a17 023e fc4a 04bd
00000090: f383 46be 2e10 183e 0c79 6fbd 11cc 943c
000000a0: c3d1 0ebe 0700 933d a701 5b3c 666b 33be
000000b0: bfcd 1a3e dc9c e03c eba6 323e 3c3f 23be
000000c0: cd24 b13d cd7b 023e cf39 cb3d 0797 fd3d
000000d0: 0a2b 8abd 9f6a 95bd b02d cb3c 36ed 78bd
000000e0: a086 dabd 89f0 26bd dcf7 073e b8e7 0dbe
000000f0: 95e2 24be 40b8 64be 16a9 513d b93c 1dbd
00000100: 7584 943c cf68 0f3e a4f8 0c3e c152 c0bc
00000110: c95e 00be d5cf f5b9 4616 003b c672 07be
00000120: 3aeb 0a3e 854c 02bd da4a c6bd 27be 4ebd
00000130: 1dd6 58bd 04c1 c1bc 199f c73d 3790 db3a
00000140: fb02 4dbd 97da d73d 7e16 e9bd d450 95bc
00000150: 9be7 01be f089 6abe 8d53 f83d a842 5abe
00000160: 1aa6 b6bc cd4a 13be fce8 d63d d866 99bc
00000170: 5e39 e33b bed3 60bd 29ff 2fbe 73ff 9cbd
00000180: 3f60 a9bd e42b 9dba fa3a 113e 1f4e ab3d
00000190: c7e9 52bd 7715 763c 2b6f 313e d49f 97bc
000001a0: 9316 8dbd 251e e2bb 2461 ae3c af5e 53bb
000001b0: fef3 5abc 8973 133d 3047 9d3d 1817 31bd
000001c0: 3ba7 6cbd ef73 903d d2fb a6bd 62ce 903d
000001d0: 10ab 0a3e 5136 e93d fc4f 03bd a850 d7bd
000001e0: b8e7 adbd f6da 6abd 848a 843c 02e1 3ebb
000001f0: f70d 04be 63ae 1d3e 8a2a 053e bd5e 883d
00000200: 9068 1a3d e50e 5fbd 8e80 5b3d f1d4 323d
00000210: f1dc 69bc f214 2a3d 5a27 26bb 8e79 05be
00000220: 543b febd 26c9 543c 02ac 073c 0b85 5abd
00000230: aab8 aabd 411f 16be 6ba8 44be fdc0 05be
00000240: a5d4 da3b c955 bfbd db36 753d 86e2 ca3c
00000250: 0a2f a63d 6dba f5bc c9d7 df3c 273e 2fbd
00000260: 7780 fe3c 24ab f1bd 58d5 fd3c 69ac 883d
00000270: 4470 c8bd 828f 313d dcc6 623b 2317 713d
00000280: fef5 503d c7b5 3b3d d00c 08be 6f34 863d
00000290: 7430 b73c 33a4 fdbd 013b eabc acc7 df3c
000002a0: d6fa bdbb 9055 ae3d b788 24be a394 7c3d
000002b0: 5b90 23bd 2954 8f3d ac89 b1bd 1035 853d
000002c0: 1c45 e9bc cb2f ca3b 6a5b e8bd 4e22 1ebd
000002d0: b156 603d a9f9 74bd 29a8 973d 7214 19bc
000002e0: bd0f 4abd e3e1 adbd 99ec 95bd 2cf6 c9bd
000002f0: bde1 813b e7a3 843d 0ffb 67bd 0d0b 6abd
00000300: 0d69 1cbe 7d19 d0bd cef8 84bd 9054 703d
00000310: 2641 d73b e08f 9c3d dc59 cf3b fba3 143d
00000320: fd1c 7dbd 4c11 ce3c 0c31 bc3d 8aba 6dbd
00000330: 005b 72ba 52b6 ae3b 5e9a e9bd 6a0e 3dbd
00000340: 5589 2a3d 37aa 313d be5f e9bd e347 89bd
00000350: cce2 55ba eea8 483c 950c b1bd aaa8 843d
00000360: c815 1cbd d8a7 323b 1ea7 7ebd e122 aa3d
00000370: f878 fcbd 793c 8fbc d1f2 f0bc 165f 43bd
00000380: de63 2a3c ece0 323d de10 ffbd e798 cabd
00000390: 2c09 823d d6ef babc 0aca c6bd 9450 b43d
000003a0: 5ef3 28bb 4d9f 17be f27b 013d 6aad 553d
000003b0: 5269 23bd 3af4 033d df82 24bd 8dfc 12bd
000003c0: 954d 2a3d 2bd1 40bd cdce 6ebd 986a 43bd
000003d0: 0bc8 23be 5289 25be ff6d 893d 00ea f8bd
000003e0: ff7d 803d 82b1 5fbd af6b a33c ca7d 663d
000003f0: 2144 773c 2448 12bd 9e7b 15be 4aea dfbb

fc3.bias f4 [3]
-0.028400445 -0.086047575 -0.017989928
00000000: 0da8 e8bc b639 b0bd 9d5f 93bc
