scripts/models/pg/reinforce_run_5.pth (torch, 76888 bytes, 6 tensors)

fc1.weight f4 [128, 12]
-0.09595009 0.19424582 -0.091158114 -0.046877675 -0.08662871 0.27025455 0.094440304 0.28627798
0.14466506 0.12361073 0.26455507 -0.116568 -0.17493014 0.013214629 -0.052490532 -0.28334317
-0.1296238 -0.11441946 0.07705929 -0.07863063 0.028519722 0.07166953 0.17256542 0.22381327
-0.051923804 0.13687839 0.077915125 -0.24974519 0.01494247 -0.2947977 -0.0044084857 0.12745166
0.12921277 0.11885699 -0.10779613 -0.26111904 0.19440937 0.28347662 -0.022583602 0.2842982
0.17979434 -0.15203021 -0.11038747 -0.30576438 0.010379258 0.26141503 0.15060964 -0.11370983
-0.17219785 -0.08421339 -0.020193875 0.26349935 0.027492762 -0.24579215 0.04319707 0.15074673
-0.0732635 -0.15260352 0.012943875 -0.2567208 0.16388951 0.33976054 -0.011635576 0.06651428
0.29844505 -0.14403039 0.32267448 -0.027534038 0.0409151 -0.19860415 -0.19707146 -0.16322772
-0.21195729 0.20767178 0.09448009 -0.07567629 0.24811742 0.12831642 0.16874295 -0.23864567
-0.22558407 0.29402962 -0.19204347 -0.22544836 -0.121590756 0.059917446 0.24678719 0.041499294
0.18121383 0.061585523 0.26395088 0.28194776 -0.20495172 -0.26754057 -0.046751834 -0.20574994
0.11364833 -0.04860659 -0.042932782 0.17213933 0.028002601 -0.3489409 0.121976055 -0.30198336
0.29753223 0.32764304 0.0287775 0.077856876 0.08418468 -0.14507473 -0.14718212 -0.11102185
0.31405738 -0.19730383 -0.19812223 0.071276255 -0.20032747 -0.057324592 -0.14500527 0.016256636
0.21879725 -0.2023901 -0.11313614 0.21753283 -0.15106949 0.04854771 0.093248665 -0.26778245
0.21545056 0.10503409 0.12052924 -0.06456584 0.3128642 -0.26282087 0.09095709 0.27090102
0.00863789 -0.31480718 -0.039286166 0.03937551 -0.17101564 0.29920423 -0.24344611 -0.118644744
-0.31008127 0.25708765 0.057859246 -0.20180276 0.2711579 0.18346529 -0.105000325 0.38464367
0.11425014 -0.10695247 -0.20481193 0.11792025 -0.003115822 -0.02940337 -0.084246315 -0.014346333
0.018555427 0.42099363 0.011689099 0.42626935 -0.057572003 -0.03362924 -0.04754494 -0.12590463
0.13655931 -0.088316694 0.008177685 -0.10316588 0.07050538 -0.28911427 0.1177348 -0.2183784
0.24090037 0.3224937 0.2081726 0.22362879 -0.09576056 -0.028342824 0.23596856 0.04816021
-0.0641204 -0.21032712 -0.25143757 0.19613017 -0.20221552 -0.23882723 0.0069621867 0.24503654
0.13421975 -0.12504236 0.25640318 0.2676818 0.16356552 -0.066764385 -0.20144795 -0.123833485
-0.09361154 -0.23156208 0.19439654 -0.13818029 0.16731411 0.1907342 0.28484556 0.23220699
0.16777995 -0.1732527 0.03712785 0.11976251 -0.002682222 -0.25024533 0.10533031 0.106802344
-0.24990225 -0.15404887 0.12574413 0.22850482 0.10983118 0.36335066 0.14191096 0.3644419
-0.0031394428 -0.1473577 -0.21674354 0.20486318 -0.18834609 -0.22353898 -0.23536153 -0.1553816
0.039360438 0.3096096 0.23678553 0.45581707 -0.12529142 0.053736813 -0.069622606 0.008759582
0.07983866 -0.0449258 0.30180734 0.033008084 -0.25506163 -0.08894689 0.1937403 -0.19939895
0.2943657 -0.18528634 -0.04528971 0.23275092 0.0156174265 0.16857892 0.08462564 0.08838464
00000000: 7b81 c4bd 60e8 463e 1bb1 babd ce02 40bd
00000010: 656a b1bd ce5e 8a3e eb69 c13d 0793 923e
00000020: 1423 143e 9f27 fd3d c373 873e 34bb eebd
00000030: e320 33be 2c82 583c 5000 57bd 5b12 91be
00000040: 1abc 04be c054 eabd 43d1 9d3d 1909 a1bd
00000050: 31a2 e93c 79c7 923d fdb4 303e 4e2f 653e
00000060: 0eae 54bd d929 0c3e f791 9f3d 34bd 7fbe
00000070: 43d1 743c b9ef 96be 0f75 90bb b082 023e
00000080: 5a50 043e 4b6b f33d 38c4 dcbd 65b1 85be
00000090: 4013 473e d923 913e 3f01 b9bc 898f 913e
000000a0: 021c 383e cfad 1bbe d312 e2bd 268d 9cbe
000000b0: c30d 2a3c 31d8 853e 6a39 1a3e b3e0 e8bd
000000c0: a254 30be 1278 acbd a06d a5bc 63e9 863e
000000d0: 8038 e13c f0b0 7bbe 69ef 303d 5a5d 1a3e
000000e0: 2d0b 96bd 1944 1cbe 8c12 543c e970 83be
000000f0: a7d2 273e 18f5 ad3e 25a3 3ebc a438 883d
00000100: cacd 983e b47c 13be 9735 a53e 108f e1bc
00000110: 9896 273d e35e 4bbe 1acd 49be 2b25 27be
00000120: 550b 59be e9a7 543e c77e c13d 2cfc 9abd
00000130: 7e12 7e3e 6165 033e f4ca 2c3e 885f 74be
00000140: 83ff 66be 0d8b 963e 0ba7 44be efdb 66be
00000150: 9304 f9bd ff6b 753d c8b5 7c3e 2afb 293d
00000160: 1e90 393e 1a41 7c3d 9224 873e 755b 903e
00000170: ddde 51be 14fb 88be da7e 3fbd 1db0 52be
00000180: 75c0 e83d b417 47bd 49da 2fbd 4b45 303e
00000190: b665 e53c 62a8 b2be 95ce f93d 909d 9abe
000001a0: 2556 983e d4c0 a73e cbbe eb3c 6d73 9f3d
000001b0: 0469 ac3d 788e 14be e9b6 16be 6c5f e3bd
000001c0: 21cc a03e 040a 4abe 8ee0 4abe 49f9 913d
000001d0: a522 4dbe 31cd 6abd 437c 14be a32c 853c
000001e0: 630c 603e 5a3f 4fbe ecb3 e7bd edc0 5e3e
000001f0: f6b1 1abe f7d9 463d 28f9 be3d c81a 89be
00000200: 129f 5c3e 1d1c d73d 09d8 f63d 183b 84bd
00000210: bd2f a03e 7590 86be b647 ba3d 8ab3 8a3e
00000220: f085 0d3c 682e a1be 88ea 20bd 3748 213d
00000230: b91e 2fbe 4c31 993e f049 79be 04fc f2bd
00000240: f9c2 9ebe fea0 833e d1fd 6c3d 62a5 4ebe
00000250: 35d5 8a3e 53de 3b3e 690a d7bd 04f0 c43e
00000260: fafb e93d e609 dbbd 38ba 51be 2c80 f13d
00000270: d232 4cbb 56df f0bc 5589 acbd e20c 6bbc
00000280: 8d01 983c 7a8c d73e a283 3f3c fa3f da3e
00000290: 9fd0 6bbd d0be 09bd 7cbe 42bd 25ed 00be
000002a0: 34d6 0b3e 62df b4bd b2fb 053c a248 d3bd
000002b0: 2065 903d c906 94be f11e f13d 969e 5fbe
000002c0: 96ae 763e e51d a53e 332b 553e f2fe 643e
000002d0: 1d1e c4bd 362f e8bc bea1 713e a443 453d
000002e0: 8e51 83bd fe5f 57be 6dbc 80be 59d6 483e
000002f0: 9611 4fbe 208f 74be 0e23 e43b dcea 7a3e
00000300: e770 093e 1b0b 00be 4747 833e 970d 893e
00000310: b87d 273e c4bb 88bd 5f48 4ebe 699c fdbd
00000320: 68b7 bfbd 9c1e 6dbe e30f 473e 227f 0dbe
00000330: 6454 2b3e d34f 433e 47d7 913e abc7 6d3e
00000340: 82ce 2b3e 2869 31be 5f13 183d 0c46 f53d
00000350: 38c8 2fbb 2820 80be 6bb7 d73d 30bb da3d
00000360: 60e6 7fbe fdbe 1dbe 12c3 003e 2bfd 693e
00000370: 2bef e03d 1909 ba3e 1b51 113e 2198 ba3e
00000380: 1cbf 4dbb f0e4 16be 05f2 5dbe a7c7 513e
00000390: ccdd 40be 67e7 64be 9d02 71be 5b1c 1fbe
000003a0: 6938 213d 2685 9e3e e877 723e db60 e93e
000003b0: 654c 00be 221b 5c3d 4c96 8ebd 5a84 0f3c
000003c0: 7482 a33d 1e04 38bd 7e86 9a3e 7c33 073d
000003d0: 7097 82be c929 b6bd db63 463e 3d2f 4cbe
000003e0: 1ab7 963e b4bb 3dbe b481 39bd 4256 6e3e
000003f0: 3ce0 7f3c f49f 2c3e 3550 ad3d 0203 b53d

fc1.bias f4 [128]
0.013179605 -0.23507047 0.2856461 0.052256897 -0.30203593 -0.017885959 -0.031173337 0.2016197
0.27199283 0.09320999 -0.14332743 -0.07034126 -0.08694008 -0.002297742 0.12817031 0.1946795
-0.05725053 0.21719466 -0.11308529 0.030687537 0.22330916 0.13809142 -0.1500513 0.34412855
0.062418055 0.21185865 0.11499061 -0.15148585 -0.22571675 -0.19594836 0.00039238733 0.23704235
0.12735732 0.029420905 0.22971286 -0.25954223 -0.20599055 -0.11670337 -0.10803029 0.29593372
-0.18724634 0.18034521 -0.26624247 0.15287158 -0.042190373 0.019701332 0.1792328 -0.3008239
-0.15328354 0.09771517 -0.07935169 0.2600951 -0.09689761 -0.0251326 -0.26914674 -0.08611323
0.34566036 0.23939304 -0.16047186 0.14325334 0.06573269 -0.13812031 -0.043086804 -0.08891375
0.17342955 0.005139849 0.26373512 0.24620831 0.25038436 0.25568044 -0.18706477 -0.2794789
-0.09185826 0.27435264 0.15179962 0.031962622 -0.055300917 0.059217453 0.2706884 -0.12611456
-0.13226554 -0.16020031 0.052529432 0.23880067 0.11836221 0.21173039 0.11162292 0.21307796
0.17552865 -0.21034473 0.028615512 0.030311845 -0.15278871 0.23573482 -0.028855307 0.19161968
0.17039111 0.06307009 -0.26006466 0.35272163 -0.11448247 -0.1948136 0.3473796 0.06580933
-0.20439258 -0.010350361 -0.15280233 -0.2949983 -0.08610289 -0.099758126 -0.17984577 -0.22918944
-0.22423853 0.269639 -0.20830669 -0.12630326 0.091007195 0.10074625 0.3002855 -0.09573969
0.1440309 0.3386945 -0.096584 -0.23406415 0.2949639 -0.027830863 0.23011312 -0.27464792
00000000: 45ef 573c 50b6 70be 3540 923e 540b 563d
00000010: 74a4 9abe 9385 92bc 3a5f ffbc 6575 4e3e
00000020: a542 8b3e e1e4 be3d 6dc4 12be 140f 90bd
00000030: a40d b2bd b795 16bb 143f 033e 105a 473e
00000040: 887f 6abd 4768 5e3e 4399 e7bd 6e64 fb3c
00000050: 28ab 643e d667 0d3e 0ca7 19be 9e31 b03e
00000060: 13aa 7f3d 79f1 583e 3280 eb3d 1b1f 1bbe
00000070: 4b22 67be b0a6 48be 56b9 cd39 3bbb 723e
00000080: f569 023e 1c04 f13c d939 6b3e b8e2 84be
00000090: 30ef 52be 2d02 efbd fc3e ddbd a084 973e
000000a0: 81bd 3fbe 6aac 383e ef50 88be 5e8a 1c3e
000000b0: d0cf 2cbd b064 a13c ce88 373e 9705 9abe
000000c0: 5cf6 1cbe e41e c83d 2483 a2bd 2f2b 853e
000000d0: 4172 c6bd e2e2 cdbc 9acd 89be 225c b0bd
000000e0: 65fa b03e 7323 753e bc52 24be 01b1 123e
000000f0: dc9e 863d 696f 0dbe ca7b 30bd 6a18 b6bd
00000100: 8497 313e 2e6c a83b 4a08 873e 081e 7c3e
00000110: 6132 803e 8ce8 823e e88d 3fbe dc17 8fbe
00000120: 2f20 bcbd f377 8c3e 5c71 1b3e 3deb 023d
00000130: 3783 62bd 008e 723d ac97 8a3e 2d24 01be
00000140: 9e70 07be 8d0b 24be 1a29 573d 2a88 743e
00000150: e367 f23d dacf 583e 8f9a e43d 1c31 5a3e
00000160: c8bd 333e 9c64 57be 146b ea3c 8c50 f83c
00000170: a574 1cbe 7864 713e f761 ecbc f337 443e
00000180: 027b 2e3e e42a 813d 3227 85be ee97 b43e
00000190: c975 eabd 377d 47be bddb b13e 0bc7 863d
000001a0: 4a4c 51be 8f94 29bc 3778 1cbe 040a 97be
000001b0: b656 b0bd fd4d ccbd 7d29 38be a3b0 6abe
000001c0: c99e 65be 1f0e 8a3e 594e 55be a455 01be
000001d0: fb61 ba3d 0d54 ce3d 05bf 993e 2c13 c4bd
000001e0: d67c 133e 5e69 ad3e d5cd c5bd 83ae 6fbe
000001f0: 8205 973e 8dfd e3bc c6a2 6b3e a79e 8cbe

fc2.weight f4 [128, 128]
-0.0755213 -0.026793808 0.046911582 0.016601017 -0.01072174 -0.109595194 -0.0744419 -0.019552728
-0.04347393 -0.05020393 0.07740105 0.041985445 0.056994565 0.05055552 -0.08565308 0.026622007
-0.06161183 -0.014838901 0.10418106 0.079243325 0.008824383 0.016246479 0.066292316 -0.055986505
-0.027943054 -0.10561261 0.014769524 -0.028631618 0.10524365 0.054512482 0.061752018 0.009659555
0.08908936 -0.0020124943 -0.04443606 -0.002588381 -0.05108172 0.035476595 -0.05273253 0.035287954
-0.04212584 -0.10246124 -0.027803801 -0.088809855 0.020314835 0.018347722 0.021446528 -0.028572276
0.040895544 -0.059400745 -0.0019486842 0.05702619 -0.0098161455 0.05733686 0.070878595 0.014238207
0.012107375 -0.115943 0.056346364 0.0496808 -0.07221632 -0.033663638 -0.019528134 0.004188557
0.008061182 0.002183868 0.05041483 0.069183186 -0.03640004 0.045194123 0.08987495 -0.034664277
-0.020140411 0.06132251 -0.0898705 0.0073134475 0.050941538 -0.041930877 -0.009954274 -0.067706354
0.07673124 -0.042432897 0.034170523 0.025674483 -0.070205905 -0.08754999 0.055726647 0.030788025
0.03562825 0.0059218965 -0.035650462 0.04495958 -0.022458253 -0.09366881 0.009913862 -0.08961106
-0.09189652 -0.056126766 0.04917531 -0.089148164 0.021896694 0.14299484 -0.025889954 0.052562784
0.049370512 -0.09836209 0.05728267 0.021584544 -0.05646843 0.0077301865 0.10997261 -0.016497118
0.0232972 -0.0026369484 -0.009085833 0.053781174 0.02710302 -0.009239089 -0.0013705445 -0.008775417
0.00907361 -0.08100999 0.08142462 -0.06156751 -0.04701686 0.018319843 0.042699914 -0.035793737
-0.021752043 0.0022825617 0.034391146 0.018157383 -0.040705524 0.089986764 0.08849556 0.009713924
0.04316904 0.056094874 0.09835349 -0.05939467 0.050469857 0.012514467 0.11746348 0.048341785
0.108649656 -0.047379494 0.0012836587 -0.08108235 0.12581706 -0.04249174 -0.07862128 0.070943885
0.16781817 -0.03192419 -0.005974085 0.10722437 -0.09449177 -0.13135606 -0.010368212 0.0072943904
-0.03511668 -0.025417827 0.082802884 0.03791808 0.011779099 -0.0019865355 0.006136104 -0.052810103
0.013733407 -0.00057267776 -0.064968795 -0.0445625 -0.03097001 0.059773054 0.06970407 0.08858578
-0.04293799 0.117849745 -0.04952158 0.08671661 0.024229871 -0.07579998 -0.07720165 -0.012486321
0.015699465 0.07571926 0.0072424216 0.06284275 -0.07681695 -0.03896744 -0.07098857 -0.11093867
-0.021029625 0.040904373 0.09294328 0.024399964 0.07342836 0.11328798 0.03416007 -0.037620544
0.004949994 -0.09486532 -0.030723179 -0.093521886 -0.0105391545 -0.005117579 -0.03344967 0.08337435
-0.089587234 0.1176161 0.015780022 0.023124272 -0.03152418 0.05181584 0.05443816 0.021672701
0.042998515 -0.030826837 0.0021568756 0.053564172 -0.0058831326 0.037129052 0.055069473 0.11040899
0.05987889 -0.03214055 -0.06384727 0.11890377 0.021255737 0.025646444 0.15883821 0.07299899
-0.04336616 0.028926264 -0.03978245 -0.006170337 0.024251305 -0.009194298 -0.13511075 0.0066913287
-0.025399504 0.027022487 0.027872365 0.010431647 -0.08266016 -0.029111594 0.04181576 0.017458402
-0.0039406717 -0.013936073 -0.065056264 -0.051422957 0.0300034 -0.03112246 0.01643823 -0.05595605
00000000: e9aa 9abd b07e dbbc 5c26 403d dbfe 873c
00000010: 3daa 2fbc 7273 e0bd ff74 98bd 0b2d a0bc
00000020: b811 32bd a3a2 4dbd 7184 9e3d eef8 2b3d
00000030: 2273 693d 4e13 4f3d e26a afbd 6516 da3c
00000040: b05c 7cbd dd1e 73bc e15c d53d 534a a23d
00000050: 2594 103c 5617 853c 44c4 873d 1b52 65bd
00000060: d5e8 e4bc 6d4b d8bd e0fb 713c db8c eabc
00000070: fc89 d73d 7b48 5f3d afef 7c3d 1c43 1e3c
00000080: 7b74 b63d 0de4 03bb 9602 36bd d4a1 29bb
00000090: 113b 51bd e84f 113d 11fe 57bd 1a8a 103d
000000a0: 258c 2cbd 33d7 d1bd ccc4 e3bc f1e1 b5bd
000000b0: 4c6b a63c f64d 963c a1b0 af3c 6810 eabc
000000c0: 1682 273d 324e 73bd fe6a ffba 4b94 693d
000000d0: e6d3 20bc 0eda 6a3d cc28 913d 5e47 693c
000000e0: 035e 463c 8673 edbd 72cb 663d 187e 4b3d
000000f0: 26e6 93bd e2e2 09bd 77f9 9fbc 2a40 893b
00000100: 0c13 043c 3a1f 0f3b c87f 4e3d eaaf 8d3d
00000110: 3518 15bd 791d 393d 5c10 b83d 21fc 0dbd
00000120: 81fd a4bc 502d 7b3d 060e b8bd a5a5 ef3b
00000130: 13a8 503d b6bf 2bbd 4017 23bc a1a9 8abd
00000140: 4525 9d3d 1ece 2dbd 64f6 0b3d 4b53 d23c
00000150: 1dc8 8fbd 694d b3bd a041 643d 2b37 fc3c
00000160: eeee 113d 780c c23b 3806 12bd 8927 383d
00000170: 5ffa b7bc 6fd5 bfbd c06d 223c 0186 b7bd
00000180: 3e34 bcbd 2ee5 65bd 0d6c 493d 5093 b6bd
00000190: b260 b33c 3d6d 123e 2b17 d4bc 134c 573d
000001a0: bc38 4a3d 1072 c9bd 3ca1 6a3d 12d2 b03c
000001b0: 714b 67bd 814d fd3b 5239 e13d f724 87bc
000001c0: c5d9 be3c a7d0 2cbb bfdc 14bc a649 5c3d
000001d0: 2707 de3c 8c5f 17bc d8a3 b3ba c4c6 0fbc
000001e0: 7ba9 143c 91e8 a5bd f3c1 a63d 372e 7cbd
000001f0: c094 40bd 7f13 963c 1be6 2e3d 749c 12bd
00000200: 5731 b2bc 0897 153b bbdd 0c3d cbbe 943c
00000210: d6ba 26bd fb4a b83d 293d b53d 2627 1f3c
00000220: 05d2 303d bdc3 653d 8e6d c93d d347 73bd
00000230: 7bb9 4e3d 7b09 4d3c b190 f03d 0902 463d
00000240: b683 de3d 0011 42bd 7040 a83a 810e a6bd
00000250: 30d6 003e d20b 2ebd 3204 a1bd 074b 913d
00000260: 87d8 2b3e f1c2 02bd 42c2 c3bb 7398 db3d
00000270: e784 c1bd 3482 06be 6fdf 29bc c805 ef3b
00000280: 82d6 0fbd 0c39 d0bc 8f94 a93d fd4f 1b3d
00000290: 1ffd 403c 8930 02bb 5f11 c93b 684f 58bd
000002a0: 1502 613c c11f 16ba 5c0e 85bd 2b87 36bd
000002b0: d2b4 fdbc 97d4 743d 02c1 8e3d 766c b53d
000002c0: bfdf 2fbd 355b f13d 24d7 4abd 7a98 b13d
000002d0: b97d c63c 053d 9bbd e61b 9ebd 6d93 4cbc
000002e0: 2a9c 803c b312 9b3d d651 ed3b b3b3 803d
000002f0: 3552 9dbd 539c 1fbd 7562 91bd d033 e3bd
00000300: 5246 acbc 588b 273d 0c59 be3d 6fe2 c73c
00000310: 9c61 963d 8703 e83d 6eeb 0b3d 0018 1abd
00000320: 8f33 a23b c048 c2bd 2daf fbbc 6788 bfbd
00000330: 6bac 2cbc 5db1 a7bb 8502 09bd 2cc0 aa3d
00000340: 8379 b7bd b6e0 f03d 1b45 813c 1d6f bd3c
00000350: 801f 01bd d93c 543d 8cfa 5e3d f38a b13c
00000360: 361f 303d 9088 fcbc 5e5a 0d3b 1b66 5b3d
00000370: 4bc7 c0bb a214 183d 8790 613d 1c1e e23d
00000380: 9143 753d cfa5 03bd 5cc2 82bd d283 f33d
00000390: 8320 ae3c 7e18 d23c 7ca6 223e 7f80 953d
000003a0: b7a0 31bd c6f6 ec3c ecf2 22bd 8a30 cabb
000003b0: acaa c63c aea3 16bc 795a 0abe ef42 db3b
000003c0: 9f12 d0bc 435e dd3c 9654 e43c 80e9 2a3c
000003d0: bb49 a9bd 707b eebc 0147 2b3d ec04 8f3c
000003e0: c020 81bb 2054 64bc 383c 85bd e1a0 52bd
000003f0: b1c9 f53c 87f4 febc 78a9 863c 2c32 65bd

fc2.bias f4 [128]
0.011041993 0.029512394 -0.03171676 -0.054550987 -0.013887279 0.050716214 -0.04657661 0.017593635
-0.07636187 0.024116471 0.09264197 -0.031681813 -0.049289104 -0.102831006 0.014023901 0.012555044
-0.061890967 0.045656737 0.011425935 0.079466544 0.027263908 -0.060780354 -0.06800381 0.07252663
-0.033078685 0.15496908 -0.0018199475 0.028396677 0.06651708 -0.09603245 -0.019196665 0.014676827
0.12645905 -0.084843375 0.001814852 -0.041985784 0.0008699926 0.10162261 -0.08149856 0.06794464
-0.05018713 -0.090971254 0.120814964 -0.025490288 -0.07266616 0.03077046 0.11652046 -0.09022987
0.03806819 -0.09821874 0.038012154 0.051446777 0.122677766 -0.10427691 0.03076796 -0.012140291
0.1644068 0.13442887 0.03975261 -0.05684475 0.1314199 0.04365287 -0.04733256 0.0024287328
0.023234073 -0.031989206 0.036701538 0.12959352 -0.021001475 0.097337 -0.04672915 0.0151063865
0.029283803 -0.077356145 -0.07686651 -0.03209432 0.051409222 0.0046251584 -0.0942246 0.09797469
0.0011378706 -0.08789999 0.033264782 0.022583092 0.07473764 -0.02239973 -0.017407842 0.1581121
0.017522551 -0.09347706 0.04063045 0.04044826 0.035357386 -0.093534864 0.05537734 0.06239985
-0.03603632 -0.11486441 0.014387414 -0.06742221 0.021234324 0.18115295 0.15086004 -0.09190624
0.04414489 0.11721702 0.061881404 0.069112964 0.018975062 0.033642042 0.07728036 0.11630432
0.04594126 -0.043932527 -0.1007801 0.002985439 -0.06273669 0.037206177 -0.008043016 0.028964603
-0.060374346 0.008465132 -0.077703856 0.122908466 0.08018032 0.045340978 0.03749707 0.06518364
00000000: 7ae9 343c fac3 f13c 6fe9 01bd db70 5fbd
00000010: 7887 63bc cebb 4f3d 1ec7 3ebd 8720 903c
00000020: 9d63 9cbd e88f c53c 13bb bd3d cac4 01bd
00000030: 5fe3 49bd 1099 d2bd 81c4 653c acb3 4d3c
00000040: 6281 7dbd 8f02 3b3d d833 3b3c 5bbf a23d
00000050: 8f58 df3c d2f4 78bd 9545 8bbd d788 943d
00000060: 847d 07bd 37b0 1e3e 4e8b eeba 26a0 e83c
00000070: 1b3a 883d a9ac c4bd 5342 9dbc 1377 703c
00000080: 7b7e 013e 5dc2 adbd 54e0 ed3a 49f9 2bbd
00000090: 3710 643a 841f d03d b8e8 a6bd 8f26 8b3d
000000a0: 0591 4dbd 234f babd d66d f73d 02d1 d0bc
000000b0: ffd1 94bd 5512 fc3c 47a2 ee3d 70ca b8bd
000000c0: 64ed 1b3d e826 c9bd a2b2 1b3d dbb9 523d
000000d0: 7b3e fb3d 228f d5bd 170d fc3c 12e8 46bc
000000e0: 425a 283e b9a7 093e a2d3 223d 0ad6 68bd
000000f0: f092 063e 5acd 323d c9df 41bd 602b 1f3b
00000100: 6255 be3c 1d07 03bd 5a54 163d 2ab4 043e
00000110: 490b acbc 9f58 c73d 1167 3fbd c780 773c
00000120: 96e4 ef3c e66c 9ebd 306c 9dbd 5575 03bd
00000130: 7a92 523d a48e 973b d4f8 c0bd f4a6 c83d
00000140: 9a24 953a e904 b4bd a740 083d 2d00 b93c
00000150: 0c10 993d a37f b7bc e49a 8ebc 23e8 213e
00000160: 748b 8f3c e770 bfbd 1d6c 263d 13ad 253d
00000170: e8d2 103d 358f bfbd 5ad3 623d fc96 7f3d
00000180: d29a 13bd 083e ebbd 30b9 6b3c a814 8abd
00000190: 9bf3 ad3c 2980 393e 0e7b 1a3e 5739 bcbd
000001a0: 46d1 343d 7a0f f03d 5b77 7d3d 198b 8d3d
000001b0: 9771 9b3c 3dcc 093d 2a45 9e3d f630 ee3d
000001c0: e72c 3c3d 98f2 33bd cc65 cebd 5ba7 433b
000001d0: 187c 80bd 8165 183d dbc6 03bc 2d47 ed3c
000001e0: 174b 77bd 56b1 0a3c 3323 9fbd 6fb7 fb3d
000001f0: 9435 a43d 76b7 393d 8796 193d 007f 853d

fc3.weight f4 [3, 128]
-0.0031235674 0.10211028 -0.04838184 -0.014004644 -0.030683644 0.03588123 -0.26020473 -0.0051939166
-0.010856807 -0.15010774 0.08578806 -0.0070929374 -0.027078263 -0.062420517 0.06038453 0.1877044
0.003845838 -0.058077265 -0.039812732 0.054826237 -0.16376421 -0.12941961 -0.0022298768 0.0019485088
-0.024101436 0.15524578 0.05373259 -0.131343 -0.043320253 0.048177686 0.022832144 0.15416893
0.09663086 0.071337424 0.0015382644 0.046994478 0.06587211 0.11555253 0.06240716 -0.061244544
-0.13688976 -0.087879054 0.054858763 -0.10131724 -0.018701466 0.07467207 0.051273234 -0.073200576
0.021854768 -0.13344198 -0.02532686 0.048451487 0.10222416 -0.13973069 0.03983946 -0.019964062
0.16120051 0.040380817 0.097394854 -0.045262367 0.20121492 0.012569085 0.035799358 0.08480113
-0.0143371 -0.02751536 0.05304191 0.1068582 -0.013250038 0.16961846 0.025416521 -0.1509966
-0.19615673 -0.053934917 -0.112171836 0.008124877 -0.033124853 -0.19806114 -0.27616683 0.18037608
-0.04608189 -0.25763965 -0.18993343 0.0024911398 0.14999714 0.08150028 0.0073293997 0.11816408
-0.023117568 -0.21086203 -0.01644899 -0.02502284 -0.060587738 -0.2679836 -0.062061366 -0.0446457
-0.28058198 -0.1883902 -0.006553465 0.074986674 0.097812474 0.2075285 0.17154472 -0.09752033
0.029221823 0.08672566 -0.07437763 0.05486573 -0.036897887 0.13575913 0.11072989 0.17291431
-0.3154757 -0.16316381 -0.10752661 0.06307884 -0.22794348 -0.16565341 0.022696426 -0.17339586
-0.053121455 -0.17614682 -0.082397476 0.17805624 -0.06621785 -0.07665143 0.0040935404 -0.059815403
0.064067766 0.04178286 0.05785038 -0.04080671 -0.031327326 0.07454052 0.050762534 -0.117981896
-0.062972754 -0.06680047 0.0404768 -0.028042616 0.02162224 -0.008373695 -0.12190043 -0.1257367
-0.116071984 0.026591249 -0.015798189 -0.1690501 -0.021254007 -0.084251374 -0.01698701 -0.0007566646
-0.12272558 -0.016516514 -0.024356848 0.009683695 0.034757823 -0.069929264 -0.111164115 -0.04172755
-0.15782018 0.07297026 0.07865812 0.08395765 -0.12557955 -0.15622711 -0.071136326 0.030586973
0.039747495 -0.123187535 -0.05676196 -0.028316626 0.006063138 0.0504664 -0.089299284 -0.0038088593
-0.14431293 0.012493638 -0.0017903702 -0.020292604 -0.124563776 -0.020410396 -0.13125466 0.07815784
-0.1611336 -0.13788506 -0.06999617 0.029647222 -0.1144818 -0.0012042597 -0.12856549 0.043391906
0.04153899 0.030075945 0.055307545 -0.1273479 -0.07550589 0.00014459252 0.027952245 -0.03282192
-0.07164107 0.010594936 0.02430755 -0.030677618 0.035518423 0.061658695 0.047373958 -0.06376005
-0.07400313 0.050097354 0.021740148 0.08002704 -0.114291266 -0.039968356 -0.015141406 -0.16417092
-0.07372626 -0.07204561 -0.0008281361 -0.12514718 -0.08390744 0.022423165 -0.025121063 0.05908041
0.09305167 0.06822387 -0.007708122 -0.019491417 -0.10165961 -0.025467103 -0.05977549 -0.08548267
0.07221359 -0.13833949 -0.031788096 -0.063047044 -0.019184517 -0.14665174 -0.10382166 -0.13637653
0.067017704 0.053422708 0.038381647 -0.043566566 0.05520148 -0.036637302 0.081158265 0.0358441
-0.042576514 -0.049723703 0.025016539 -0.14013286 -0.1422531 -0.01829668 0.044444624 -0.0086156335
00000000: c4b4 4cbb 321f d13d 092c 46bd bc73 65bc
00000010: 445c fbbc 32f8 123d 8e39 85be bb31 aabb
00000020: c0e0 31bc d8b5 19be a7b1 af3d df6b e8bb
00000030: 3cd3 ddbc a8ac 7fbd c555 773d 9535 403e
00000040: 740a 7c3b 6de2 6dbd ad12 23bd 7a91 603d
00000050: ceb1 27be 9386 04be 2023 12bb 1b65 ff3a
00000060: 6070 c5bc c0f8 1e3e b416 5c3d c87e 06be
00000070: 9470 31bd f755 453d 7a0a bb3c 76de 1d3e
00000080: 66e6 c53d 5b19 923d 979f c93a 487d 403d
00000090: f5e7 863d cea6 ec3d a69e 7f3d 8fdb 7abd
000000a0: d42c 0cbe eff9 b3bd 95b3 603d 6a7f cfbd
000000b0: d133 99bc aced 983d e203 523d 2fea 95bd
000000c0: c508 b33c 04a5 08be 467a cfbc 1175 463d
000000d0: e75a d13d 9015 0fbe b42e 233d ac8b a3bc
000000e0: bf11 253e 5b66 253d f476 c73d 0865 39bd
000000f0: 490b 4e3e 90ee 4d3c 59a2 123d 37ac ad3d
00000100: 28e6 6abc e467 e1bc 7942 593d 79d8 da3d
00000110: b016 59bc 76b0 2d3e 4f36 d03c da9e 1abe
00000120: 4fdd 48be dcea 5cbd 59ba e5bd 341e 053c
00000130: edad 07bd 8ad0 4abe bd65 8dbe 82b4 383e
00000140: 5dc0 3cbd 58e9 83be e97d 42be 6442 233b
00000150: da98 193e 9ee9 a63d 762b f03b 0200 f23d
00000160: 0e61 bdbc 37ec 57be 08c0 86bc b3fc ccbc
00000170: d92a 78bd 2535 89be 0f34 7ebd 69de 36bd
00000180: 71a8 8fbe 5ce9 40be 73be d6bb 9d92 993d
00000190: e851 c83d 5a82 543e 6ba9 2f3e bdb8 c7bd
000001a0: 9b62 ef3c 399d b13d 4d53 98bd e3ba 603d
000001b0: 3d22 17bd 7104 0b3e 5ac6 e23d 7310 313e
000001c0: 0886 a1be 6a14 27be e936 dcbd 7b2f 813d
000001d0: 046a 69be 0ca1 29be dbed b93c af8e 31be
000001e0: e295 59bd d55f 34be 02c0 a8bd 6054 363e
000001f0: 399d 87bd 6dfb 9cbd 1b23 863b ff00 75bd
00000200: f635 833d 8124 2b3d 85f4 6c3d f024 27bd
00000210: 1551 00bd b3a8 983d 60ec 4f3d 7ea0 f1bd
00000220: dcf7 80bd afce 88bd 00cb 253d a1b9 e5bc
00000230: 2021 b13c d331 09bc efa6 f9bd 1fc1 00be
00000240: 26b7 edbd e4d5 d93c 346b 81bc 781b 2dbe
00000250: e21c aebc fc8b acbd 5828 8bbc e75a 46ba
00000260: 8d57 fbbd a44d 87bc 0388 c7bc 5ca8 1e3c
00000270: 385e 0e3d 1337 8fbd 03aa e3bd 82ea 2abd
00000280: 9d9b 21be 6f71 953d 8217 a13d fdf1 ab3d
00000290: ed97 00be 00fa 1fbe ecaf 91bd 8891 fa3c
000002a0: 45ce 223d bf49 fcbd 3b7f 68bd 45f8 e7bc
000002b0: 4aad c63b dbb5 4e3d 8be2 b6bd 0e9e 79bb
000002c0: c5c6 13be 1eb2 4c3c dbaa eaba ad3c a6bc
000002d0: 4b1b ffbd b433 a7bc 9f67 06be 3811 a03d
000002e0: 3500 25be be31 0dbe 275a 8fbd bbde f23c
000002f0: 6f75 eabd 40d8 9dba aca6 03be b6bb 313d
00000300: ca24 2a3d d461 f63c 2a8a 623d 7d67 02be
00000310: d5a2 9abd c29d 1739 1bfc e43c 4770 06bd
00000320: 8eb8 92bd 6296 2d3c a120 c73c a14f fbbc
00000330: c47b 113d d48d 7c3d 320b 423d a194 82bd
00000340: f48e 97bd e232 4d3d 6518 b23c 37e5 a33d
00000350: 8a11 eabd dcb5 23bd a913 78bc 6c1c 28be
00000360: cbfd 96bd a68c 93bd 4617 59ba 9526 00be
00000370: aad7 abbd c9b0 b73c b0ca cdbc 4dfe 713d
00000380: e091 be3d f5b8 8b3d 6a94 fcbb 77ac 9fbc
00000390: ea32 d0bd 63a0 d0bc 25d7 74bd 8a11 afbd
000003a0: b8e4 933d dea8 0dbe 3c34 02bd cf1e 81bd
000003b0: d928 9dbc e02b 16be 73a0 d4bd 4aa6 0bbe
000003c0: 9440 893d c5d1 5a3d 1336 1d3d db72 32bd
000003d0: f21a 623d ff10 16bd 4e36 a63d 43d1 123d
000003e0: b664 2ebd 15ab 4bbd 7cef cc3c fd7e 0fbe
000003f0: ccaa 11be ebe2 95bc 910b 363d 9628 0dbc

fc3.bias f4 [3]
0.12834035 -0.051835027 -0.010175723
00000000: a76b 033e f750 54bd 13b8 26bc
