scripts/models/pg/reinforce_run_6.pth (torch, 76888 bytes, 6 tensors)

fc1.weight f4 [128, 12]
000000 66 87 23 3e c5 e3 9c bb d6 de 05 3e bf d9 19 3e
       0.15969619 -0.0047878944 0.13073286 0.1502447
000010 fd b0 80 3c d5 b3 9d 3e 36 f9 8c be 88 b2 2a 3d
       0.015709395 0.30801263 -0.27533883 0.041674167
000020 04 a9 16 3d 3a 0b 82 be 8e cc 8e 3c 52 3d af 3d
       0.03678228 -0.2539919 0.017431524 0.08556618
000030 cf 6f 1a 3e af 07 78 bc fa 67 85 3e 10 2a cb bd
       0.15081714 -0.015138551 0.2605589 -0.09920132
000040 66 01 30 be dc 35 92 be 54 2e a1 3d 0a b7 7e be
       -0.17188033 -0.28556716 0.078701645 -0.24874511
000050 04 26 98 bd b9 87 36 3e 52 28 2e 3e c2 8c b3 ba
       -0.07429126 0.17825212 0.17007568 -0.0013698565
000060 c6 ad 2b 3e 16 27 fc bc 4a b1 0e 3e bb 1a fa 3d
       0.16765508 -0.030780356 0.13934818 0.1221213
000070 c7 ad 87 be 79 7e a8 3e 01 ac ee bc 9f eb 2b bd
       -0.2649977 0.3290899 -0.029134752 -0.041972753
000080 9a bf 01 be 32 fb 1d be 16 e3 83 be 88 a0 ee 3d
       -0.12670746 -0.15427855 -0.2575919 0.11651713
000090 63 7c a2 3e 3f ff a6 3e 9f e0 dd bd a5 29 84 3e
       0.31735525 0.32616612 -0.10833859 0.25813022
0000a0 7e d7 81 be fe f3 b0 be 2b 35 41 3b 41 0b 8b be
       -0.2535972 -0.3456115 0.0029481153 -0.27157024
0000b0 c6 20 61 3d 3a 8c c2 bc 9b d5 1d 3e ad 53 8d bc
       0.054962896 -0.023748506 0.15413515 -0.017251814
0000c0 e7 84 0d be a5 79 17 3e 96 b9 9a 3d 60 a4 ba 3d
       -0.1382023 0.14792497 0.07554929 0.09113383
0000d0 dc e3 00 be 69 7d 9c 3e 4a ba 14 b9 9e 46 e1 bd
       -0.12586921 0.3056443 -0.00014183778 -0.10999797
0000e0 d4 2b b0 bd 31 df 8f 3e 6d 52 0b be 42 38 dc bd
       -0.086021096 0.2809997 -0.13605662 -0.10752918
0000f0 ef fa c2 3d 72 32 a7 3d c2 a2 72 3e 23 f9 2f bb
       0.09520518 0.081639186 0.236949 -0.0026851378
000100 b2 24 09 bd 9c c2 40 bd 39 f0 93 3e 01 67 d8 bd
       -0.03348226 -0.047060594 0.28894213 -0.105665214
000110 b8 ae 5d 3e bb c3 0f 3d fd e3 41 3e fd 22 62 3e
       0.21648681 0.035098772 0.18934627 0.2208366
000120 33 ef f8 3d 3d 1d 00 bd d9 17 72 bd 8d 56 be bd
       0.12154999 -0.031277884 -0.059104774 -0.09293852
000130 85 5f b0 bd 5f a9 5f 3d 13 f6 f9 bd 08 e8 27 3e
       -0.08611969 0.054604884 -0.12205138 0.16397107
000140 76 4a 02 bc ba ed c2 3d d1 2d 38 be 7b 0d 2f 3e
       -0.007952323 0.09517999 -0.17986228 0.17094986
000150 20 de 82 3e 93 3b 49 be b1 c7 d2 3d 3a 8e 81 3d
       0.25560093 -0.19651632 0.10291994 0.06325956
000160 f9 a6 1d bd 45 53 ef 3d a8 86 d0 3d 54 f7 90 be
       -0.038489316 0.11685804 0.10181934 -0.28313696
000170 dd a9 05 be cf 26 bb 3d 6f 46 7f be 5c 9d 57 3e
       -0.13053079 0.091382615 -0.24929212 0.21056122
000180 31 34 35 3e e8 77 92 bd e6 3b c3 3d 2d 9d 1a 3e
       0.1769569 -0.071517766 0.09532909 0.1509902
000190 5e 02 bb bd 00 43 e7 bd b2 82 66 be ca a5 d0 3d
       -0.09131311 -0.11292076 -0.22510794 0.10187872
0001a0 a0 61 56 be f8 16 9b be 68 7b 82 be ea 8b 94 be
       -0.20935678 -0.3029096 -0.25484776 -0.29012996
0001b0 22 72 f8 3d 5e ab 59 3e e2 18 14 3d 2b 39 63 be
       0.12131144 0.21256778 0.036156543 -0.22189777
0001c0 b9 82 23 be 96 a6 56 3e 42 4e cb bd 99 12 62 3e
       -0.15967835 0.20961985 -0.09927036 0.22077407
0001d0 32 0c 68 3d 6a aa 85 3e ac 50 4e be c2 8c 5f 3d
       0.056652255 0.26106578 -0.20147961 0.054577596
0001e0 01 17 66 3e 5c 29 8f be f4 97 5d 3e 90 79 df bd
       0.22469713 -0.27961242 0.21639997 -0.10911858
0001f0 e0 b8 97 3c 77 80 28 be 16 28 e6 bd ff 19 35 be
       0.018520772 -0.16455255 -0.112381145 -0.17685698
000200 2d 8a 87 be 6e 76 73 be cb 3e ea 3a be a4 9a 3d
       -0.26472607 -0.23775646 0.0017871497 0.07550953
000210 40 12 15 3d 84 df 6e be 80 33 30 3c bb 23 25 3e
       0.036394358 -0.23327452 0.010754466 0.16126911
000220 70 cc 8e 3c c1 09 66 3e cd d3 5d be 05 5e a1 3c
       0.017431468 0.22464658 -0.21662827 0.019698152
000230 bc f2 5b bd 20 99 2f be 38 a9 84 be 17 49 2d be
       -0.053698286 -0.17148256 -0.25910354 -0.16922413
000240 b9 cc 28 be 2d 30 1b 3e 8e e2 b7 bd 0e 29 53 be
       -0.16484345 0.15155096 -0.08978759 -0.2062113
000250 d7 33 0e be 15 61 c1 be 66 37 a0 3e 4c 47 0a be
       -0.13886963 -0.3776938 0.31292266 -0.1350376
000260 01 c5 8b 3e 14 9f 73 3e 70 77 92 3d 44 62 b0 bd
       0.2729874 0.23791152 0.07151687 -0.08612493
000270 36 62 63 be 2a f1 ee 3d 5f 39 47 3e 2c 95 2c be
       -0.22205433 0.11667092 0.19455479 -0.1685378
000280 42 ee 90 be 05 cd 84 bd 89 34 62 be d8 e2 87 be
       -0.28306776 -0.06484417 -0.22090353 -0.26540256
000290 19 55 85 3d 78 19 08 be 9e cf f7 bd 9d cf 12 3d
       0.06510372 -0.13290966 -0.12100147 0.035842527
0002a0 c0 e3 ae 3c 5a f8 13 be e7 53 ef 3d 80 cc 6f be
       0.021348834 -0.14450207 0.11685925 -0.23417854
0002b0 7f dd 40 3e 27 38 46 3e ab 6a 21 be bd d7 bf 3e
       0.18834494 0.19357358 -0.15763347 0.37469283
0002c0 03 e6 b7 3d f8 0e 2f 3e 22 74 61 3e b5 1f fb 3d
       0.08979418 0.17095554 0.22016957 0.12261907
0002d0 95 c6 84 3d c0 b8 16 3e 77 8a be bd 86 1b 76 bd
       0.06483189 0.14718914 -0.09303754 -0.060084842
0002e0 f8 04 4f 3e 8c 14 6e 3e 6c fb 6f 3e 23 e7 fa 3c
       0.20216739 0.23250026 0.23435754 0.030627793
0002f0 db 44 8b 3e f6 c3 20 3d 6b 73 57 be 9e 6d 6e 3e
       0.2720097 0.039249383 -0.21040122 0.23284003
000300 f1 af 54 3e 20 d2 5f bd 18 2b 18 3e ff 2a ba 3d
       0.20770241 -0.05464375 0.14860189 0.09090232
000310 af 8f 7b 3d ca 9d d8 bd 82 81 8a bd c5 e4 7c be
       0.061416324 -0.10576971 -0.06762983 -0.24696644
000320 16 31 71 be ce 06 cc bd 13 b7 86 3e b5 05 53 3e
       -0.23553881 -0.099622354 0.2631155 0.20607646
000330 6f 34 85 be c9 8f 69 3e 19 3d 60 be bf 6d 85 3d
       -0.26016566 0.22808756 -0.21898307 0.06515073
000340 1b 06 5c 3d 8c 9c 2f 3e 1b c1 1f 3e a9 d9 76 be
       0.05371676 0.17149562 0.15601008 -0.24106468
000350 f3 db 8f be 3d b6 40 be 96 59 29 be 68 af 34 3c
       -0.28097495 -0.18819518 -0.1653808 0.011028148
000360 26 fd 22 be 7a b5 bb bd 86 16 55 be 6c bc 8c bd
       -0.15916881 -0.09165473 -0.20809373 -0.06871876
000370 dc f6 95 bb ee 31 8d 3e 1b 5f 13 bd 5b cd 88 be
       -0.004576547 0.27577156 -0.03597937 -0.26719174
000380 ec 70 f9 3d 88 95 4a be 6c e0 f5 bd e8 3e 42 bc
       0.12179741 -0.19783604 -0.12005696 -0.011855818
000390 3b 16 86 be 88 7b 36 3e ca 70 ab bd 9a bf 52 be
       -0.26188836 0.17820561 -0.08371122 -0.20580903
0003a0 59 a6 87 be a7 50 6f 3e 02 2b 88 3e 34 7d da 3e
       -0.264941 0.2337061 0.26595312 0.42673647
0003b0 88 49 5e bd c2 9a 40 3e e0 6f b9 3d 42 ab 5a 3e
       -0.054269344 0.18809035 0.090545416 0.21354392
0003c0 5e c3 39 3d ff c7 5e 3c 12 6c 03 3d 42 13 89 3e
       0.045352332 0.0135974875 0.032085486 0.26772505
0003d0 08 60 9b bd 72 91 db be d3 a7 e2 3d aa bd 71 be
       -0.07586676 -0.42884403 0.11067166 -0.23607507
0003e0 cf e6 dd 3d 8e 43 20 3e 74 f3 4d bd b8 08 02 be
       0.10835039 0.1565077 -0.050281003 -0.12698638
0003f0 c8 28 22 3d dc 80 84 3d b2 be d4 bd 90 07 e7 3c
       0.039589673 0.064698905 -0.10387935 0.028201848

fc1.bias f4 [128]
000000 05 a1 93 3a f2 4b 38 3e 5d c6 64 3e d6 36 bb 3b
       0.0011263198 0.17997721 0.22341295 0.005713324
000010 a6 5e 8f 3d f9 96 0c be db ae 62 3e a9 8d 89 3e
       0.07000475 -0.13729466 0.22137015 0.2686589
000020 87 c4 ab 3d 56 9e 7c 3e 7e a0 36 be 78 65 66 be
       0.08387094 0.24669775 -0.1783466 -0.22499645
000030 45 59 71 3e e7 11 85 3e 60 f6 1a be ed 78 5e be
       0.2356921 0.2599022 -0.15133047 -0.21725817
000040 73 74 a9 3d df ff 4c bb ce f8 2f 3b ee d8 0d 3e
       0.08274164 -0.003128044 0.002685118 0.13852283
000050 7d d0 ae 3e 82 3f 3c be b6 5f 15 be b9 36 96 be
       0.3414344 -0.18383601 -0.14587292 -0.29338625
000060 d7 29 46 be 69 82 15 3e 72 38 67 be c6 15 4e bd
       -0.19351898 0.14600529 -0.22580126 -0.050313734
000070 b8 09 89 bd 7e 19 ae 3e 38 7b 0c 3d bc cd 34 be
       -0.06691307 0.34003824 0.034297198 -0.17656606
000080 3a 0f 6f be 15 41 3d be 01 57 b2 3e f2 4c 0c bd
       -0.23345652 -0.18481858 0.34832004 -0.03425307
000090 77 2a 1f 3d 7d 1c 73 3e 82 19 c3 3c ab 01 ba bd
       0.038858857 0.23741336 0.023815874 -0.090823494
0000a0 f9 ac 07 be fb e0 31 be 21 eb 85 3e 6e 90 8d 3e
       -0.13249578 -0.1737098 0.26155952 0.27649254
0000b0 d4 24 3a 3e 22 a5 9f 3e 54 a6 32 be dd 64 2c 3e
       0.18178111 0.31180674 -0.17446262 0.16835351
0000c0 98 05 92 3e a0 8a db 3d 50 4c d9 3b 95 aa 32 be
       0.28519893 0.107198 0.0066314116 -0.17447884
0000d0 7d cb 1a be 73 44 1f be f9 2e 5b be e3 b8 a8 bc
       -0.15116687 -0.15553455 -0.21404637 -0.020595973
0000e0 96 74 7a be d0 7a 85 be 5e 99 a5 3e fc db 8a 3e
       -0.24458537 -0.2607026 0.32343572 0.2712096
0000f0 f7 48 61 be 9d 48 97 3d bb 6b 74 3d 31 1b 91 3e
       -0.2200049 0.07386897 0.059673052 0.28341058
000100 d2 47 fb 3d c9 8a 2c be 49 17 1c 3e df 8b 4f bd
       0.12269558 -0.16849817 0.15243258 -0.0506705
000110 1e cf 91 3d 91 6c 98 be fc a5 c5 bd af 67 09 3e
       0.071195826 -0.2977033 -0.096508 0.13418458
000120 ca 7f 73 bb eb 99 30 be ae bf 4c be 07 fe fc 3d
       -0.0037155026 -0.17246215 -0.19994995 0.12353139
000130 52 21 94 3e 65 6a e0 3c f8 82 3f be 46 74 4c 3e
       0.2893167 0.027394483 -0.18702304 0.1996623
000140 60 da 96 3e c1 75 60 be 26 05 3d be ff f0 8a 3e
       0.29463482 -0.2191992 -0.18458995 0.2713699
000150 3e c6 96 3e 65 3b a0 3d 1f 17 71 be fd a5 99 3e
       0.29448122 0.078238286 -0.23543976 0.30009452
000160 46 2e 6c 3e eb 25 46 3e 10 eb 02 3e 8b 30 05 3d
       0.23064527 0.19350402 0.12784982 0.032516997
000170 83 ad bc 3d 17 80 4a bd a4 f9 0c be 6b 97 b0 3c
       0.09212782 -0.049438562 -0.13767105 0.021556577
000180 58 63 dc ba c3 36 4a 3d 0b 7c 1b 3e af a9 24 3e
       -0.0016814275 0.04936863 0.15184037 0.16080354
000190 ad 78 03 be 4a ee ea 3d d3 b0 22 3c 92 8b 73 be
       -0.12839003 0.11471231 0.0099298535 -0.2378371
0001a0 cf d0 87 bd ff ca 12 3e af ab de bd cd 9c 76 3e
       -0.06631624 0.1433525 -0.1087259 0.24083252
0001b0 ec 49 04 3e 83 30 bc 3e 7a 46 70 be 34 68 e9 bd
       0.12918824 0.36755762 -0.23464385 -0.11396828
0001c0 15 5a 85 3d d0 bb fd 3d 38 96 b3 3d ac ff 1f 3e
       0.065113224 0.12389338 0.08768886 0.15624875
0001d0 87 40 58 bd 33 94 26 bc 58 66 63 3d 07 35 1b 3d
       -0.052795913 -0.010167169 0.055517524 0.037892368
0001e0 6a 98 9a 3d 43 4b a4 bd 80 14 65 3d 3e 4b ca 3d
       0.07548602 -0.080221675 0.055927753 0.098776326
0001f0 7a 4a 88 3e 88 37 30 3e 60 16 c2 3b 87 98 89 3e
       0.2661932 0.17208683 0.0059230775 0.26874182

fc2.weight f4 [128, 128]
000000 5e 89 c6 bc 17 c7 42 3e 0a 8f da bc 6c e0 a3 3d
       -0.024235424 0.19021259 -0.026679534 0.080017895
000010 cb 16 25 bd cd 9d b6 3d 51 c0 6b 3d 22 6c d1 3d
       -0.04030494 0.08916817 0.057556454 0.10225703
000020 53 bb fa bc 4b 29 78 bd a9 96 11 bc db db a9 bd
       -0.030606901 -0.060586255 -0.008886018 -0.08293887
000030 78 a7 3a 3e 82 51 12 3e d9 0e fc bd b8 3a 3d bd
       0.18227947 0.14288905 -0.123075195 -0.046198577
000040 d4 12 5a 3d 79 56 66 3d 40 3e 8a bd 4f b4 92 bd
       0.053240612 0.05623481 -0.067501545 -0.071632974
000050 58 b6 95 3d 51 dc b8 3d 5f c4 7d bd be 0d 9f 3d
       0.0731017 0.09026397 -0.061954852 0.07766293
000060 0b 9e 1b bd ad 68 c1 3d 8a 90 46 3d ac 84 1f be
       -0.03799252 0.094437934 0.048477687 -0.15577954
000070 86 e7 5b 3d 41 a1 af 3d 7c 4c ef 3c b8 74 e2 3c
       0.053687595 0.085756786 0.029211275 0.027643546
000080 64 09 c2 bd 70 e9 59 bc 61 fe 12 3e 0b f9 c2 3d
       -0.09474447 -0.013300285 0.1435485 0.095201574
000090 1c fb 4b 3d 0e 88 bf 3c 8a 28 b2 3c e8 f3 a9 bd
       0.049800023 0.023380306 0.021747846 -0.082984746
0000a0 4f e0 9b 3d af 3b a6 3d a3 57 db 3d 7c 97 3e 3d
       0.07611143 0.081168525 0.10710075 0.046531186
0000b0 b4 9d 35 3d d9 12 53 3c dd 9a b6 3c a0 8c d0 3a
       0.04433985 0.012882912 0.022290641 0.001591105
0000c0 ca 50 1c 3d 1f 3d c3 bd 36 51 c5 3c e7 3b 1a bd
       0.038162984 -0.09533142 0.024086576 -0.037654784
0000d0 2d 67 94 bc b5 d7 30 3d 77 9f b5 3c 7a 14 6c bd
       -0.018115604 0.043174464 0.022170765 -0.057636715
0000e0 9d cb 84 3d 70 0d 1a 3c c8 fd 62 3d 90 ee 5c 3d
       0.06484149 0.009402618 0.055417806 0.05393845
0000f0 18 35 81 bd 30 e4 ff bd 6a 6b 2e bd 5d 85 9b 3d
       -0.06308955 -0.12494695 -0.042582907 0.075937964
000100 0b c1 a5 bd 0a 81 2a 3d 4a 9d 00 3e e4 3e 03 3c
       -0.08093461 0.041626967 0.12560001 0.0080106
000110 f8 29 2d 3d b4 f6 b2 3c c6 e3 8a 3a 58 a0 00 3d
       0.042276353 0.021846153 0.0010596446 0.031402916
000120 72 8b 5d 3e 88 a5 32 bc ff 5b 14 bd d1 66 e5 3d
       0.21635225 -0.010903724 -0.036220547 0.11201251
000130 e8 2b c3 3d a1 1f 34 bd 15 14 9c bd 2a 4a 91 3d
       0.09529859 -0.043975476 -0.07621018 0.07094224
000140 80 ed f4 3d 7b d8 13 be 17 04 ea bd aa ed 0c 3e
       0.11959362 -0.1443805 -0.11426561 0.13762537
000150 a2 de da 3d f6 bc 89 3c 11 99 b7 bd 49 f4 c3 3d
       0.10686995 0.016813736 -0.08964742 0.09568078
000160 73 e3 ee 3d 1e eb 40 bd c4 ee e7 3d 53 fe a2 bb
       0.11664476 -0.047099225 0.11324838 -0.0049741655
000170 d4 d6 62 3a 97 79 a9 3c 1d 51 46 bc 2c d4 b8 3d
       0.00086532277 0.020687861 -0.0121043 0.090248436
000180 f5 ad 2b bc ed 9c 92 3d 29 88 14 3e c8 0f 29 bd
       -0.010478486 0.071588375 0.14505066 -0.041274816
000190 d3 2c fc 3c b7 ee 48 3d 3e 64 10 3c 01 59 4e be
       0.030783093 0.04905578 0.008812962 -0.2015114
0001a0 7a 83 88 bb f9 ef 12 3e 7c 6e 82 be a4 4d fd 3d
       -0.004166064 0.14349355 -0.25474918 0.123683244
0001b0 f0 3b 2c 3e 80 9a 6e 3e 24 e7 04 3e 1f 26 c3 3c
       0.1681974 0.23301125 0.12978798 0.023821888
0001c0 50 a5 93 3d 8c 6c 8e bb 19 c0 dd 3d 0a c5 d8 3d
       0.07209265 -0.004346436 0.10827655 0.10584457
0001d0 11 0e c2 bd 8d 93 b0 3d 41 44 5d 3e 3f d3 1c 3e
       -0.09475339 0.08621893 0.21608068 0.15314959
0001e0 f2 89 72 3c 1d 1c 46 3d 41 1d a9 3c c2 9c d7 3c
       0.014803397 0.048366655 0.020643832 0.026319865
0001f0 f4 c9 37 3e fd 7b bd bd 8f 66 bb bd 0c f1 27 3d
       0.17948133 -0.092521645 -0.09150421 0.041001365
000200 71 70 8f 3d 5b b8 bd 3d 1e 17 d9 3c a5 e0 e6 3d
       0.07003868 0.09263679 0.026500281 0.11273316
000210 6b 89 06 3e 1a 22 14 3e 9b 23 84 3d 42 0d 0b 3e
       0.13138358 0.14466134 0.06452104 0.13579276
000220 c7 ce 65 bb 47 55 fe 3d 23 f4 9e bd 6b a8 50 bd
       -0.0035065876 0.12418609 -0.07761409 -0.050941866
000230 6b 83 f0 3d 0f 91 34 3d 69 44 f0 bc 86 0a 8a 3c
       0.11743816 0.04408365 -0.029329496 0.016850721
000240 4b 78 12 3e 41 50 cc 3d f5 18 6d bd 8a 03 9a bc
       0.143037 0.09976245 -0.05788513 -0.018800516
000250 57 90 63 3e 5a b4 88 3d 49 0a 52 3c a8 be 8d bd
       0.2222303 0.06675024 0.012819835 -0.069211304
000260 d2 7c 3a b9 d2 b0 1e 3d f6 a9 67 3d 91 63 28 be
       -0.00017784841 0.038742848 0.05655857 -0.16444232
000270 c3 49 2a 3d f0 f4 a6 3d 31 4d 95 bc b1 12 89 3d
       0.04157425 0.08152187 -0.018225284 0.06693018
000280 c8 15 bf bd e3 54 09 bd a5 cf 8a 3d 4d c5 ad 3d
       -0.09330326 -0.03352822 0.06777886 0.08484898
000290 95 77 8e 3d 14 69 c7 3d 15 e1 9d bc ae 01 ab bd
       0.06956402 0.09736839 -0.019272367 -0.0834993
0002a0 c9 12 2a 3d 09 6b f3 3c fd 70 36 3d 34 c7 f6 3c
       0.04152182 0.029714124 0.044541348 0.030124284
0002b0 64 b4 01 3c fd 34 2c 3e bb a7 88 bd d2 b3 6d 3d
       0.007916544 0.16817088 -0.06672617 0.05803282
0002c0 19 58 c2 3c 37 63 a5 bd 1d 16 82 3c ce 36 fd 3d
       0.023723649 -0.08075564 0.015879685 0.12363969
0002d0 fa 48 98 bd 83 26 c8 3d 79 f0 75 bc c1 16 a6 3d
       -0.07435794 0.097729705 -0.015010946 0.08109809
0002e0 dc 58 07 3d 7b b3 fb bc 44 91 05 3e 78 85 28 3e
       0.033043727 -0.030725231 0.13043696 0.16457164
0002f0 bd 86 bd bd e0 73 cd bd 40 c4 98 3d 0b 9f 44 3e
       -0.09254215 -0.10031867 0.07459307 0.19201295
000300 8e 5f 7d bc 16 42 55 3d 58 f0 d1 3c f8 47 b8 bd
       -0.015464677 0.052064978 0.0256273 -0.08998102
000310 af 08 a2 3d 4f 65 d9 3d 68 a4 e1 3d b1 15 5c 3d
       0.079118125 0.10615026 0.11017686 0.053731624
000320 8e 54 35 3e 83 e6 96 3d 72 6b 0b bd bb eb ce 3d
       0.17708036 0.07368185 -0.034038015 0.10103556
000330 28 42 0b 3e 97 de b8 bd 6c 3e 24 3c 91 bb 43 3e
       0.13599455 -0.09026831 0.010024648 0.1911452
000340 1d 14 33 3c c7 4c 28 bd 0a 62 ed bd 06 05 21 3e
       0.010930088 -0.041088846 -0.11590965 0.15724573
000350 22 8f 26 3e 98 96 9e 3d f9 4b 63 3d 2b bb 31 3e
       0.16265538 0.07743567 0.055492375 0.17356555
000360 84 a1 f4 3d e1 e3 c1 bd ce 64 fc 3d 72 a5 b6 bc
       0.11944869 -0.094672926 0.123239145 -0.022295687
000370 a4 62 74 3c 99 99 d5 bd 6b 4c 86 3d fd 88 2e 3d
       0.014916096 -0.10429687 0.06557544 0.04261111
000380 92 14 6b 3d f7 4a 21 3e 8e 5d 26 3e 76 fb 09 bd
       0.057392664 0.15751253 0.16246626 -0.033687077
000390 a3 bd 8c 3c ac e5 eb 3d 08 ec 71 3d f6 ec c2 bd
       0.01718027 0.11518416 0.059062988 -0.09517853
0003a0 11 17 26 bb 17 56 34 3e cd 57 a0 be af 42 f6 3c
       -0.0025343338 0.17610966 -0.31316987 0.030061094
0003b0 da 3c 52 3e 91 51 b8 3d 4c 2c df bb 50 61 06 3d
       0.20531026 0.089999326 -0.0068107005 0.03280765
0003c0 62 c6 99 3d f1 ae cd 3d 0a 99 2b 3c b0 8e 59 3d
       0.07508542 0.10043133 0.010473499 0.053114593
0003d0 38 1c 2a bd 76 2a 4d 3d 89 96 11 3e 4f 9b 0a 3e
       -0.041530818 0.050089322 0.14217581 0.13535808
0003e0 9f 65 71 3d f1 b2 8e 3d 90 ad 90 3d a6 84 51 3d
       0.058934804 0.06967724 0.070643544 0.051151894
0003f0 96 7a 45 3e 52 10 b4 bc 6e 4c 8d bd 4f 21 b4 3d
       0.19285044 -0.021980438 -0.068993434 0.087954156

fc2.bias f4 [128]
000000 d3 d5 75 3d 5e f1 5e 3c f4 0e c4 3c eb 85 35 bd
       0.06001837 0.013607351 0.023932911 -0.044317167
000010 62 51 69 bc 66 5c 33 bb 12 a2 96 3c 00 57 ad 3c
       -0.014240595 -0.0027368306 0.018387828 0.021159649
000020 4d 48 f5 3d dc dc 89 bd 8a 2b b6 3c b2 8e 68 bd
       0.11976681 -0.06731579 0.022237558 -0.05677671
000030 34 f4 cd 3b 04 5d 96 3d e6 c4 f1 3b 33 22 14 bc
       0.006285215 0.0734196 0.0073782085 -0.009041357
000040 eb a4 0a 3e 79 c6 bb 3d 4f 7e 92 3d 0f f0 d4 3c
       0.13539474 0.09168715 0.07152998 0.025993375
000050 b0 0a 75 3d 0d 8f 14 3d c0 26 9d 3c 99 cb 81 bd
       0.059824646 0.036269236 0.019183517 -0.06337661
000060 df 57 e5 3c 9a ff 3e 3d 58 02 9f bc 93 7f 1b 3e
       0.027996002 0.04663048 -0.019410297 0.15185384
000070 62 ff 4a 3c 07 12 ff 3c 30 01 ad bd e3 61 c5 bd
       0.01238999 0.031136526 -0.08447492 -0.09637811
000080 91 8d 82 3d 72 42 b6 3d f2 8f c3 bc 6a 4e 78 3d
       0.06374658 0.08899392 -0.02387235 0.060621656
000090 9d 76 9d 3d 25 97 02 3e 64 ac e4 3d b2 c7 b1 3d
       0.07688639 0.1275297 0.111656934 0.08680667
0000a0 4c 68 c8 3c fa c7 60 3d db 00 28 bd 35 a4 54 bc
       0.024463795 0.054878213 -0.04101644 -0.012978603
0000b0 9c 1e 8f 3c f5 f8 50 bd 4d 8f 16 3c 73 02 19 bd
       0.01747065 -0.051018674 0.009189439 -0.03735585
0000c0 75 98 4c 3b 95 2c 74 bc 4e af 81 bd 05 e0 c6 3d
       0.00312188 -0.014903207 -0.06332265 0.09710697
0000d0 6f e4 14 3e b2 78 a3 bd 8a 99 0c bd 30 89 85 3d
       0.14540266 -0.07982005 -0.034326114 0.06520307
0000e0 8b 19 c5 3d 28 00 da 3d df 7d 8e 3d 0a 4a 80 3d
       0.096240126 0.10644561 0.06957602 0.06264122
0000f0 6c bd 3a 3d d2 c6 a3 3c 97 7d c0 bc aa d0 9b 3d
       0.045590803 0.019992266 -0.023497386 0.07608159
000100 a7 b5 58 bd f1 44 4e 3c 5f 47 5a 3d 61 49 4e 3d
       -0.052907612 0.012589679 0.05329072 0.05036295
000110 ae ea 5b 3d b6 a2 9b bd 66 e2 a4 ba f0 25 65 3c
       0.053690605 -0.07599394 -0.0012579679 0.013986096
000120 01 1a 8f bd 13 2d ab bd db ae 46 3d 5e 3c 67 3c
       -0.06987382 -0.083582066 0.0485066 0.014113514
000130 2b 3f a1 3c 18 ed 1f 3e c9 9b 2a 3c 15 69 22 3d
       0.019683441 0.15617788 0.010413119 0.039650995
000140 51 d0 1c 3d 30 47 0d 3d d2 c7 8b 3d da 13 28 bc
       0.038284604 0.034491718 0.06825222 -0.010258639
000150 6e 71 39 bd 53 7b 6d 3d b3 68 a7 3c 92 70 6b 3d
       -0.04527419 0.05797894 0.020435667 0.057480402
000160 9c 91 37 bd 51 b6 c7 bd e9 7c d0 bb f0 ae 8b 3d
       -0.0448166 -0.09751571 -0.0063625467 0.06820476
000170 60 93 b6 3c b7 cb fa bc 05 9d 25 bd bc f3 04 3e
       0.02228707 -0.030614717 -0.04043295 0.12983602
000180 35 30 88 bd 37 51 76 3d 89 13 75 3d c0 4e b9 3d
       -0.0664982 0.060136046 0.059833083 0.090482235
000190 76 b4 9f bc 85 e2 ac 3d 36 1d 6f 3c 8b 27 b0 3d
       -0.01949523 0.08441643 0.014594367 0.08601292
0001a0 24 6a cc ba 0c 5f 9d 3c 01 07 b5 3c aa e2 18 bd
       -0.0015595597 0.019210361 0.022098066 -0.03732554
0001b0 d9 4c 88 bd 0d 7d 23 bb e3 f3 1f bc 5a e4 52 3d
       -0.066552825 -0.0024946362 -0.009762737 0.051487304
0001c0 98 82 74 bd 82 ba 81 bd 40 5c a7 3a 92 59 42 3b
       -0.059694856 -0.06334402 0.0012768582 0.002965544
0001d0 7c db 91 3c 31 63 86 bc 4d bb a0 bc f5 b7 b7 3d
       0.017804854 -0.01640472 -0.019620562 0.08970634
0001e0 e9 76 9d bd c0 de 3c bb fb 53 89 3d d1 93 1c bd
       -0.07688696 -0.0028819293 0.06705471 -0.038226906
0001f0 86 2e af bb eb b5 fc 3d 6c fc f3 bc 0e 08 02 bd
       -0.005346122 0.123393856 -0.02978345 -0.031745963

fc3.weight f4 [3, 128]
000000 e8 da 0f 3e ac 20 2f 3e cb 15 6d 3d a6 0a 40 3d
       0.1404835 0.17102307 0.05788211 0.046885155
000010 73 92 a8 bd 2f de b7 3c 99 ac 5d be a1 0b a3 3d
       -0.08231058 0.022444813 -0.21647872 0.079612024
000020 23 a7 71 3e 35 be 07 be bc 02 af 3b f9 23 93 bc
       0.23598914 -0.13256152 0.005340902 -0.017961489
000030 4a 46 78 3d ad 97 8b bd 4a 63 81 bd c3 c7 70 bb
       0.060613908 -0.06816039 -0.06317766 -0.003674016
000040 26 5c 11 3e d4 8c 27 3c 25 de 17 3d e7 08 83 3d
       0.14195308 0.010226447 0.037077088 0.06398182
000050 e5 d2 79 bd 4e d1 e1 3d cd 73 d2 3c 14 0a b1 bc
       -0.06099214 0.1102625 0.025689984 -0.021611251
000060 09 d4 3e 3e 75 ad 5e 3d 4f 00 61 bd 7f 06 4e 3d
       0.18635572 0.05436464 -0.054931935 0.050299164
000070 8d fe bb bc ff 18 0d bc 45 f2 32 bd 1c e4 d4 bc
       -0.022948528 -0.008611917 -0.043688077 -0.025987677
000080 e5 b2 a1 3c e9 c3 fa 3d f3 07 aa bd 31 99 46 be
       0.019738624 0.12244398 -0.083022974 -0.19394375
000090 89 f5 a0 3d 18 ed 38 3e 56 86 45 3e 3b 7a 76 3d
       0.07859332 0.18059194 0.19289526 0.06017516
0000a0 19 12 39 3c 91 5a 57 3e 18 60 c1 3c cc 2b 28 3d
       0.011295819 0.21030642 0.023605391 0.041057393
0000b0 b3 f7 91 3d 7c 39 af bc 0d ad 2c be d7 73 48 bd
       0.07127323 -0.021389715 -0.16862889 -0.0489386
0000c0 ca 75 54 3d 9d 2a df bc f6 19 ef 3c 96 a6 27 3e
       0.051870145 -0.027242 0.029187184 0.16372141
0000d0 06 7c cf 3d c8 87 90 bd 9d a2 87 be 43 30 57 be
       0.101310775 -0.07057148 -0.26491252 -0.21014504
0000e0 b5 93 42 bd 09 f4 3b 3d 38 fc 29 3e cb b6 73 3d
       -0.047504146 0.045887027 0.1660012 0.059500497
0000f0 09 6f f1 bd da f7 57 3c d8 d8 2a 3d 04 d6 86 3c
       -0.117887564 0.013181651 0.041710705 0.016459472
000100 e9 98 b2 bd 92 da 06 3d a7 a9 73 3d fc 13 1c 3d
       -0.087205715 0.03292329 0.059487965 0.038104996
000110 2a 1c 49 be 22 80 00 be d0 73 0d bd eb c1 55 bd
       -0.1963965 -0.12548879 -0.034534276 -0.052186888
000120 28 f6 a7 bd 35 4f 04 bd 77 25 d1 bc 3c a5 93 3c
       -0.082012475 -0.0323021 -0.02553056 0.018023126
000130 b2 98 a7 3c 50 73 cf 3d d9 d3 38 3c de 42 90 3d
       0.020458553 0.10129416 0.011280977 0.07044004
000140 00 94 50 3c 39 6d a9 bd 8c 7a 99 bc 9e cc 65 be
       0.012730598 -0.08272786 -0.018735193 -0.22441337
000150 f6 f7 a8 bb 26 69 44 be be 60 bd bc 3b 31 25 be
       -0.0051565124 -0.19180736 -0.02311742 -0.16132061
000160 7d 8e 20 3d 73 93 b5 bd 0f bf 1b bd 4b ec 07 be
       0.039198387 -0.08866014 -0.038024005 -0.13273732
000170 9e f9 fa 3d 13 bb d4 3c 32 90 5d be 03 22 e3 3d
       0.12254642 0.02596811 -0.21637037 0.110904716
000180 25 07 0d bd e1 4e 4b 3e 7a 7c 82 3c 9e 8b 16 3e
       -0.03443064 0.19854309 0.015928496 0.14701697
000190 a6 10 9b bd f4 3e 23 3e 12 cb 3f be 60 1e 04 3d
       -0.07571535 0.15941983 -0.18729809 0.03225553
0001a0 92 96 d4 bd 65 62 43 bd c2 4a c7 bd b8 da f8 bd
       -0.103802815 -0.04770126 -0.09731056 -0.12151092
0001b0 99 6e 74 3d bc 32 5e bd 17 4c 70 bd 99 00 8c bb
       0.059675787 -0.054247603 -0.058666315 -0.004272532
0001c0 6a 1f 58 3d 1e 78 90 bc db bc 50 bd 42 46 36 3e
       0.052764334 -0.017635401 -0.050961357 0.17800239
0001d0 bb e4 4d bd 29 31 27 bc d4 b5 d5 bd 1a e0 53 3e
       -0.050266962 -0.010204592 -0.104350716 0.20690957
0001e0 98 3b 83 be 75 d8 81 3d 3f ce 21 3e 9e c9 74 3d
       -0.25631404 0.06340114 0.15801333 0.05976259
0001f0 bc e2 33 be 3f 74 0b 3e 80 cc b7 bc 7b 3b 30 bd
       -0.17566961 0.13618563 -0.02243638 -0.043025475
000200 32 1a 30 be 1c 9a 0a bd 58 0b 47 bd de d9 46 3d
       -0.17197493 -0.033838376 -0.048594803 0.048547618
000210 e2 d3 7d bd 72 c0 fb bc e6 82 0d 3e 6c bf 43 bd
       -0.061969645 -0.030731414 0.13819465 -0.047789976
000220 00 b4 04 bd f9 cb 7a bd d7 d9 90 3d ce 15 bf ba
       -0.032398224 -0.06122968 0.070728 -0.0014578642
000230 d9 8e 02 bd 65 6e 3a bd fc ff 0d 3d a5 fa a0 3c
       -0.03187451 -0.045515437 0.034667954 0.019650767
000240 ab 23 1a be 99 20 be bd aa 73 06 3b 42 d5 e0 bd
       -0.15052669 -0.09283561 0.0020515718 -0.10978176
000250 29 91 89 bb ec 85 24 be c9 01 89 bd ee ab 98 bc
       -0.0041982126 -0.16066712 -0.066897936 -0.01863667
000260 77 50 8a bd 99 8a e1 3b 34 73 c8 bc e9 b2 21 be
       -0.06753629 0.006882977 -0.024468996 -0.15790905
000270 2d 1f 68 bd fe 1a a4 bc fd fa 69 3d 66 e8 f8 3d
       -0.056670357 -0.020032402 0.057124127 0.121537015
000280 57 17 91 3d ec 78 bb bd df 3d be 3c 86 2c f4 3d
       0.0708453 -0.091539234 0.023222862 0.11922555
000290 44 1f e7 3c 50 34 9a bd c6 09 24 be 2c 7c 12 be
       0.02821315 -0.07529509 -0.16019353 -0.1430518
0002a0 07 69 60 bd 3a 30 21 be a2 a5 97 3d 5b 8c 74 bd
       -0.054787662 -0.15741053 0.07404639 -0.059704166
0002b0 90 55 4e bd 7c 33 ab bd a4 32 7b 3c 17 5a 2c bd
       -0.050374568 -0.08359429 0.015331898 -0.042078104
0002c0 4c 39 9f 3d de b9 87 bc d5 6b 54 3d 96 b7 e0 bd
       0.077746004 -0.01656812 0.05186065 -0.10972516
0002d0 8e 09 44 be e0 00 4a bb 13 59 da 3d cb e3 e9 3d
       -0.1914427 -0.0030823275 0.10661521 0.11420401
0002e0 12 86 ef bd 42 96 ec bd 02 b8 52 be 22 12 d3 bc
       -0.11695494 -0.11552097 -0.20578006 -0.025765482
0002f0 80 96 96 3d 26 f7 5d bd 07 d7 9a 3d c5 6f f2 bd
       0.07352924 -0.054190777 0.075605445 -0.118377246
000300 18 91 23 bd 0e b1 08 bd ff cd 79 3d 3f 41 8e bd
       -0.039933294 -0.033371978 0.06098747 -0.069460385
000310 34 58 0c 3d d3 b6 df 3d 4c e6 b6 3d a7 68 f7 3c
       0.034263805 0.10923543 0.089306444 0.03020127
000320 2b c3 0c bd 35 3e 12 bd 9a fc 0c 3c 48 ae 9b 3c
       -0.034365814 -0.035703856 0.008605147 0.019004002
000330 e3 1b b6 bb 0e 63 35 be 91 5a 4f bd 2b 49 a8 3d
       -0.0055575236 -0.17713568 -0.05062348 0.08217081
000340 3c 6c 8a bd 1f d5 3a bc 71 66 43 3d c0 6d a7 3d
       -0.06758925 -0.011403351 0.047705118 0.0817523
000350 b2 ef 6c 3d 0b 13 0d 3e f2 05 ab bd de 10 66 bd
       0.05784578 0.13776796 -0.08350743 -0.05616843
000360 53 54 be bd d1 4c 0c 3e 75 93 be 3c 7c d0 fb 3d
       -0.09293427 0.13701178 0.023263672 0.122956246
000370 fe 30 3b be 36 3d 7f bd 54 8b 18 3e 92 58 fc bd
       -0.18280408 -0.062314235 0.148969 -0.12321581
000380 de 96 5f 3d aa 2b 39 be 69 98 2b be 38 93 29 be
       0.054587238 -0.18083063 -0.16757359 -0.16560066
000390 1b 7e a6 bc 8d be 01 be d3 62 7c 3d 49 a9 be bd
       -0.020323804 -0.12670346 0.061617684 -0.09309632
0003a0 ce 00 17 3d bd db 91 bd 0a 1a a7 3d 2f cf 3e 3b
       0.036866 -0.0712199 0.081592634 0.002911519
0003b0 11 fa 73 3d c7 ce 12 bc 47 2b f6 3c d1 62 a2 3b
       0.059564654 -0.008960432 0.030049933 0.0049556275
0003c0 d0 c0 81 bb 65 2c 38 3b 18 6a 49 bc 70 39 79 bc
       -0.0039597526 0.0028102633 -0.012293361 -0.015211448
0003d0 dd 51 86 bd fd ba 0b ba 95 bc 58 bd 31 47 35 be
       -0.06558583 -0.00053302926 -0.05291422 -0.17702939
0003e0 61 86 c9 3d b3 7e 90 bd eb f6 56 3c ca fa 1a bd
       0.09840084 -0.07055416 0.013120393 -0.037836827
0003f0 fa 69 3c 3d 7a 09 ce bd 28 a7 5d bc db 6e 84 bd
       0.045999505 -0.10060401 -0.013528623 -0.064664565

fc3.bias f4 [3]
000000 40 50 3b bd 76 01 d3 bd 07 0b a9 3d
       -0.04573083 -0.10303013 0.082540564
