scripts/models/pg/reinforce_run_8.pth (torch, 76888 bytes, 6 tensors)

fc1.weight f4 [128, 12]
000000 78 96 80 be 8e 1b 48 bd 59 2d b6 bb aa b6 0f 3e
       -0.251148 -0.048854403 -0.005559605 0.14034525
000010 1c ec 88 3e 76 bf 84 3e ff 82 52 3e 8c 78 0c 3e
       0.26742637 0.25927323 0.20557784 0.1371786
000020 14 bb 14 3d 39 f5 01 3e 4e 90 5a be ab 0a 71 3e
       0.036311224 0.12691201 -0.2134411 0.23539226
000030 f0 f0 84 3e e9 50 0e 3d 34 b5 5e bd b0 1a bf bd
       0.2596507 0.03474513 -0.054372028 -0.09331262
000040 8c e8 70 be 56 84 35 3e 92 01 05 be af 95 63 bd
       -0.2352621 0.17726263 -0.1298888 -0.05556267
000050 0a 8f b5 be c0 d0 91 bd c8 f9 67 3d fc f7 97 be
       -0.35460693 -0.07119894 0.056634694 -0.29681385
000060 ab c4 d9 3c 78 a6 22 be 5f c3 50 3e d6 e9 8a 3e
       0.026583036 -0.15883815 0.20387028 0.27131528
000070 f6 f1 76 3e 15 46 23 be 0e c5 85 3e 03 0c 3a bd
       0.24115738 -0.15944703 0.26126903 -0.04542161
000080 24 e7 5f 3e 8b 42 59 be 0a 55 d0 3d de f6 81 3e
       0.21865517 -0.2121679 0.1017247 0.25383657
000090 96 e5 43 3e 61 38 89 3e ea 94 50 3d 7a e8 41 be
       0.19130549 0.26800826 0.050923266 -0.18936339
0000a0 1e 8d 85 3e cd 0c cb 3d 3f 93 3c be f7 15 87 3e
       0.26084226 0.09914551 -0.18415545 0.26383945
0000b0 93 37 fb 3d 5e b5 8f 3d 67 15 80 3e aa 14 a6 3e
       0.12266459 0.07017015 0.2501633 0.3243764
0000c0 8e e4 6d be d2 4a cb 3c b4 e8 30 3e e1 48 85 3e
       -0.23231718 0.02481595 0.17276269 0.26032165
0000d0 f9 91 95 3d 59 0c 59 be f6 5a f9 3d d1 90 5f 3e
       0.07303233 -0.21196117 0.121755525 0.21832587
0000e0 a3 18 8e bc 67 83 21 3e 40 c6 34 bd 6d 17 6a be
       -0.017345732 0.15772782 -0.04413438 -0.22860499
0000f0 b0 4a 7a 3d d8 12 c4 3d 3e 05 49 3e 77 24 40 3e
       0.061106384 0.09573907 0.19630906 0.1876391
000100 ae e3 20 3e 7a f6 63 be fa 25 9b be 63 47 5e be
       0.15711853 -0.22261992 -0.3030241 -0.2170692
000110 1f d5 3d be ba 96 b5 3c e8 e2 1f 3e 80 72 3a bd
       -0.1853833 0.022166599 0.15613902 -0.045519352
000120 7d 41 ce bb 80 32 92 3b bb cd eb 3d 68 8f 7b be
       -0.006294428 0.0044615865 0.11513849 -0.24566424
000130 e7 4c 9a 3d 4d 7c 56 be 8a 79 5b 3e 7a 92 2d be
       0.07534199 -0.20945854 0.21433082 -0.16950408
000140 ef f1 24 be e7 52 81 be 63 fe ab bc aa 6a af bd
       -0.16107915 -0.25258562 -0.020995324 -0.085652664
000150 c0 b9 6a be 13 c2 71 bc a9 60 3d be 31 9c 7e 3e
       -0.2292242 -0.014755744 -0.18493904 0.2486427
000160 51 19 45 3e c5 68 7e 3d 18 59 f8 3d 79 7e bd 3e
       0.19247939 0.062111635 0.12126368 0.37010553
000170 38 63 64 be c7 ae a0 3d 45 0c 4d 3c 35 de b4 bc
       -0.22303474 0.07845836 0.012515132 -0.022078613
000180 0c 31 96 3e bc 5f 30 3d 7b f9 1c 3e 30 c1 88 be
       0.29334295 0.04306005 0.15329544 -0.2670989
000190 16 e8 48 3e 75 d8 5e 3e ef 4f 51 3e 73 d4 c5 bd
       0.19619784 0.2176226 0.20440648 -0.09659662
0001a0 e9 ef 5b 3e 8a d9 25 3e 95 e8 da 3d f2 8b 5f be
       0.21478237 0.16196266 0.10688893 -0.21830729
0001b0 2f 2c 4c 3d a5 be 6d 3e 62 91 58 be 0d c9 01 3e
       0.049846824 0.23217256 -0.21149209 0.12674351
0001c0 b8 7c 3e 3c 05 47 d3 3c ee c2 32 be 08 93 f2 bd
       0.011626415 0.0257907 -0.17457172 -0.1184445
0001d0 4a 9e 8a 3e 5d b9 df bd c0 55 55 3e e6 af 2c be
       0.2707389 -0.10924027 0.20833492 -0.16863975
0001e0 1c f0 0e be d4 54 b5 3d 35 bb 9c 3e b5 25 0c 3e
       -0.13958782 0.0885407 0.30611578 0.13686259
0001f0 2a 87 5c 3e e9 1d cc 3d 49 9b 84 3e 60 36 03 be
       0.21535936 0.099666424 0.25899723 -0.12813711
000200 6c 12 0b 3d bf 07 f6 bd 8d c9 71 be a4 41 9c 3e
       0.033953115 -0.12013196 -0.23612042 0.3051883
000210 d6 d1 bc 3c 85 d9 00 be 13 af 54 3c 53 5a 74 be
       0.023049276 -0.12582977 0.012981194 -0.23862581
000220 91 60 c5 3d 56 17 3c bd 15 ea 73 be 09 11 13 be
       0.09637559 -0.045920692 -0.23819764 -0.14361967
000230 3b 62 1d 3d a7 2d 6b 3e 33 a2 8e 3e 91 bc ce 3d
       0.038423758 0.22966634 0.27858123 0.1009456
000240 80 b7 58 3b 00 34 72 3b 3f 59 1b be 4e 83 5e be
       0.003306836 0.0036957264 -0.15170763 -0.21729776
000250 60 c8 a8 3c e0 0e 47 3e 2c 88 a0 bd 80 64 8a 3c
       0.020603359 0.19439268 -0.07838473 0.016893625
000260 29 ee 1d be 87 d4 88 be 38 66 80 be 14 27 76 3e
       -0.15422882 -0.26724645 -0.25077987 0.24038345
000270 ab 7f 1e bd f7 4b 44 3e 90 b9 e7 3d c1 de fd 3c
       -0.038695972 0.19169603 0.1131469 0.030990006
000280 04 3e e7 bd 43 27 6c be 45 64 ae bc 10 de b7 3c
       -0.112911254 -0.23061852 -0.021288047 0.022444755
000290 5b 8a 37 3e 64 cf fa bd 45 bf df 3d 6f c0 0e 3e
       0.17923872 -0.12246588 0.10925154 0.13940595
0002a0 54 dc 9f bd 5a 18 43 be 6b d1 72 bc 82 b3 43 be
       -0.07805696 -0.19052258 -0.014820437 -0.19111446
0002b0 e0 0b 1a be 1f 85 e9 bd 0f 4b 59 3e 30 05 86 be
       -0.15043592 -0.11402344 0.21220039 -0.26175833
0002c0 49 9d ed bd c5 84 69 bd 6a 70 93 be ca 22 1d 3e
       -0.116022654 -0.057011385 -0.28796703 0.15345302
0002d0 35 3e c6 3c a9 3d 8c 3e e8 7e 0d 3e 9c fe 77 bb
       0.024199584 0.27390793 0.13817942 -0.0037840968
0002e0 93 e2 27 be 0c 4c 88 be 07 b0 da bc 86 84 27 3e
       -0.16395025 -0.2662052 -0.026695265 0.16359147
0002f0 f6 0d 92 be 18 3d 05 be b1 ae 30 3e 46 cf 4f 3e
       -0.28526276 -0.13011587 0.1725414 0.20293912
000300 45 40 08 3e 26 fa c0 bd 40 8a 5a 3d 00 43 a7 3b
       0.13305767 -0.09422712 0.0533545 0.0051044226
000310 e4 73 39 be 9e 6c 31 be fa 3c d2 3d 96 fd 94 be
       -0.18110615 -0.1732659 0.102655366 -0.2909972
000320 af c0 f5 3d 20 0f 64 be 87 e7 aa be 8d 85 ae be
       0.11999642 -0.22271395 -0.33379766 -0.34086266
000330 52 10 45 be 57 f6 79 3e cd 56 13 be c7 d7 55 3e
       -0.19244507 0.24410377 -0.1438858 0.20883094
000340 1d 8b b8 3b e6 a4 36 be 24 b0 01 be 61 f9 89 be
       0.005631818 -0.17836341 -0.12664849 -0.26948074
000350 18 1b 41 be b1 f2 6d be e6 52 91 3e ca 21 d8 3d
       -0.18857992 -0.2323711 0.2838356 0.1055332
000360 b3 55 55 be 2d 43 3f 3e 0b c9 09 be e3 ef a1 3d
       -0.20833473 0.1867797 -0.13455598 0.07907083
000370 00 45 c8 3d 24 40 0b 3d 84 38 b8 3e 94 aa b4 3e
       0.09778786 0.033996716 0.35980618 0.3528639
000380 77 f2 e5 3c ac 7d 1d bd c2 23 da bd f6 55 06 3d
       0.028069718 -0.03844993 -0.106513515 0.032796822
000390 cc 31 3e 3e a0 64 81 3e 1b fc 07 3d 79 75 c5 bd
       0.18573684 0.25272083 0.03319941 -0.09641547
0003a0 39 db e4 bc 4c 49 d1 3d 53 e7 62 be bd 4d 4e 3d
       -0.027936565 0.102190584 -0.22158556 0.050367106
0003b0 65 b9 57 3e d4 41 29 3e 22 e4 b4 3d f1 1d 4f be
       0.21066816 0.16529018 0.088325754 -0.20226265
0003c0 fa 49 74 bd 62 d5 3f be 63 3a a8 bb a0 8f bc 3e
       -0.059640862 -0.18733743 -0.0051339134 0.36828327
0003d0 11 a2 5d bd fd 2e 71 bd c0 39 61 3e 56 53 16 3e
       -0.054109637 -0.058882702 0.21994686 0.14680228
0003e0 e8 c8 23 3d 2a 01 66 3e dc 58 06 3e 98 b0 1c bc
       0.03998652 0.22461382 0.13119835 -0.009563588
0003f0 6d 1e 1d 3e 72 39 43 3e ec d9 1c 3d 83 fb 6b 3e
       0.15343638 0.19064882 0.038293764 0.23045163

fc1.bias f4 [128]
000000 0b de 4f 3d 7f f7 16 3e c6 c7 82 3e 4f f7 00 3e
       0.050748866 0.1474285 0.2554304 0.1259434
000010 10 e9 64 3e b3 d4 9f be bb 99 3a be ea 07 b5 3e
       0.22354531 -0.31216964 -0.18222706 0.353576
000020 cf 35 19 be e8 15 a7 bd e4 30 68 be be 2c fb 3d
       -0.14961933 -0.08158475 -0.226749 0.12264393
000030 ec 2c 5f be b3 28 58 be bb 6b 87 be b0 3b c5 3d
       -0.2179448 -0.21109276 -0.2644938 0.09630525
000040 0c de b7 bd c4 47 96 3d 89 cb 17 3e 28 a8 5c be
       -0.08977899 0.07337907 0.14823736 -0.21548522
000050 6c 73 94 3e 08 d4 e1 3d e0 f1 d7 bd 13 fe 57 3e
       0.2899431 0.1102677 -0.10544181 0.21093015
000060 a6 6f 02 be b0 18 e0 bd 3c 29 fe 3c de 2c 0f be
       -0.12737903 -0.10942209 0.031025521 -0.13981959
000070 b0 07 8e 3e 88 e6 15 3d b4 a4 2f be 34 87 6c be
       0.2774024 0.036596805 -0.17152673 -0.23098451
000080 68 1d a1 3c 27 5f 17 be 70 f1 1d be e2 96 90 bd
       0.019667342 -0.14782391 -0.15424132 -0.070600286
000090 ec 02 94 bd 34 ce 1c 3d 93 ca a9 3e da 96 20 be
       -0.0722712 0.038282588 0.33162364 -0.15682545
0000a0 ec 0a 5e be 3a dc ea bd 9d f2 d1 ba cf eb 3e be
       -0.21683854 -0.11467786 -0.0016017739 -0.18644641
0000b0 6d 82 a9 3c 6a 32 03 be e6 70 02 be 7b f8 b8 bd
       0.020692075 -0.128122 -0.1273838 -0.09031769
0000c0 1f de 77 3e be 57 86 bc ca 25 63 3e f7 ea 87 bd
       0.24205826 -0.01639926 0.22182384 -0.06636613
0000d0 24 fd a9 bd 0c 6e d2 bd 8c 6a 6c 3e 67 6d 9a 3d
       -0.08300236 -0.10274896 0.2308752 0.07540398
0000e0 c1 fd ac 3e 3b c3 a6 be b2 30 98 be b8 98 20 3e
       0.3378735 -0.32570824 -0.29724652 0.15683258
0000f0 7f da 06 be 46 00 6b be 00 ac 7c bc e2 5c 52 3d
       -0.13169287 -0.22949323 -0.015421867 0.05135811
000100 20 15 17 be 37 33 cc 3d 74 96 84 be d5 9c 96 3e
       -0.14754152 0.09970706 -0.25896037 0.29416528
000110 e6 8c 76 3e 49 8a 63 be 06 f3 0c 3e 31 87 6e 3d
       0.24077186 -0.2222072 0.13764581 0.058234397
000120 61 53 22 3d 87 13 a7 bd fe 42 3b be 51 03 34 3d
       0.039630298 -0.081580214 -0.18287274 0.043948475
000130 8b cb 37 be ec f8 27 be 70 56 07 be 86 a2 94 bd
       -0.17948739 -0.1640355 -0.13216567 -0.072575614
000140 fb 79 7c bc ea 4a 03 bd 66 8a a6 3e b2 62 11 be
       -0.015409942 -0.032053865 0.32527465 -0.14197806
000150 80 08 53 bd 39 dc 83 3e 4b 66 9b 3e 95 98 9c be
       -0.051521778 0.25753954 0.3035148 -0.3058516
000160 35 f7 a1 3d dd cd 5a be 44 e3 66 be 5b a9 67 be
       0.07908479 -0.21367593 -0.22547632 -0.22623198
000170 ee 0c bd 3e 29 b0 72 bd 60 56 4a 3e 86 26 64 3e
       0.36923927 -0.05925003 0.19759512 0.2228032
000180 c6 91 7d bd 1c 84 85 3e 60 8a cc 3d ac 69 f2 bc
       -0.0619066 0.26077354 0.099873304 -0.029591404
000190 d0 b4 53 be 88 50 18 be c7 4c 30 be 2a ae 60 be
       -0.20674443 -0.1487447 -0.17216788 -0.21941438
0001a0 2f 49 68 be 19 b6 71 3e 41 87 6f 3e 98 15 93 3c
       -0.22684167 0.23604621 0.23391439 0.017954633
0001b0 95 06 98 3e a7 59 67 be 34 1b 43 be a5 bf 7d 3e
       0.29692522 -0.22592793 -0.19053346 0.24780138
0001c0 73 2b 13 be b4 77 8f be cd 5a 17 3e 35 5e c0 be
       -0.14372043 -0.28021014 0.14780731 -0.37571874
0001d0 c8 cf de 3d cf ef 47 3e c0 2e fd 3d de 4b 1b 3c
       0.10879475 0.19525073 0.123624325 0.009478537
0001e0 5e 13 8d bd 4c 34 3f be 17 41 0e bd 7f ec 6a be
       -0.068884596 -0.18672293 -0.034730043 -0.22941779
0001f0 c6 c4 fa 3c 81 6c 23 3e 1e af e7 3d 27 6a 75 3e
       0.030611407 0.1595936 0.11312698 0.23966275

fc2.weight f4 [128, 128]
000000 25 9e eb bd 8d f4 e4 3a 0e 3c 43 be d3 93 ee bc
       -0.11504773 0.0017467901 -0.19065878 -0.029123222
000010 19 b7 36 be 9a 6e af bc 3a 2b c4 3d 2a d1 38 be
       -0.17843284 -0.021415044 0.09578557 -0.1804854
000020 2e 99 82 3c 51 a7 75 3d 05 fd 88 bd 1f bd 2e bd
       0.015942182 0.05997402 -0.06688885 -0.04266083
000030 d0 8c 84 3c a8 6d ea 3c ec 14 ce bd ae ce bd bd
       0.016180426 0.028616741 -0.10062584 -0.09267937
000040 8e 3f bb bd ae 75 fd bb 66 a0 94 bd 97 db c2 bc
       -0.091429815 -0.007734976 -0.07257156 -0.02378635
000050 a0 c4 03 be 70 90 0b bc 79 6d 27 bd f9 8c 90 bd
       -0.12867975 -0.008518323 -0.040875886 -0.070581384
000060 23 c5 e9 3a e4 ba f2 bd 46 50 e7 bc 23 31 3e bd
       0.001783524 -0.11852053 -0.02823652 -0.04643358
000070 b3 9c de bd 36 af 20 3d 77 48 95 bb 3b e7 06 be
       -0.10869732 0.039229594 -0.0045557576 -0.13174145
000080 68 3d 0e 3c ec c5 93 bd 59 85 05 3d fe 7c a1 3c
       0.008681633 -0.07215485 0.032597873 0.019712921
000090 b4 f1 5b bc 0c b8 96 3d 61 58 0c be 71 c7 47 bd
       -0.013424326 0.07359323 -0.13705589 -0.048774187
0000a0 53 9f 63 bd 9b 59 e0 bd e3 dd c9 bc f1 03 a9 bd
       -0.055571865 -0.10954591 -0.024641937 -0.08252705
0000b0 e6 b0 85 3d e1 4d 99 bd 8a 70 99 bc f2 26 6e bd
       0.06527881 -0.07485557 -0.01873042 -0.05814261
0000c0 fa 1a 2c bd 97 7e e1 bd 1d 8f d7 3c 9a ab 10 be
       -0.042017914 -0.11010473 0.026313359 -0.14127961
0000d0 28 27 da 3c 86 ef 63 bd f8 17 c7 3c 2f 5e 2b be
       0.02663 -0.05564835 0.024303421 -0.16735147
0000e0 e9 f5 10 3c 40 63 f4 bc f6 fe d1 bd 97 fb 25 bd
       0.008847692 -0.029832482 -0.10253708 -0.040523138
0000f0 c2 04 01 3c 14 52 16 bd c1 7d 4b 3d 93 1d ad bd
       0.0078746695 -0.03669937 0.049680475 -0.084529065
000100 fe 90 a5 bd 6b b6 8b bd e5 50 e6 bc 60 da e0 bd
       -0.08084296 -0.06821903 -0.028114745 -0.10979152
000110 60 5f 4a bd 09 39 ac 3c 02 f8 e5 bc f3 1c 19 be
       -0.049407363 0.02102329 -0.02807236 -0.1495245
000120 c0 93 55 bb bd c2 f6 bd e5 1b 32 ba 16 1e 17 3d
       -0.0032589287 -0.12048862 -0.0006794318 0.036893927
000130 ce 58 18 bc d8 f6 ec 3d 00 8a ab bc 65 71 01 bd
       -0.009298516 0.11570519 -0.020939827 -0.031602282
000140 9b 0d dc bd 77 67 b5 3c 13 19 db bb f1 42 06 3d
       -0.107447825 0.022144062 -0.0066863387 0.032778684
000150 6f b8 ea 3c 63 99 2d bd cf 25 0b 3b 90 6c 8e 3d
       0.028652398 -0.04238261 0.0021232252 0.069543004
000160 1b 64 02 be b0 fe c3 bb bc 51 fc bd 72 ca 30 3c
       -0.127335 -0.005981289 -0.12320277 0.010790454
000170 01 12 87 bd c8 d0 94 bd 44 9c af bd b3 3d 50 bd
       -0.06595231 -0.07266384 -0.08574727 -0.05084009
000180 9a 6a cb 3d e7 5a 35 3c 65 d7 49 3d 1c dc c5 3d
       0.09932442 0.011069036 0.04927768 0.09661123
000190 2a 6f 97 bd ad 04 7d bd 15 b2 58 bd e9 d6 87 bc
       -0.0739425 -0.061772037 -0.052904207 -0.01658197
0001a0 8c df 2b 3c 03 e7 8d bc e7 d5 3b 3c e5 78 c7 bd
       0.010490309 -0.017322069 0.0114645725 -0.09739856
0001b0 b1 1c 18 be 39 8e 72 3d 5f 28 52 bc 8b 98 84 3d
       -0.14854695 0.059217665 -0.012827008 0.06474408
0001c0 3e 04 80 3c 55 ba 39 3e fb d3 0c bd 8e 94 d2 bd
       0.015627023 0.18137486 -0.034381848 -0.10282241
0001d0 9e 35 30 be 09 83 01 bc 0b 48 99 3d 36 93 57 3d
       -0.17207953 -0.007904776 0.07484444 0.052630626
0001e0 4f fa 77 3d 50 2c 42 bc 5b a0 7d 3c 46 fd 23 bb
       0.060541447 -0.011851385 0.015480126 -0.002502279
0001f0 42 d1 d9 bd 59 c8 c3 bd d8 2d 19 3d 34 16 50 be
       -0.10635616 -0.09559698 0.037397236 -0.2032097
000200 5b 50 f5 b9 22 c4 9c bd 1a 7d 30 bd 84 ed a7 bc
       -0.0004678991 -0.07654597 -0.043088056 -0.020498998
000210 39 92 e4 bd 20 46 66 3b 2c b3 ee 3c 6e 7a 8f bc
       -0.11160702 0.0035137013 0.02913817 -0.017514434
000220 05 e0 70 bd a3 5a 4d bd 75 94 aa bd 13 22 da bd
       -0.05880739 -0.050135266 -0.08329097 -0.106510304
000230 39 37 92 bd 30 c6 92 bc 0a ee 33 3d d8 70 46 bd
       -0.07139439 -0.017916769 0.043928184 -0.04844746
000240 4c eb e6 bc 4e 40 32 3d 5d 9d fb bd 08 3d 99 bd
       -0.02818837 0.043518357 -0.12285874 -0.07482344
000250 28 f9 05 be 22 38 48 bd f0 3e db 3b a3 c7 41 bc
       -0.13083327 -0.048881657 0.0066908523 -0.011827382
000260 c7 ad 34 bd 40 0e e3 3c 42 f9 a9 bd 5a 17 8a bd
       -0.04411104 0.027716756 -0.08299495 -0.06742735
000270 d9 0d 83 bc 7d 5c 99 3d 90 99 ac bc 10 9b 0e 3d
       -0.015997814 0.07488344 -0.021069318 0.034815848
000280 c8 90 08 be 69 44 a9 3d 00 f8 71 3a fe 00 ac bd
       -0.1333648 0.08265001 0.0009230375 -0.08398627
000290 23 62 06 bd 70 8a c0 3b 2a e8 9c bc 52 a3 60 3d
       -0.032808434 0.005875878 -0.019153673 0.054843254
0002a0 72 27 02 bd ea d5 a3 bd 59 95 8d bd 12 e5 53 3d
       -0.0317759 -0.07999785 -0.069132514 0.05173213
0002b0 60 63 8a 3c 4c 83 9c 3c fa 56 80 bd 51 f2 89 bd
       0.016893089 0.019105576 -0.062665895 -0.06735671
0002c0 a2 2e de bd 40 c7 bc bc 06 0d 18 bd 78 63 9e 3c
       -0.10848738 -0.023044229 -0.037121795 0.01933454
0002d0 f1 33 63 bd 3c 7f a1 3c 06 a2 bc bd 29 78 38 bd
       -0.055469457 0.01971399 -0.09210591 -0.04503647
0002e0 e5 b4 92 bd f4 24 81 3c 50 3e c2 bb 90 9a 5e bc
       -0.07163409 0.015764691 -0.0059278384 -0.013586655
0002f0 61 f9 90 3d 9d 46 50 bd db 5d 4a bd a0 82 20 3c
       0.07078815 -0.050848592 -0.049405914 0.009796768
000300 dd cd 8c 3d aa 01 05 bd b0 e1 25 3c bd 67 e5 bd
       0.06875203 -0.03247229 0.010124609 -0.11201427
000310 a9 0c 35 bd 5c e6 c2 bd b6 76 ca bd a1 fb 7e bd
       -0.044201527 -0.09516594 -0.098859236 -0.06225169
000320 18 5b cb bd 4c ab 15 3d 7b 45 42 bd d6 40 d6 bc
       -0.09929484 0.036540315 -0.047429543 -0.026153963
000330 70 25 35 3c 5a 1a b4 bd 58 40 6f bc 57 f7 84 bd
       0.011056289 -0.08794089 -0.014602743 -0.06492489
000340 2a 01 9c bc f3 36 05 be cb 9f f3 bb ae f6 93 bd
       -0.019043524 -0.13009243 -0.0074348203 -0.07224785
000350 40 d7 d9 3c 0e 96 53 bd 00 18 cf b9 f9 d3 be 3c
       0.026591897 -0.051656775 -0.00039499998 0.023294436
000360 f8 c1 f2 bd b7 06 03 bd ec 60 f8 3b c2 eb 30 3d
       -0.11853403 -0.031988826 0.0075799134 0.043193586
000370 e3 14 ce bd 8f db 54 bd ee 8d 6b bd 12 28 c9 bd
       -0.100625776 -0.0519672 -0.0575084 -0.09822096
000380 57 6d 56 bd 58 28 93 bd e9 7b a2 bb 20 2e a7 bd
       -0.05235037 -0.07185429 -0.004958619 -0.081630945
000390 84 33 86 3c b5 e0 9e 3d 52 39 5a 3d 2c 17 f0 3c
       0.016381986 0.07757703 0.05327732 0.029307924
0003a0 be b1 3c 3d cc e6 83 3c af af b1 3c 49 0d 0a be
       0.046067946 0.016101263 0.021690218 -0.1348163
0003b0 d3 bd 01 be f0 79 27 bd 90 18 91 bb 4c 44 8f bc
       -0.12670068 -0.040887773 -0.004427977 -0.017488621
0003c0 bd 15 d5 bd 0a b1 93 bd ab b2 92 bd 2d 70 4e bd
       -0.10404537 -0.07211502 -0.071629845 -0.050399948
0003d0 4d 81 d7 3c d7 f1 ce bd 28 4c 02 bc 45 b8 43 bd
       0.026306773 -0.10104721 -0.007952727 -0.047783155
0003e0 90 87 7f 3c 5d f2 9c bd a8 3c f8 3c ae 60 8f bd
       0.015596285 -0.076634146 0.03030236 -0.07000862
0003f0 35 d1 02 bd a1 e3 68 bd 47 4d 02 be f0 62 7b bd
       -0.031937797 -0.05685771 -0.12724791 -0.06137365

fc2.bias f4 [128]
000000 1f 63 5f bc 2a bf 8a 3c dd 9f 8b bd e2 0f 02 bc
       -0.013634472 0.016936857 -0.06817601 -0.007938357
000010 9b ec ef 3d 96 27 c5 bc d7 65 d5 3d 8c 6d d8 bc
       0.11715051 -0.024066728 0.10419815 -0.026419424
000020 10 ee d6 3d 84 e6 a1 bc 77 03 94 3c 8d 54 82 3d
       0.104946256 -0.019763239 0.018068058 0.06363783
000030 5f cb 93 bd 3a ea 02 3b 1e e3 41 bc ce 87 8c bc
       -0.07216524 0.0019976036 -0.011833934 -0.0171546
000040 b1 5f b4 bd 8e 36 05 3e f0 64 b2 bd c1 5e 0c 3e
       -0.08807314 0.13009092 -0.087106586 0.13708021
000050 ec b5 03 3c 74 a1 e0 3d 8f b7 61 3d b3 55 87 bc
       0.008038979 0.10968295 0.055106696 -0.016520357
000060 68 80 77 3c 88 4a a8 3c 00 ca 72 b9 a2 5d 2e bd
       0.015106298 0.020543352 -0.0002315417 -0.042569764
000070 d1 54 c9 3d 32 f5 e4 bd 36 8e 0d 3e ae d1 ab 3b
       0.098306306 -0.1117958 0.1382378 0.0052435016
000080 f3 80 ad bd 06 cd 9b 3d fa fe 9f 3d 0b 1a 61 bd
       -0.08471861 0.076074645 0.07812305 -0.054956477
000090 61 21 1e 3e 88 24 81 3c 9f 7f 5e 3d 0f 05 a6 bd
       0.1544242 0.01576449 0.054320928 -0.081064336
0000a0 cf ab b1 bd 72 e5 1a 3e 2e f3 82 3a ac 29 71 3d
       -0.08675348 0.15126589 0.0009990686 0.058877632
0000b0 a6 02 5f bc 9a bb 90 bd 1a c0 00 3c d1 f2 2b 3e
       -0.013611471 -0.07067032 0.007858301 0.16791846
0000c0 a7 f4 99 ba 34 c0 7f 3d 3e db 17 be 7c 9a 33 bd
       -0.0011745886 0.06243916 -0.14829728 -0.0438485
0000d0 88 07 1c bd f0 79 cd bc bd 61 52 bd 37 e1 ac bd
       -0.03809312 -0.025082558 -0.05136274 -0.08441394
0000e0 b1 9d ec bd 9d 9c 6e 3d af 77 08 3e 30 04 2d 3c
       -0.11553515 0.058254827 0.13326906 0.01056008
0000f0 36 1f 49 3e f3 52 14 3e 14 e1 fa 3c ba c4 08 3e
       0.19640812 0.14484768 0.030624904 0.13356295
000100 1b 91 72 3d e6 3f b0 3c fe 98 2b 3d bc 21 14 3c
       0.059220415 0.021514844 0.04189395 0.009041246
000110 3c b4 d5 bd a3 a9 82 3d 05 13 da bd 59 47 dd 3c
       -0.104347676 0.06380012 -0.10648159 0.02701156
000120 a6 94 15 3e a8 54 b7 3c 71 5d c5 bd aa b3 38 bb
       0.14607486 0.022379234 -0.09636963 -0.002818326
000130 67 88 f8 3d a2 b6 96 bd 60 ac 13 3b 2f 70 ac 3c
       0.12135392 -0.07359053 0.0022533163 0.021049587
000140 4d 4b a9 3c a0 c4 e9 3d b9 04 04 3e 8d f2 f0 bd
       0.020665789 0.11414456 0.12892427 -0.11765013
000150 44 0e 4e 3c b9 59 15 3d 9a 77 7f 3d 71 93 2d 3e
       0.012576643 0.03646252 0.06236992 0.16950776
000160 19 77 91 3d 7e cb be bd ef d6 be bd 32 af 1a bd
       0.07102794 -0.09316157 -0.09318339 -0.037764736
000170 0d 32 cc 3d 1f 19 05 bd af 54 5e 3d 3b 53 36 3e
       0.09970484 -0.03249466 0.05427998 0.17805187
000180 1e 14 03 bd bf 12 df bd 17 d5 d3 bd 5f b6 69 bd
       -0.032001607 -0.108922474 -0.10343378 -0.05705869
000190 e0 83 70 3d a3 ec 34 bd fc 33 84 bc aa e1 53 bd
       0.058719516 -0.044170987 -0.01613807 -0.051728882
0001a0 e7 d3 45 3e db 13 29 3e 97 e0 c1 bc 41 5f 9e 3d
       0.19319116 0.1651148 -0.023666663 0.07733012
0001b0 c3 82 17 bd 65 31 c4 bc bb e7 22 3d 8f f5 01 3d
       -0.03698994 -0.023949334 0.039771777 0.031728324
0001c0 d0 ae d3 bd 47 30 61 bd 26 ef 05 be 9e 0f 1d 3d
       -0.10336077 -0.05497768 -0.13079509 0.03834497
0001d0 fd 4f ac 3c ba a7 f5 bd 52 79 10 bd 06 a9 8b 3c
       0.021034235 -0.11994882 -0.03527195 0.01704837
0001e0 86 02 03 be be 90 31 bd b0 2a bc 3b f0 6f 09 3d
       -0.12793931 -0.043350928 0.0057423934 0.033554018
0001f0 72 12 49 bd b2 c8 14 3d ee 26 a1 bd ca f0 a9 3d
       -0.049089856 0.03632421 -0.078687534 0.0829788

fc3.weight f4 [3, 128]
000000 ff 2a 0a bd e9 37 b0 bd b7 84 bb bd f5 97 68 3d
       -0.03373241 -0.08604414 -0.09156173 0.056785543
000010 cd 57 25 bb a1 c6 ca bd d9 a1 5a bd 4b 30 93 3d
       -0.0025229335 -0.09901167 -0.053377006 0.071869455
000020 96 79 24 bd 2c 3d 07 3d b8 b5 78 bd 0d f0 09 be
       -0.040155016 0.033017322 -0.060720176 -0.13470478
000030 70 f6 e6 bb bc 6c be bd bd 75 b4 bd 2b 26 86 bd
       -0.0070484206 -0.09298083 -0.08811519 -0.06550249
000040 e3 d8 99 3d 67 45 f7 bc 1c a8 8d bd 12 28 dc bd
       0.07512071 -0.03018446 -0.0691683 -0.1074983
000050 b3 d2 63 bc 9b 1a 0c be db 39 5f bc 8c 8c f3 3c
       -0.013905215 -0.13682024 -0.013624634 0.029730104
000060 45 42 00 be 77 73 40 3d 70 96 96 3c 97 35 04 bd
       -0.1252528 0.046985116 0.018382281 -0.03227767
000070 b1 d8 c3 bd 15 d7 37 3d 27 33 1a be 67 56 b8 bc
       -0.09562815 0.044882853 -0.15058576 -0.022502137
000080 70 38 4f bc 7b 9b 20 bd e8 34 d4 3b 06 23 fb 3c
       -0.012647733 -0.039210778 0.0064760335 0.030656349
000090 29 c8 fb bd 52 87 1f bd 4f cd 24 bc 87 ac 3f 3d
       -0.12294037 -0.03894741 -0.010058715 0.046795394
0000a0 20 9c 46 3c e7 6d 3c bd 26 a5 f4 bc 2f e8 8c bd
       0.012122184 -0.04600325 -0.029863905 -0.06880223
0000b0 8b 05 ab bd 0e b8 1d 3d 00 a7 4d 3d 45 ee 3a be
       -0.083506666 0.038505606 0.05020809 -0.18254955
0000c0 b2 8f 8b 3c 93 e0 5b bc 42 d0 1f 3d 77 77 51 bd
       0.017036293 -0.013420242 0.03901697 -0.05113932
0000d0 a7 71 e4 3c c8 fb 82 bd 4c 50 e0 3c 45 fd 5e bd
       0.027886225 -0.0639568 0.027382039 -0.054440755
0000e0 7b c3 d0 b9 53 f7 5c bb db 70 0a be bf f0 ec bd
       -0.00039818496 -0.0033716753 -0.13519613 -0.11569356
0000f0 12 f3 24 be eb 8f 2b be 90 bf 5f bd 48 42 04 be
       -0.16108349 -0.16754119 -0.054626048 -0.1291591
000100 04 17 94 bd 41 46 9c bc 41 b3 52 3d 25 d1 80 bc
       -0.072309524 -0.019076468 0.05144048 -0.015724728
000110 c8 0a f2 bd 15 47 ac bc 56 de 93 bc 85 01 88 bd
       -0.118184626 -0.021029988 -0.018050354 -0.06640915
000120 bf 94 cd bd 49 81 f2 bd 26 c1 75 3c c1 f8 63 bd
       -0.10038137 -0.118410654 0.014999663 -0.055657152
000130 b6 f2 45 bd b6 6f a2 bc 65 18 90 3d 31 69 42 bd
       -0.04832717 -0.019828659 0.07035903 -0.0474636
000140 78 b2 86 bd 02 2a d0 bd b7 0c 92 bd a8 94 e5 bc
       -0.06577009 -0.10164262 -0.071313314 -0.028024986
000150 07 3d cf bb 50 ba 8a bd 52 43 21 be cb af f1 bc
       -0.0063244137 -0.067738175 -0.15748337 -0.02950277
000160 cc b1 ac bd 86 ca 1a 3c 5b ba 63 3c d7 11 8f 3d
       -0.084323496 0.009447699 0.013899411 0.069858246
000170 1d 65 94 bd 00 ae 5a 3c 2f ef e3 bc d4 4f 1e bd
       -0.07245848 0.013347149 -0.027824013 -0.03865035
000180 a9 eb f1 bc ca 05 14 bc ef 6e cf bd cc 94 f2 bb
       -0.029531317 -0.009034583 -0.10128581 -0.007402992
000190 60 9f 1d bc 76 a4 37 3c e2 bf 8d bd 9f fe a7 bc
       -0.0096205175 0.011208644 -0.06921364 -0.020507155
0001a0 8d ed ec bd 6f f6 84 bd 2e f8 6e bc f7 47 81 3d
       -0.11568747 -0.06492316 -0.014585538 0.06312554
0001b0 0c d9 3e bd 47 3d f3 bc bd 2a 91 b9 c1 e2 69 3a
       -0.04659371 -0.029692305 -0.00027688398 0.00089220336
0001c0 2a 06 46 bc 77 ad 71 bc 1e 72 96 bc b5 76 fe bd
       -0.012086431 -0.01475083 -0.018364962 -0.12424985
0001d0 fc a0 bf bd 99 aa 9a 3d a2 30 48 3b 93 3a 63 3c
       -0.09356877 0.0755207 0.0030546566 0.013868946
0001e0 de 17 6c 3d 9a 01 d0 3c c0 8f 19 bb 88 2a d3 3b
       0.05763995 0.025391389 -0.002343163 0.006444279
0001f0 e0 f5 a8 3b d7 d6 81 bd 23 6b 88 bd 3c 17 63 3d
       0.0051562637 -0.063398056 -0.0666106 0.05544208
000200 e8 91 9b bd 85 3d 89 bd 50 c2 3c bc fc 32 b9 3c
       -0.07596189 -0.06701187 -0.011520937 0.022607319
000210 87 1b 49 bd 8f 73 9a 3c bc 83 d0 bd f3 0d 80 3d
       -0.049098518 0.01885393 -0.10181376 0.062526606
000220 97 e3 0c be 48 91 51 bc af d8 79 3c cb 6f 0e be
       -0.13758694 -0.012790985 0.015249415 -0.13909833
000230 9d 65 a3 3d b9 97 d0 bc b4 da cb bc 7e 87 25 3d
       0.079783656 -0.025462972 -0.02488456 0.04041242
000240 0b 2f 80 3d 73 e4 99 3b de b6 48 3d 78 5e db bc
       0.06258973 0.0046964227 0.04900252 -0.026778445
000250 a6 0c 8d bd 76 df bc bc a9 51 a2 bd f7 f6 80 3c
       -0.06887178 -0.023055773 -0.07925732 0.015742762
000260 a7 01 bc bd 4a 86 ea bd 90 05 dd 3c 46 04 ae bc
       -0.09180003 -0.11451395 0.026980191 -0.021242272
000270 8d e1 c1 3c 77 86 10 3d 5e b7 36 be dd 7c 6c 3d
       0.023667121 0.035284486 -0.17843387 0.057736266
000280 a5 c7 1e bd 31 ee 20 bd 14 3d 67 bd c7 bc 33 bd
       -0.038764615 -0.039289657 -0.056454733 -0.043881204
000290 25 ff f5 bd 50 fd 7d 3d 10 2f ce bd 6b 3a d8 3b
       -0.120115556 0.062009156 -0.1006757 0.006598761
0002a0 a0 0e b1 bd 70 32 1c bd e3 76 83 bd 28 32 9c bd
       -0.086453676 -0.03813404 -0.0641916 -0.07626754
0002b0 7c 88 35 3d 65 53 98 3d 8e e5 7e 3c bd 51 ec bd
       0.044319615 0.07437781 0.01555766 -0.11539028
0002c0 9c 90 41 be ad a9 43 bd a4 38 00 bd 96 5a 94 bd
       -0.1890282 -0.047769237 -0.031304017 -0.072438404
0002d0 5d 4b 79 bd 8c 82 84 bd e0 c7 8e 3c 8c cc bd bc
       -0.060862888 -0.06470212 0.017429292 -0.023168825
0002e0 84 c7 fa 3d 16 25 99 bd f1 d0 af bd e5 b5 e2 bd
       0.12245086 -0.07477777 -0.08584774 -0.1106985
0002f0 e5 e7 e5 bd 6f 3e 07 be c5 8f fd bd 18 37 0c be
       -0.11225871 -0.1320741 -0.123809375 -0.13692892
000300 2a 62 76 3d 8f fa 83 3d 23 02 61 3d 51 a2 1a bd
       0.06015221 0.06444275 0.05493368 -0.037752453
000310 90 ec f7 bd 15 f5 88 39 38 71 10 3c a1 91 b4 bd
       -0.121056676 0.00026122542 0.008816056 -0.08816839
000320 13 c4 6b bd c1 37 20 3d 4c c0 b0 3c fa ec 67 3c
       -0.057560038 0.03911567 0.02157607 0.014155621
000330 6c e2 0f be 16 8e e0 bd ae 0c 3b 3d 6c f5 e5 bd
       -0.14051217 -0.10964601 0.04566639 -0.11228451
000340 fc 32 b1 3d 80 b2 e3 bc f1 f6 22 bd 8d ae ea bd
       0.086523026 -0.027795076 -0.039786283 -0.11459074
000350 6c d7 51 3b ff c1 b6 3c f6 65 93 bc 2c bb 8f bd
       0.003201927 0.022309301 -0.017992955 -0.07018122
000360 4b a5 c5 bd d8 06 2b 3d d2 06 81 bc e6 51 2a 3d
       -0.09650668 0.041754574 -0.015750322 0.04158201
000370 91 f8 81 bc e3 fc ab 3d d2 15 1c be 9a dd 42 bd
       -0.015865596 0.08397844 -0.15242699 -0.047574617
000380 83 05 3b 3d 61 2a 6e bd f6 26 97 bd 75 16 91 bd
       0.045659553 -0.058145884 -0.07380478 -0.070843615
000390 7c d3 a4 bc 2b 80 81 3b 66 7d 53 bd b9 5b 96 3d
       -0.020120375 0.0039520464 -0.05163326 0.073417135
0003a0 18 ab d0 bd 12 9d ff bd 7f 0f 9a 3c da 02 1a 3d
       -0.101888835 -0.12481131 0.018806217 0.037600376
0003b0 36 31 71 3d 64 7d f1 3d f9 57 0f be a6 8e 22 bd
       0.05888482 0.117914945 -0.13998403 -0.03968682
0003c0 c2 34 20 3b 6d 20 39 bd d2 f0 da bb b4 28 bc bd
       0.0024445509 -0.04519694 -0.00668154 -0.09187451
0003d0 0f 19 a3 bd 2a e6 0d 3b c0 c6 21 3d 6d cd db bc
       -0.07963764 0.002165208 0.039496183 -0.026831353
0003e0 3b 11 a6 bb 8d 38 04 3e 22 a6 64 bd 28 aa 7f 3d
       -0.005067972 0.12912197 -0.0558225 0.062418133
0003f0 a0 ad f5 3b 21 6f 02 bd d0 e1 b6 3c 57 c5 88 3c
       0.0074975044 -0.031844262 0.022324473 0.016695661

fc3.bias f4 [3]
000000 ed 6c 0e 3d 8d 43 f2 3c 3f 30 3d 3d
       0.03477185 0.029573226 0.04618859
