scripts/models/pg/reinforce_run_7.pth (torch, 76888 bytes, 6 tensors)

fc1.weight f4 [128, 12]
0	0x3d6ec7e8	0.058296114
1	0x3cdbc300	0.026826382
2	0x3d8fa648	0.070141375
3	0xbdc49e92	-0.096005574
4	0xbd9d1fb8	-0.076720655
5	0x3c4f28a0	0.012643963
6	0xbd629828	-0.05532089
7	0x3e236752	0.15957382
8	0x3e307db8	0.17235458
9	0x3dbcfed4	0.09228292
10	0xbe8f8a57	-0.28035232
11	0xbe5be5a0	-0.21474314
12	0xbe71cb1a	-0.23612633
13	0xbe906325	-0.2820064
14	0xbe0f432a	-0.13990465
15	0xbe815300	-0.25258636
16	0x3e277c96	0.1635612
17	0x3e91e2db	0.2849339
18	0xbe0eb2c9	-0.13935389
19	0x3e0d4220	0.13794756
20	0xbe8a12bb	-0.26967415
21	0xbe292a30	-0.1652
22	0x3e0c0e71	0.13677384
23	0xbe7e823c	-0.24854368
24	0xbe3369a6	-0.1752077
25	0xbd23c05c	-0.03997837
26	0xbe5b7333	-0.21430664
27	0xbe151b76	-0.14561257
28	0x3e60ed9d	0.21965642
29	0x3e7693bb	0.24079792
30	0xbe355597	-0.17708431
31	0xbe7aeb07	-0.24503718
32	0xbe46b1b6	-0.19403729
33	0x3d9c6807	0.07637029
34	0x3dfaca41	0.12245608
35	0x3df2712b	0.11837991
36	0x3d57d9e5	0.052698035
37	0x3e237d3d	0.15965743
38	0xbe14fcd0	-0.14549565
39	0x3e82a9a9	0.25520065
40	0x3d987095	0.07443348
41	0x3e9020be	0.2814998
42	0x3e8a6c06	0.2703554
43	0xbd47695f	-0.048684474
44	0xbe32ac8b	-0.17448632
45	0x3c421252	0.011845188
46	0x3e3dfb26	0.18552837
47	0xbcf8e477	-0.030382378
48	0x3d596367	0.053073313
49	0xbdc896e2	-0.097944036
50	0xbda271d6	-0.07931869
51	0xbe20d955	-0.15707906
52	0xbe16302c	-0.14666814
53	0xbe87a55a	-0.2649334
54	0xbe31ab36	-0.17350468
55	0xbdc4824b	-0.09595164
56	0xbe759603	-0.23983006
57	0xbe181cbf	-0.14854716
58	0xbe6a6a7d	-0.22892185
59	0xbe929a04	-0.2863313
60	0xbdbf1c06	-0.09331517
61	0xbe00f55e	-0.125936
62	0xbe843af5	-0.2582623
63	0x3e94b770	0.29046202
64	0xbe39955a	-0.1812338
65	0xbd2ae23d	-0.041719664
66	0x3e61d2ba	0.22053042
67	0x3e7bf534	0.24605256
68	0x3e81c8c6	0.2534849
69	0x3cf5a03c	0.029983632
70	0x3dd8748b	0.10569104
71	0xbdd29b72	-0.10283555
72	0xbe8f9038	-0.28039718
73	0xbdb180b7	-0.086671285
74	0x3e0e4039	0.13891686
75	0xbe71775c	-0.23580688
76	0x3d0e9273	0.034807634
77	0xbd889ad2	-0.06670155
78	0xbc0a48b0	-0.008440182
79	0x3e20b5aa	0.156943
80	0xbd20af7b	-0.03922985
81	0x3d68bd86	0.05682137
82	0xbe8789b6	-0.26472253
83	0x3dd628b4	0.10456982
84	0x3db41c95	0.08794514
85	0x3c8863f8	0.016649231
86	0xbe0a9eac	-0.13537091
87	0x3d2b7991	0.04186398
88	0xbe5199e0	-0.20468855
89	0x3d84524a	0.06461008
90	0xbc8c6a1b	-0.017140439
91	0xbdc1a9bd	-0.09456203
92	0x3e3ff0b3	0.18744163
93	0xbd7b89c7	-0.06141069
94	0xbbcab5bb	-0.0061862147
95	0x3c541faa	0.012947002
96	0x3e67157c	0.2256679
97	0x3d35545a	0.044269897
98	0xbddfe3f0	-0.109321475
99	0xbbb757d1	-0.0055951853
100	0xbd709301	-0.058733944
101	0xbe1edcea	-0.1551396
102	0xbe4fe379	-0.20301618
103	0xbe1d7150	-0.15375257
104	0x3dc1d72d	0.0946487
105	0x3e30b562	0.17256692
106	0x3d6aab1a	0.05729208
107	0xbe8a1057	-0.2696559
108	0xbdae5654	-0.085125595
109	0xbe0a2ff4	-0.13494855
110	0x3e5469df	0.20743512
111	0x3e16a3c6	0.14710912
112	0x3e96f48f	0.29483458
113	0x3e7f2fa5	0.24920519
114	0x3e3973a8	0.18110526
115	0xbe4c41ee	-0.19947025
116	0xbd0351d8	-0.032060474
117	0xbd885ed1	-0.0665871
118	0x3da7e292	0.08197512
119	0xbe258585	-0.16164215
120	0xbe90c716	-0.2827689
121	0x3e516f70	0.20452666
122	0xbda71ae2	-0.08159424
123	0xbe7aa01d	-0.24475141
124	0xbe6eb370	-0.23310637
125	0xbc535cfa	-0.012900585
126	0xbe028020	-0.12744188
127	0xbe8b77f6	-0.2723996
128	0x3e3bdefa	0.18346778
129	0x3e0303d8	0.12794435
130	0xbe54216b	-0.20715873
131	0x3e61fd1d	0.22069211
132	0xbdc8134a	-0.09769304
133	0xbe6bfcf7	-0.23045717
134	0xbe099dda	-0.13439122
135	0xbd7afe54	-0.061277702
136	0x3e93265e	0.2874021
137	0xbe8e0afd	-0.27742758
138	0xbe5803a2	-0.21095136
139	0xbe25f108	-0.16205227
140	0xbb9ebe1e	-0.004844441
141	0xbde3d42f	-0.11124455
142	0xbe10a898	-0.14126813
143	0xbe19c5fd	-0.15016933
144	0xbdf022a7	-0.117253594
145	0x3dc06b71	0.09395493
146	0x3e80a7b8	0.2512796
147	0x3e359db3	0.17735939
148	0x3e95107a	0.29114133
149	0x3e4c45b8	0.1994847
150	0x3e9a4f1d	0.30138484
151	0xbe54c4e3	-0.20778231
152	0xbdd50056	-0.10400455
153	0x3e885c9b	0.26633152
154	0xbe81d64b	-0.25358805
155	0xbe120050	-0.14257932
156	0xbd627fff	-0.055297848
157	0xbe1aa2d5	-0.15101178
158	0x3e1d67ba	0.153716
159	0x3d750b0c	0.05982499
160	0xba5f8619	-0.0008526757
161	0x3e593729	0.21212448
162	0x3e65a2d1	0.22425391
163	0x3d8e8d98	0.069606006
164	0x3d064bc9	0.032787118
165	0x3e0be397	0.13661037
166	0xbcdfedc4	-0.027335055
167	0xbe6e0b25	-0.23246439
168	0x3dbf1473	0.09330072
169	0xbe1e8dd6	-0.15483794
170	0xbe726d06	-0.23674402
171	0xbc9c5e23	-0.019087857
172	0x3d410e50	0.04713279
173	0x3e572790	0.21011186
174	0xbe8035a6	-0.2504093
175	0xbc169518	-0.00919082
176	0xbdeffbd7	-0.117179565
177	0x3c9a8907	0.018864168
178	0xbdc9943f	-0.09842729
179	0x3c958346	0.018251073
180	0xbbeff57a	-0.0073229643
181	0xbe050d26	-0.12993297
182	0xbe1239f5	-0.14279921
183	0x3e91bec0	0.28465843
184	0xbc62d60b	-0.013844977
185	0x3e1c6c92	0.15275791
186	0x3dce1a48	0.100636065
187	0xbe4b9bb5	-0.19883616
188	0x3dfd0441	0.12354327
189	0x3dc9d25e	0.098545775
190	0xbe1acfe8	-0.15118372
191	0x3e7ccbe2	0.2468715
192	0x3e060eed	0.13091631
193	0x3cf7882d	0.0302163
194	0xbe54a81d	-0.20767255
195	0x3e1e7d02	0.15477374
196	0xbe685a04	-0.22690588
197	0xbdc13041	-0.09433032
198	0x3e5ca751	0.21548201
199	0x3c8e9641	0.017405631
200	0x3e1f37c3	0.15548615
201	0xbdf7ae7f	-0.12093829
202	0xbd911551	-0.07084144
203	0xbe43aa8d	-0.19108029
204	0x3e0ac063	0.13549952
205	0x3e259aee	0.16172382
206	0xbb42de64	-0.0029734606
207	0x3e5313b6	0.20612988
208	0xbe29dae1	-0.16587402
209	0xbdbde517	-0.09272211
210	0x3e0aced9	0.13555469
211	0xbe0b1df6	-0.13585648
212	0x3e834151	0.2563577
213	0xbdedc322	-0.11609484
214	0x3e82d6a8	0.25554395
215	0x3c2b8a32	0.01046996
216	0xbe894844	-0.26812947
217	0xbbd682ad	-0.0065463395
218	0xbe2a5015	-0.16632111
219	0xbdfe09c9	-0.1240421
220	0xbd8052bc	-0.0626578
221	0x3d6710b0	0.0564124
222	0x3e0f311e	0.1398358
223	0x3e01f296	0.12690195
224	0x3e325a75	0.17417319
225	0xbdae9797	-0.08525007
226	0x3e1ee488	0.15516865
227	0x3e67ee9c	0.22649616
228	0x3e1c4978	0.15262401
229	0xbe1bd65a	-0.15218487
230	0x3db2a362	0.08722569
231	0xbe564368	-0.20924151
232	0xbd54b880	-0.051933765
233	0xbcb01989	-0.021496551
234	0xbe138b97	-0.14408718
235	0x3e71049d	0.23536916
236	0xbd8347a7	-0.06410151
237	0xbdbb8530	-0.09156263
238	0x3ba249d7	0.00495265
239	0xbe3ee820	-0.18643236
240	0x3e2e3086	0.17010698
241	0xbe8023f8	-0.25027442
242	0xbe85c284	-0.26124966
243	0x3de1e460	0.11029887
244	0x3d5a190f	0.053246554
245	0x3db0a8fd	0.08625982
246	0xbe24f41d	-0.16108747
247	0xbe59cae7	-0.21268807
248	0xbe1a4a32	-0.15067366
249	0x3e0c13b7	0.13679396
250	0xbd49e878	-0.049293965
251	0xbc6332e2	-0.013867112
252	0xbe7eb484	-0.24873549
253	0xbe08ae82	-0.1334782
254	0x3e1ae3da	0.15125981
255	0x3df3c7f7	0.11903375

fc1.bias f4 [128]
0	0xbe8d63f1	-0.27615312
1	0x3d87e4fd	0.06635473
2	0xbbdd4fe4	-0.0067539085
3	0xbcd2ea4c	-0.025746487
4	0x3e70ae42	0.23503974
5	0x3e81e3a8	0.25369
6	0x3df2a202	0.11847307
7	0x3d52b540	0.051442385
8	0x3e80453a	0.25052816
9	0x3dbe0aca	0.092794016
10	0xbda9c1e0	-0.08288932
11	0xbde48eb0	-0.11160028
12	0x3d9755c2	0.07389404
13	0xbe7095ad	-0.23494597
14	0x3db9d4c4	0.09073785
15	0x3e8b5c39	0.27218798
16	0x3dd3d1fd	0.103427865
17	0xbe171f63	-0.14758067
18	0x3e96a414	0.29422057
19	0xbe4390d0	-0.1909821
20	0x3d2d990c	0.042382285
21	0x3e61653c	0.22011274
22	0x3e676403	0.22596745
23	0xbd08dbbf	-0.03341269
24	0xbdf6c5fb	-0.120494805
25	0xbe8c8010	-0.27441454
26	0xbe29d533	-0.16585235
27	0xbdd71a32	-0.10503043
28	0xbd965077	-0.07339566
29	0x3da123fc	0.078681916
30	0x3e79d97b	0.24399368
31	0x3e98b9ce	0.29829258
32	0x3df6b9c2	0.12047149
33	0x3da41e2d	0.08013568
34	0x3d9c8df6	0.076442644
35	0xbcce2441	-0.025163772
36	0xbe9404be	-0.28909868
37	0x3db5bb71	0.08873642
38	0x3e6239a1	0.22092296
39	0xbe4af87a	-0.19821349
40	0xbe031772	-0.12801912
41	0x3dc56b9c	0.096396655
42	0xbe92ef41	-0.2869816
43	0x3e965abe	0.29366106
44	0xbe90672b	-0.2820371
45	0x3dd753e6	0.10514049
46	0x3e6ef7b2	0.23336676
47	0xbce9ec9b	-0.028555205
48	0x3e95e0ee	0.2927317
49	0xbe3767ec	-0.17910737
50	0x3cb71d3c	0.022352807
51	0x3e5a5331	0.21320798
52	0xbdb8654d	-0.090036966
53	0x3dfd895a	0.12379713
54	0xbe8f7742	-0.28020674
55	0xbd083110	-0.033249915
56	0x3e3173e6	0.17329368
57	0xbdb2994d	-0.08720646
58	0x3e5b5255	0.21418126
59	0x3e3023a7	0.172011
60	0x3c2576ab	0.010099093
61	0xbe25f858	-0.16208017
62	0xbdbc6885	-0.09199623
63	0xbd86ac52	-0.06575836
64	0xbe028ad0	-0.12748265
65	0x3e1b9b9b	0.15196078
66	0x3e0910f8	0.1338538
67	0xbe015bfe	-0.12632748
68	0x3e6e3ba1	0.23264934
69	0xbdd0491c	-0.101701945
70	0xbbb33cd3	-0.0054698973
71	0x3d86f43f	0.06589555
72	0xbd73fefa	-0.059569336
73	0xbd7da3d2	-0.06192381
74	0x3e2cfbfa	0.16892996
75	0xbddd6816	-0.108108684
76	0xbe2f60bf	-0.1712675
77	0xbe010e35	-0.12603076
78	0xbe69d1ff	-0.22834013
79	0x3e506fc9	0.20355143
80	0xbd81580a	-0.0631562
81	0x3e7ddba5	0.24790819
82	0x3e9150c4	0.28381932
83	0x3d114f96	0.03547629
84	0x3e23cd30	0.15996242
85	0xbe057ab9	-0.13035096
86	0xbe8eea0f	-0.27912948
87	0xbe6117e6	-0.21981773
88	0x3e447812	0.19186428
89	0x3e79311a	0.24335137
90	0xbdb5510f	-0.08853351
91	0x3d8d5973	0.06901827
92	0x3e81d8c8	0.25360703
93	0x3e617a86	0.22019395
94	0x3caa41ec	0.020783387
95	0xbdb0c634	-0.08631554
96	0x3e918f52	0.28429657
97	0x3d7f8c9b	0.06238995
98	0x3dd9217a	0.10602088
99	0xbe2d04ce	-0.16896364
100	0xbe3412bd	-0.17585273
101	0x3e4bdcfb	0.19908516
102	0x3d5dfda8	0.054196984
103	0x3e668f30	0.22515559
104	0xbca08042	-0.019592408
105	0xbe6626dc	-0.22475761
106	0x3e774de9	0.24150814
107	0x3dbb95e2	0.09159447
108	0x3e1b1f53	0.15148668
109	0xbe44cc6c	-0.19218606
110	0x3e7a632c	0.24451894
111	0x3cb01e69	0.021498876
112	0x3e2de900	0.16983414
113	0x3d6e4a93	0.05817659
114	0x3e083144	0.13300043
115	0x3e774327	0.2414671
116	0x3cf11644	0.029429562
117	0xbd70feba	-0.058836676
118	0xbdc163d1	-0.094428666
119	0x3d03f049	0.032211576
120	0x3e847b8a	0.25875503
121	0x3e12eee9	0.1434895
122	0x3c1b996d	0.009497029
123	0x3e7cba7e	0.24680516
124	0x3df08a99	0.117451854
125	0x3d8abcd6	0.06774299
126	0x3e5de2e2	0.2166858
127	0xbe7ad6ec	-0.24496049

fc2.weight f4 [128, 128]
0	0x3d268066	0.040649794
1	0x3d8905ab	0.06690534
2	0xbd0cf8b1	-0.034416858
3	0x3d307a7d	0.043085564
4	0xbd5d6bb1	-0.05405778
5	0x3cd76ab5	0.026295999
6	0xbd130846	-0.035896562
7	0x3cdf4f77	0.027259571
8	0x3d84da60	0.06486964
9	0x3d407642	0.04698778
10	0xbd9db603	-0.077007316
11	0x3c99538f	0.018716602
12	0x3da36802	0.07978822
13	0x3da190ab	0.07888921
14	0x3d196cc1	0.03745723
15	0xbcecbbcd	-0.028898144
16	0x3c9feb8e	0.0195215
17	0x3d9d5602	0.0768242
18	0x3c416a97	0.011805198
19	0x3d49d316	0.049273573
20	0xbdbcfe34	-0.09228173
21	0xbc4be28a	-0.012444148
22	0x3d95310e	0.07284747
23	0xbca9d319	-0.020730542
24	0x3da9db14	0.08293739
25	0xbd78df2e	-0.060759716
26	0xbd69086c	-0.056892797
27	0xbc90b26c	-0.017663203
28	0xbca2366f	-0.019801347
29	0x3d1ffb4a	0.039058007
30	0xbdb4a345	-0.08820204
31	0x3d0d09f1	0.03443331
32	0xbd9db886	-0.07701211
33	0xbd43417c	-0.047669873
34	0xbd12985c	-0.035789832
35	0x3d6cf386	0.05784943
36	0xbda49927	-0.08037024
37	0xbd4a7df0	-0.04943651
38	0xbcc566e5	-0.024096915
39	0xbd699e6f	-0.05703586
40	0x3a35caf6	0.00069348456
41	0x3d001af0	0.03127569
42	0xbcdc2162	-0.026871387
43	0x3db1806a	0.08667071
44	0xbd1b77b7	-0.037955966
45	0x3c37655f	0.011193602
46	0x3d2bbe07	0.04192927
47	0x3d119b1e	0.035548322
48	0xbd4b0a99	-0.049570654
49	0x3d9147e7	0.070937924
50	0x3d91e1e3	0.071231626
51	0x3daa6c11	0.08321393
52	0x3bab13aa	0.00522085
53	0xbd8f0fcf	-0.06985437
54	0x3c7ee1d7	0.015556774
55	0xbc45c34e	-0.01207049
56	0xbd0866db	-0.033301216
57	0xbc2ac5eb	-0.010423164
58	0x3d5fcaa7	0.054636624
59	0x3a554c9a	0.00081367197
60	0x3d56666c	0.05234377
61	0x3d1c1e7e	0.038115017
62	0xbb6c4ca7	-0.003605643
63	0xbd929faa	-0.0715936
64	0xbd8223c7	-0.0635448
65	0xbdac12d4	-0.08402029
66	0xbdb27b3d	-0.08714912
67	0x3acf2bc0	0.0015805885
68	0x3d590528	0.052983433
69	0x3d79991a	0.060937025
70	0xbd0bd86c	-0.034141943
71	0xbd6ef17d	-0.05833577
72	0x3d2082c4	0.039187208
73	0x3ca238bb	0.019802442
74	0x3d90a774	0.07063189
75	0xbdb494a2	-0.08817412
76	0xbdb4c090	-0.08825791
77	0xbd5f7d39	-0.05456278
78	0xbd8b54b7	-0.068032674
79	0x3d74949d	0.05971204
80	0xbd5f6112	-0.054535933
81	0xbc8c3ade	-0.017117914
82	0xbd906926	-0.070513055
83	0x3da406c0	0.080091
84	0x3d2a4ab8	0.041575164
85	0x3cfe3061	0.031028928
86	0xbc2c793a	-0.01052695
87	0x3ccd16ce	0.025035288
88	0x3d901547	0.07035308
89	0x3d8df821	0.069320925
90	0xbc7a576b	-0.015279631
91	0x3da6d662	0.08146359
92	0x3d80d894	0.06291309
93	0x3b992c81	0.0046744947
94	0xbd2e55f8	-0.042562455
95	0x3b76dcc2	0.0037668203
96	0x3d97961d	0.07401679
97	0x3d845139	0.064608045
98	0xbd86ddb6	-0.06585257
99	0x3c5485d7	0.012971363
100	0x3d530683	0.051519882
101	0xbd926a9b	-0.0714924
102	0xbcc0ebba	-0.023549903
103	0xbda88c44	-0.082298785
104	0x3c5be058	0.013420187
105	0xbd9e7b1c	-0.07738325
106	0xbc2d2213	-0.010567206
107	0x3c04c805	0.008104329
108	0x3d18075f	0.037116405
109	0xbcbf72f1	-0.023370238
110	0x3d48b1e9	0.048997793
111	0x3aa191d7	0.0012326789
112	0xbc21fd76	-0.00988709
113	0xbd651087	-0.055923965
114	0x3c81dbf0	0.015851945
115	0xbc696b2d	-0.014246744
116	0x3c9831fa	0.018578518
117	0x3c3c4208	0.011490352
118	0xbd8169a4	-0.063189775
119	0xbd8d30a2	-0.068940416
120	0xbd328a67	-0.043589022
121	0xba0c05b8	-0.00053414283
122	0xbd4752c6	-0.048662923
123	0x3d641a31	0.05568904
124	0x3d26ab5f	0.040690776
125	0x3d49bb24	0.049250737
126	0x3da492f3	0.08035841
127	0xbdac6b43	-0.08418896
128	0xbd168a29	-0.036752854
129	0x3d980d74	0.07424441
130	0x3d00e534	0.031468585
131	0x3cb7ba28	0.022427633
132	0x3aad8900	0.0013239682
133	0xbda252fa	-0.07925983
134	0x3d8a08b8	0.06739944
135	0xbda97e9e	-0.082761034
136	0x3da93bf0	0.08263385
137	0xbd4ba075	-0.04971357
138	0x3d0e4ef5	0.034743268
139	0x3c96da98	0.01841478
140	0xba972610	-0.0011531729
141	0xbd4a4f1b	-0.049391847
142	0xbda82966	-0.08211021
143	0x3d530a55	0.051523525
144	0x3c9f8248	0.019471303
145	0xbd2cf9ff	-0.042230602
146	0x3c0a6105	0.008445983
147	0x3dab5a39	0.08366818
148	0x3da6dedd	0.081479765
149	0x3c043fd0	0.008071855
150	0xbc3d3ae7	-0.011549688
151	0xbb0e8800	-0.0021748543
152	0xbd83b3f5	-0.064308085
153	0x3da3124b	0.079624735
154	0x3d3438ca	0.04399947
155	0xbd9c2b3a	-0.07625432
156	0xbd9b6b36	-0.07588808
157	0x3d672231	0.05642909
158	0x3daf253a	0.08552022
159	0x3dad7ad2	0.08470692
160	0x3d0489a7	0.032357838
161	0xbd88a6cc	-0.06672439
162	0xbc14fc80	-0.009093404
163	0x3daff46f	0.08591544
164	0xbdad1122	-0.084505334
165	0xbcaf296d	-0.021382058
166	0xbdab345a	-0.08359595
167	0x3d72aa44	0.05924441
168	0x3c7d68f0	0.015466914
169	0x3bbce8c8	0.0057650544
170	0x3d8f1f29	0.06988365
171	0x3cdef873	0.02721808
172	0x3d8efeed	0.06982217
173	0xbd4070f8	-0.046982735
174	0xbd8f23b3	-0.06989231
175	0xbd95fd04	-0.073236495
176	0xbc6cbf4d	-0.014449907
177	0xbc27060a	-0.010194311
178	0xbd508a39	-0.05091307
179	0x3ce12f61	0.027488412
180	0xbc546578	-0.012963645
181	0xbdb1b0ee	-0.08676325
182	0xbc032280	-0.008003831
183	0x3d4de957	0.05027136
184	0x3d5a88a2	0.05335296
185	0x3d419267	0.04725876
186	0x3cb396f2	0.021922562
187	0xbce961ae	-0.02848896
188	0xbd7194b0	-0.05897969
189	0x3d13578a	0.035972156
190	0xba9dcac5	-0.001203858
191	0x3d1c0196	0.03808745
192	0x3da418ef	0.08012568
193	0x3cdc1b20	0.026868403
194	0x3c1248c8	0.008928485
195	0x3cb06794	0.021533765
196	0x3d0afca0	0.03393233
197	0xbdb52389	-0.088446684
198	0x3d9ca8c9	0.07649381
199	0x3c96acff	0.018393038
200	0x3daaf5db	0.083476745
201	0xbc9a7a78	-0.018857226
202	0xbda891d2	-0.08230938
203	0xbc284737	-0.010270885
204	0x3ccebd44	0.025236733
205	0x3d95d9a3	0.073169015
206	0xbda7c536	-0.08191912
207	0x3c89f0eb	0.016838511
208	0xbd43cc2b	-0.04780213
209	0x3da0bf3a	0.078489736
210	0xbd6bc11e	-0.057557218
211	0xbd65af99	-0.056075666
212	0x3d8647aa	0.065566376
213	0xbd09fca0	-0.033688188
214	0x3d2df856	0.04247316
215	0xbda3763f	-0.07981538
216	0xbb7ec699	-0.0038875698
217	0x3a5b2e4d	0.00083610864
218	0x3d9ceee1	0.0766275
219	0xbd1a0dd6	-0.03761085
220	0xbc74fc30	-0.014952704
221	0x3b16251b	0.00229103
222	0xbd49f37a	-0.049304463
223	0xbd889bb3	-0.06670322
224	0xbda34b88	-0.07973391
225	0xbd170fe7	-0.0368804
226	0xbcfc44af	-0.03079447
227	0x3da0f607	0.07859426
228	0xbc68a95b	-0.014200534
229	0xbd522562	-0.051305182
230	0xbd4e7ae3	-0.050410163
231	0xbd9ae377	-0.07562917
232	0x3c9aaff5	0.018882731
233	0x3d2ecdfa	0.042676903
234	0xbcd60e02	-0.026129726
235	0x3d8cdf2e	0.06878506
236	0x3adf3ca8	0.0017031627
237	0xbd22a42e	-0.039707355
238	0x3d01b444	0.031666055
239	0x3bdb0db7	0.0066849845
240	0x3d7754b8	0.06038353
241	0xbda952f4	-0.08267775
242	0x3d3b5033	0.04573078
243	0xbd348f0b	-0.04408173
244	0xbd909ba7	-0.07060938
245	0x3db3160f	0.08744442
246	0xbd3c2d32	-0.04594154
247	0xbbf889ca	-0.007584785
248	0x3d3d3ce4	0.046200648
249	0x3d890189	0.06689746
250	0xbd98bb00	-0.074575424
251	0xbd35abff	-0.04435348
252	0xbcd017a8	-0.025401905
253	0xbd386cae	-0.04502552
254	0x3ca68d1a	0.020330954
255	0xbd991444	-0.074745685

fc2.bias f4 [128]
0	0x3cb9dcc2	0.022688273
1	0xb9d1676e	-0.00039940648
2	0x3d4fc46c	0.050724432
3	0x3bd09f75	0.006366665
4	0x3cd7d565	0.026346872
5	0x3d54f7d7	0.05199417
6	0xbd944f6b	-0.0724171
7	0x3da0652e	0.078317985
8	0xbbac3de6	-0.0052564023
9	0xbce56261	-0.028001012
10	0xbdb50537	-0.08838885
11	0xbd9baa95	-0.07600895
12	0xbc1d2257	-0.009590707
13	0x3d9be493	0.076119564
14	0x3d71245c	0.058872566
15	0x3d22ee4d	0.039778043
16	0xbd5ffdfe	-0.054685585
17	0xbcb8c037	-0.022552593
18	0xbcf0e20e	-0.029404666
19	0x3da16cc4	0.078820735
20	0x3d000817	0.031257715
21	0xbcc30705	-0.023807058
22	0x3cc44e2b	0.023963055
23	0xbd843a6b	-0.06456455
24	0xbd266c8e	-0.04063087
25	0x3af88120	0.0018959381
26	0xbd6e9d27	-0.05825534
27	0xbcf2dc58	-0.029646084
28	0x3ce916ea	0.02845331
29	0xbc0c2f9b	-0.008556272
30	0xba5a6c80	-0.0008332208
31	0xbbe66ee4	-0.007032262
32	0x3d74b49b	0.05974255
33	0xbc943fbe	-0.0180968
34	0x3dd1b948	0.10240418
35	0x3d9f3813	0.07774367
36	0xbb76aecb	-0.0037640806
37	0x3c0ee874	0.008722413
38	0xbb89fa81	-0.0042107706
39	0xbd16b7b4	-0.036796287
40	0x3d79a8a0	0.06095183
41	0xbd3d93c7	-0.04628351
42	0xbd7b841c	-0.061405286
43	0xbcc05611	-0.02347854
44	0x3d9e4018	0.07727069
45	0x3d914962	0.07094075
46	0xbcaff553	-0.021479284
47	0x3cd42ee4	0.025901265
48	0x3d60eaf9	0.054911587
49	0xbd8a21f8	-0.0674476
50	0x3c11c3a6	0.008896744
51	0x3d8d1c4f	0.06890165
52	0x3daca3cd	0.0842968
53	0xbda9cc2a	-0.08290894
54	0xbdc4712d	-0.09591899
55	0xbd7bf761	-0.061515216
56	0x3d4d2e7d	0.050093163
57	0x3b463873	0.0030246049
58	0x3d2e990d	0.04262643
59	0xbd4e6096	-0.05038508
60	0xbda60186	-0.08105759
61	0xbda1f58f	-0.07908165
62	0x3d132bd8	0.035930485
63	0xbd0d4f61	-0.03449953
64	0x3d9853a9	0.07437832
65	0xbd90c414	-0.07068649
66	0xbdad8fad	-0.084746696
67	0xbdc1a03d	-0.09454391
68	0xbd33a82f	-0.043861564
69	0x3d9e0ca3	0.07717254
70	0xb9f925f8	-0.0004752127
71	0x3d3e7802	0.046501167
72	0x3d53da1a	0.05172167
73	0x3d8288bd	0.06373737
74	0xbd0810af	-0.033219036
75	0x3dc0c55d	0.09412644
76	0x3d53c32a	0.051699795
77	0x3dca2a07	0.09871297
78	0x3d1d36d2	0.03838236
79	0xbd198955	-0.037484486
80	0x3d25e1be	0.040498488
81	0xbd5abcb6	-0.053402625
82	0x3dc3e608	0.09565359
83	0xbdad71cf	-0.08468973
84	0xbb74a803	-0.0037331588
85	0x3d493069	0.049118433
86	0x3d31e6e0	0.04343307
87	0xbc9508a0	-0.01819259
88	0x3c61f4f7	0.013791314
89	0xbbdb583c	-0.006693868
90	0x3bfc2f90	0.0076960996
91	0x3d77d7c1	0.060508493
92	0xbc908140	-0.017639756
93	0xbd848272	-0.06470193
94	0xbd28f72e	-0.041251354
95	0xbd77fc8b	-0.060543578
96	0xbced7384	-0.028985746
97	0xbb13740d	-0.0022499592
98	0x3d0d2ea8	0.034468323
99	0x3d89f3f5	0.06735984
100	0x3d640dae	0.05567711
101	0x3ab77744	0.0013997336
102	0x3db38dec	0.08767304
103	0xbdaeab7b	-0.08528801
104	0xbd990b08	-0.07472807
105	0xbd8d7277	-0.06906598
106	0x3cf9f7fc	0.030513756
107	0xbd824bec	-0.06362137
108	0xbb11ca07	-0.0022245662
109	0x3b9706d6	0.004608969
110	0xbd59c020	-0.05316174
111	0xbd228344	-0.039675966
112	0x3da99f06	0.082822844
113	0xbcb541e9	-0.022126155
114	0x3ccceb6c	0.025014602
115	0x3bda22ca	0.006656979
116	0xbcfbb506	-0.030725967
117	0x3b009e41	0.0019625577
118	0x3d006f20	0.031355977
119	0xbd724c0e	-0.059154563
120	0xbc78ab18	-0.015177511
121	0x3d41ae42	0.047285326
122	0x3d8e8ee0	0.06960845
123	0xbd4b3208	-0.04960826
124	0xbd43f1da	-0.04783807
125	0x3dd70cff	0.10500526
126	0xbb10a0a6	-0.002206841
127	0xbd6c0f56	-0.057631813

fc3.weight f4 [3, 128]
0	0xbd85303c	-0.065033406
1	0xbd624d63	-0.055249583
2	0x3d83f3e6	0.06443004
3	0xbb981484	-0.0046411175
4	0x3c674451	0.014115409
5	0xbd956af2	-0.07295789
6	0xbc24d058	-0.010059439
7	0x3c839b2a	0.016065199
8	0xbd27e5fc	-0.040990815
9	0xbd0bf068	-0.034164816
10	0xbd792ae7	-0.06083193
11	0xbb58c908	-0.0033078808
12	0xbd870daa	-0.06594403
13	0xbd177c58	-0.036983818
14	0xbd353ba2	-0.044246323
15	0x3c9cef52	0.019157086
16	0x3c86982b	0.016429981
17	0xbd8f0b8e	-0.06984626
18	0x3d5e8e27	0.054334786
19	0xbdc83c6e	-0.09777151
20	0xbd0766ac	-0.0330569
21	0xbdbe74d7	-0.09299629
22	0xbd952eb5	-0.07284299
23	0xbd9dce5c	-0.077053756
24	0x3db56b85	0.08858398
25	0xbcb83b0b	-0.022489091
26	0x3cdb0700	0.026736736
27	0x3c008dec	0.007846337
28	0xbd9c2406	-0.076240584
29	0xbd5ea48a	-0.054356135
30	0x3d7d551a	0.061848737
31	0x3d8125ec	0.06306061
32	0xbd30c755	-0.043158848
33	0x3d80e144	0.06292966
34	0x3cd557b3	0.026042795
35	0xbd1a9349	-0.03773812
36	0x3d2b2636	0.041784488
37	0xbd9093ed	-0.070594646
38	0xbd0ab1fe	-0.033861153
39	0xbd0c3823	-0.034233224
40	0x3db686b3	0.089124106
41	0x3d638df2	0.05555529
42	0x3d2a0b94	0.041514948
43	0xbcccfb4a	-0.025022168
44	0xbb9266fb	-0.0044678426
45	0x3d3b05de	0.045659892
46	0xbc6ab25b	-0.01432475
47	0xbd038319	-0.032107446
48	0x3d2c2c51	0.04203445
49	0x3d8c5980	0.06853008
50	0x3be89e45	0.0070989453
51	0x3c479081	0.0121804485
52	0xbd44bc91	-0.048031393
53	0x3c7896a0	0.015172631
54	0xbc8e93d9	-0.017404484
55	0xbd797234	-0.06089993
56	0x3cf7a7cf	0.030231385
57	0xbd11640e	-0.03549581
58	0x3d0d038b	0.034427207
59	0x3d93c32d	0.07214961
60	0x3d9d9e2b	0.07696184
61	0xbd9b05e6	-0.075694844
62	0x3a92c38d	0.0011197195
63	0x3d5ccf46	0.05390861
64	0xbd0886b4	-0.033331588
65	0x3cf4c374	0.029878356
66	0xbdaf3c6f	-0.08556449
67	0x3d39b250	0.045336068
68	0xbd443494	-0.047901705
69	0x3d1509ed	0.03638642
70	0xbd7d942f	-0.061908897
71	0x3ce43bd5	0.027860561
72	0x3bd9ed24	0.006650584
73	0x3dad0fd0	0.084502816
74	0x3d4c1bb1	0.049831096
75	0x3d8beaf3	0.068319224
76	0xbd837d7f	-0.06420421
77	0xbd5f0eee	-0.054457597
78	0x3c083b1e	0.008314876
79	0x3d8a6a5d	0.067585684
80	0xbd8229a2	-0.06355597
81	0x3d1512b9	0.03639481
82	0xbd158952	-0.036507912
83	0x3caafa19	0.020871209
84	0x3d7f1846	0.06227901
85	0x3d56d9bb	0.052453738
86	0x3cbc723b	0.023003688
87	0x3d3b627a	0.04574821
88	0x3bd92a54	0.0066273604
89	0xbd8c1ec0	-0.068418026
90	0x3d143e06	0.036191963
91	0xbd68680e	-0.05673986
92	0x3daa2c15	0.08309189
93	0x3c2162d8	0.009850226
94	0x3d4e0671	0.05029911
95	0xbdb37eee	-0.08764444
96	0x3d54de02	0.051969536
97	0xbc19be37	-0.00938373
98	0xbd79f70c	-0.061026618
99	0x3d22fb44	0.039790407
100	0x3d61c10e	0.055115752
101	0xbc19bab8	-0.009382896
102	0x3ba1f666	0.004942703
103	0x3c4139c0	0.011793554
104	0x3bb510dc	0.0055256914
105	0xbd910f93	-0.07083049
106	0x3d86b296	0.06577031
107	0xbcf11744	-0.02943004
108	0xbdb4ffc6	-0.088378474
109	0x3d6cea14	0.05784042
110	0xbd8a2ef7	-0.06747239
111	0xbda272d2	-0.079320565
112	0xbbf9934a	-0.007616435
113	0xbcad5dfd	-0.021162981
114	0xbd93c480	-0.07215214
115	0x3c1e7464	0.009671304
116	0x3d2495e2	0.040182002
117	0x3d997d4b	0.07494601
118	0x3d816536	0.063181326
119	0xbd348f29	-0.04408184
120	0x39ccb047	0.0003904125
121	0x3d078343	0.033084165
122	0x3d2ad68b	0.04170851
123	0xbd80dfef	-0.06292712
124	0x3d888f43	0.0666795
125	0xbd4e5aca	-0.050379552
126	0x3d1df7d7	0.038566437
127	0xbda2bf55	-0.0794665
128	0x3cce739e	0.025201615
129	0x3d87dae9	0.06633551
130	0x3da17542	0.07883693
131	0xbd7af7d5	-0.061271507
132	0x3cd9957b	0.026560536
133	0x3c9b4154	0.01895205
134	0x3dad592b	0.08464273
135	0xbd7042be	-0.0586574
136	0xbd9b66d6	-0.07587974
137	0xbd49af25	-0.049239296
138	0x3d760a1d	0.06006824
139	0x3d774cdc	0.060376033
140	0xbd0471d9	-0.032335136
141	0xbdb2451b	-0.08704587
142	0x3cd97a98	0.026547715
143	0x3ca2766b	0.019831857
144	0xbbd87e49	-0.0066068512
145	0xbc413c34	-0.011794139
146	0xbb824206	-0.0039751558
147	0xbdc0e330	-0.094183326
148	0xbd5a878b	-0.05335192
149	0xbc300e75	-0.010745634
150	0xbc99a198	-0.018753812
151	0xbd1f391f	-0.038872834
152	0x3d99b5e9	0.075054
153	0xbba24424	-0.0049519707
154	0xbd2270f9	-0.03965852
155	0x3d887746	0.066633746
156	0xbc481edf	-0.0122143915
157	0xbd22b954	-0.039727524
158	0xbd1ab337	-0.03776857
159	0x3d4cc5b6	0.04999324
160	0xbdb87c86	-0.09008126
161	0xbcac36f0	-0.02102229
162	0xbc19783e	-0.009367047
163	0xbd774aa4	-0.060373917
164	0xbcf059dd	-0.029339725
165	0xbdd83cd4	-0.10558477
166	0xbd8f902a	-0.07009919
167	0xbd9e3f24	-0.07726887
168	0x3d1dfa8e	0.038569026
169	0xbdaedf28	-0.085386574
170	0x3d922990	0.07136834
171	0xb9950e9e	-0.00028430385
172	0xbd0de497	-0.03464183
173	0xbd7629a6	-0.060098313
174	0xbd316522	-0.04330934
175	0x3ba7c041	0.005119354
176	0xbd1067d0	-0.035255253
177	0x3d10fb9e	0.03539621
178	0xbda65ca7	-0.08123141
179	0xbc517be3	-0.012785885
180	0xbda411bf	-0.08011197
181	0xbd7de676	-0.061987363
182	0xbcc898a4	-0.024486847
183	0x3d19b007	0.03752139
184	0x3d8a94b6	0.067666456
185	0x3cc7bdc7	0.024382485
186	0xbd558a6d	-0.052133966
187	0xbbf876b0	-0.007582508
188	0xbdab2b96	-0.08357923
189	0x3c83e630	0.016100973
190	0x3d5d377b	0.05400799
191	0xbd8bd3b5	-0.06827489
192	0xbcefbcc2	-0.029264811
193	0xbda6e4d4	-0.08149114
194	0xbb59ec80	-0.0033252537
195	0xbc30c708	-0.01078964
196	0x3cd65ba9	0.026166754
197	0x3d2663c5	0.04062249
198	0x3d861aa2	0.065480486
199	0x3ba7243a	0.005100754
200	0x3be5ad46	0.007009181
201	0x3d1f52e4	0.03889741
202	0xbd966984	-0.07344344
203	0xbd65e288	-0.05612424
204	0x3d81a40b	0.06330117
205	0xbdb59f53	-0.08868279
206	0xbdbcd08f	-0.09219467
207	0xbda62723	-0.081129335
208	0x3d935956	0.07194774
209	0xbdab26e4	-0.08357027
210	0x3d0eead9	0.034891937
211	0xbbc682ef	-0.006058089
212	0xbd0e1054	-0.03468354
213	0xbd703680	-0.058645725
214	0xbd44ec66	-0.04807701
215	0x3c9f1dd3	0.019423401
216	0xbd6a7432	-0.05723972
217	0x3d5d0513	0.053959917
218	0x3d7116a6	0.05885949
219	0xbd949735	-0.07255403
220	0xbda2562a	-0.07926591
221	0x3d24bd42	0.040219553
222	0x3d896439	0.06708569
223	0x3cdad5a4	0.0267132
224	0x3d2621b2	0.040559478
225	0xbd321522	-0.043477185
226	0xbbbd86fe	-0.0057839146
227	0x3d9673b9	0.07346291
228	0xbd7c96dc	-0.06166731
229	0xbb22211f	-0.002473898
230	0xbdcf1c47	-0.10112815
231	0xbda05adb	-0.07829829
232	0x3d37179b	0.044700246
233	0xbd4662d0	-0.04843408
234	0x3d53909a	0.051651575
235	0xbd9f831c	-0.07788679
236	0xbcb02cc4	-0.02150572
237	0x3c31b87d	0.010847208
238	0xbd805666	-0.06266479
239	0xbddc3286	-0.10751824
240	0x3d6803c1	0.056644205
241	0x3d8353fd	0.06412504
242	0x3d7b2494	0.06131418
243	0x3ce5440a	0.027986545
244	0x3cfb24f0	0.030657262
245	0xbdc6784c	-0.096909136
246	0x3d227485	0.039661903
247	0xbd045709	-0.032309566
248	0xbdb58dcf	-0.088649385
249	0xbd850063	-0.064942144
250	0xbdb615c8	-0.08890873
251	0x3cc06990	0.023487836
252	0xbdb84142	-0.08996822
253	0xbdc24869	-0.094864674
254	0x3c979c4b	0.018507143
255	0x3d7650d6	0.060135685

fc3.bias f4 [3]
0	0x3d04915e	0.032365195
1	0x3d354d30	0.044263065
2	0xbd34fb95	-0.04418524
