scripts/models/pg/reinforce_run_3.pth (torch, 76888 bytes, 6 tensors)

fc1.weight f4 [128, 12]
0	0x3dd3a112	0.10333456
1	0x3e488ba0	0.19584513
2	0x3e1aafcd	0.15106125
3	0xbd2dd7cc	-0.042442128
4	0xbdc0c27b	-0.09412094
5	0x3e18e4bb	0.14931004
6	0x3d26bcb2	0.040707298
7	0xbe6a9e7c	-0.2291202
8	0xbd5d2e51	-0.05399925
9	0x3d9dc171	0.07702912
10	0x3e48f68b	0.19625299
11	0x3eab941d	0.3351144
12	0x3cfe9d34	0.03108082
13	0x3be1bf1d	0.0068892376
14	0xbdd5cec1	-0.10439826
15	0xbb04f92a	-0.0020290115
16	0xbe30e070	-0.17273116
17	0xbd8f1cfb	-0.069879495
18	0x3e77f73b	0.24215405
19	0x3e43d8e8	0.19125712
20	0x3e3409ca	0.17581859
21	0x3e7de2ca	0.24793544
22	0x3e8a4215	0.27003542
23	0xbdebc9e4	-0.11513117
24	0x3e92f59d	0.28703013
25	0x3dfb5238	0.12271541
26	0x3c97b3fc	0.01851844
27	0xbe7d8ff9	-0.24761952
28	0xbe2a52f1	-0.16633202
29	0x3dc09e25	0.09405164
30	0x3e4130a1	0.18866207
31	0xbe1b56f8	-0.15169895
32	0xbdb8e456	-0.090279266
33	0x3e8760a2	0.26440912
34	0xbd07d429	-0.033161316
35	0xbe5cacc2	-0.21550277
36	0x3d52bf90	0.05145222
37	0xba2a9c59	-0.0006508283
38	0x3ea3caf4	0.31990778
39	0xbe506dfb	-0.20354454
40	0xbe176278	-0.14783657
41	0xbe83ed13	-0.2576681
42	0x3e662916	0.2247661
43	0x3e52e159	0.20593776
44	0x3e096f39	0.13421334
45	0xbb81d017	-0.003961574
46	0x3dca1e69	0.098690815
47	0x3d0f54d0	0.034992993
48	0xbe44a310	-0.19202828
49	0x3df9efe8	0.122039616
50	0x3d093f70	0.033507764
51	0xbe6a1a13	-0.22861509
52	0xbe23fd22	-0.16014531
53	0xbd5759f4	-0.05257602
54	0xbd3a1b1d	-0.045436013
55	0x3d75c005	0.059997577
56	0xbdff6939	-0.124712415
57	0x3e5fffbd	0.218749
58	0xbd4782c2	-0.048708685
59	0xbdd32ac1	-0.10310889
60	0xbe4f7901	-0.20261003
61	0x3e51579d	0.20443578
62	0xbe522956	-0.20523581
63	0x3eb5b2e4	0.35488045
64	0x3e9d4a66	0.30720824
65	0xbca3f913	-0.020016229
66	0x3e7bea9d	0.24601217
67	0x3e1ca5d4	0.15297633
68	0x3e1bc589	0.15212072
69	0x3eadb427	0.33926508
70	0x3df51153	0.11966195
71	0xbe2f6ab8	-0.17130554
72	0xbe88b996	-0.2670409
73	0x3e842389	0.2580836
74	0x3e9abaee	0.3022074
75	0x3e9470d7	0.2899234
76	0xbdf6756e	-0.12034117
77	0xbde53cb2	-0.11193217
78	0xbcd6610e	-0.026169326
79	0x3e9cffa7	0.30663797
80	0x3e076a67	0.13224183
81	0xbe2b3b24	-0.16721779
82	0x3df5672e	0.119825706
83	0x3e34a896	0.17642435
84	0xbc3695b2	-0.011144089
85	0xbdf373f2	-0.11887349
86	0x3d9f36d0	0.077741265
87	0x3d3e6364	0.046481505
88	0x3dc36239	0.09540219
89	0x3d64cec1	0.05586124
90	0x3eb075c0	0.34464836
91	0x3e7c3599	0.24629821
92	0xbd35f6d0	-0.044424832
93	0xbe39e2fb	-0.18152992
94	0x3d61d950	0.055138886
95	0x3dd83477	0.10556882
96	0xbe73cbb6	-0.23808178
97	0x3e1bec32	0.1522682
98	0xbd8a0ee6	-0.06741123
99	0x3eac586f	0.3366122
100	0x3eb0ba66	0.3451721
101	0x3eb21961	0.34784988
102	0xbded5a5f	-0.115895025
103	0x3e3dccec	0.18535203
104	0x3e49696c	0.19669122
105	0xbe31cd82	-0.17363551
106	0x3d544b46	0.0518296
107	0xbc0dd6f5	-0.008657207
108	0x3e5f4468	0.21803439
109	0xbd8d31c7	-0.0689426
110	0xbe6b1dcf	-0.2296059
111	0xbe69eb35	-0.2284363
112	0xbe65a67f	-0.22426794
113	0x3d78e63f	0.060766455
114	0x3e6773ec	0.22602814
115	0xbe7f0f6e	-0.2490823
116	0xbd1296de	-0.03578841
117	0xbea01039	-0.31262377
118	0x3e1b456a	0.15163198
119	0x3e575400	0.21028137
120	0x3e5356a8	0.20638525
121	0x3de975f5	0.11399452
122	0x3e74d980	0.23911095
123	0xbe3693f7	-0.17829882
124	0xbd4ab140	-0.049485445
125	0xbe83fbc4	-0.2577802
126	0x3e9f374d	0.3109688
127	0x3dc5d630	0.09659994
128	0xbc56195e	-0.013067571
129	0xbe0e42ee	-0.13892719
130	0x3ddcb77c	0.10777184
131	0x3e0a5a64	0.13511044
132	0xbc51218d	-0.012764347
133	0xbd89159a	-0.06693573
134	0xbdee3a42	-0.116322055
135	0x3e5f4d11	0.21806742
136	0xbd9d65ed	-0.076854564
137	0xbdefc00d	-0.11706553
138	0x3dd79fd5	0.105285324
139	0x3e1b55da	0.15169469
140	0xbe14348c	-0.1447317
141	0xbe7dd7d4	-0.24789363
142	0x3eb20211	0.34767202
143	0xbd9db5ef	-0.07700717
144	0xbe5d1d12	-0.2159312
145	0xbcb98435	-0.022646049
146	0xbdac1138	-0.08401722
147	0xbdb97df7	-0.09057229
148	0xbd4e4f4c	-0.050368592
149	0x3e5e4120	0.2170453
150	0x3db930c2	0.09042503
151	0x3e5c7d4c	0.21532172
152	0x3e177a53	0.14792757
153	0xbdd065cf	-0.101756684
154	0xbe2db77c	-0.16964525
155	0x3e11ec46	0.14250287
156	0xbcfb06bf	-0.030642865
157	0x3e89913a	0.26868612
158	0xbcce211c	-0.025162272
159	0x3cfc5202	0.030800823
160	0x3d5e05aa	0.05420462
161	0x3e87d7ba	0.26531774
162	0x3b7af662	0.0038293828
163	0x3e6a44b0	0.22877765
164	0xbd98b9e0	-0.07457328
165	0xbc7fec32	-0.015620278
166	0x3e168467	0.14698945
167	0xbe0ac52b	-0.13551776
168	0xbe69a4df	-0.228168
169	0x3cdcb810	0.026943237
170	0xbe51f3fa	-0.20503226
171	0x3df78557	0.120859794
172	0xbe5e5bc8	-0.217147
173	0x3c360fb6	0.011112144
174	0x3e506ed8	0.20354784
175	0x3e7773ad	0.2416522
176	0x3e0cab00	0.13737106
177	0xbe83f64e	-0.25773853
178	0x3df7be9b	0.12096902
179	0xbe6ab3a7	-0.22920094
180	0x3e951501	0.29117587
181	0xbdea7cb5	-0.11449567
182	0xbd8e66e3	-0.06953218
183	0x3e6c2860	0.23062277
184	0xbda49d2d	-0.080377914
185	0x3cb7c004	0.022430427
186	0x3e871f07	0.2639086
187	0xbcaf4d44	-0.021399148
188	0x3d7d64f7	0.061863866
189	0xbe08fe53	-0.13378267
190	0x3d9d039c	0.07666704
191	0x3e3cf3f9	0.18452443
192	0xbe6c19fa	-0.23056784
193	0x3e61b61f	0.2204213
194	0x3e660e35	0.22466357
195	0xbbb7ea00	-0.005612612
196	0x3e3a44a7	0.18190251
197	0x3e0025b1	0.12514378
198	0xbe13b2ce	-0.14423677
199	0xbcbf688d	-0.023365283
200	0xbdda4faf	-0.1065973
201	0x3e34de76	0.17662987
202	0xbe306018	-0.17224157
203	0xbd43cb12	-0.047801085
204	0xbba989c0	-0.005173892
205	0xbd00e770	-0.031470716
206	0xbd361158	-0.044450134
207	0xbe4726ac	-0.19448346
208	0xbe319531	-0.17342068
209	0xbda76a14	-0.0817453
210	0x3cc44590	0.023958951
211	0xbe78caca	-0.24296108
212	0xbdfa8c30	-0.1223377
213	0x3d2b9498	0.041889757
214	0xbe497ca4	-0.19676453
215	0xbe85b083	-0.2611123
216	0xbde23162	-0.11044575
217	0x3ed6c43f	0.419466
218	0x3da60b0b	0.08107575
219	0x3e6494e4	0.22322422
220	0xbe929762	-0.2863112
221	0x3d2d46f5	0.042303998
222	0xbe71bc33	-0.23606949
223	0x3e277ca7	0.16356145
224	0x3dcc4e67	0.099758916
225	0xbe7a2031	-0.24426343
226	0xbd9b4ff2	-0.07583608
227	0xbe89bcfb	-0.26901993
228	0xbdbf8374	-0.093512446
229	0xbddffa98	-0.10936469
230	0x3e3cd36c	0.18440026
231	0xbe6fc4d7	-0.23414932
232	0xbe060c94	-0.13090736
233	0xbe822a6f	-0.25423
234	0xbe6a93a0	-0.22907877
235	0x3cbf0bc0	0.023321033
236	0x3d66a8fc	0.0563135
237	0x3e8564e1	0.26053527
238	0xbd55c322	-0.052188046
239	0x3c89d763	0.016826337
240	0xbe897e0c	-0.2685398
241	0xbe09e18d	-0.13464947
242	0xbe59569b	-0.21224444
243	0xbe134a7c	-0.14383882
244	0xbe1ba44c	-0.15199393
245	0xbe3e334f	-0.1857426
246	0x3e919398	0.28432918
247	0xbdc2ad18	-0.09505671
248	0xbd91244c	-0.07087001
249	0x3e8c43eb	0.27395567
250	0x3e97ad62	0.29624468
251	0x3e8f69ca	0.28010398
252	0x3e8141d8	0.25245547
253	0xbe023fb8	-0.1271962
254	0x3d27eb16	0.04099568
255	0xbe36172c	-0.17782277

fc1.bias f4 [128]
0	0x3e65aba1	0.22428752
1	0x3e13f113	0.14447431
2	0x3ea15306	0.31508654
3	0x3d170b74	0.036876157
4	0xbe6ca708	-0.23110592
5	0xbd238b51	-0.039927784
6	0x3e177699	0.14791335
7	0x3dc92433	0.098213576
8	0xbe25fe15	-0.16210206
9	0x3d0118a6	0.031517647
10	0x3dc4a2a7	0.09601336
11	0x3e8cdf22	0.27513987
12	0xbc1bd8c7	-0.009512133
13	0x3e28b091	0.16473605
14	0xbe0be00f	-0.1365969
15	0x3e5433b3	0.20722847
16	0xbe98ca29	-0.29841736
17	0xbe43aabc	-0.19108099
18	0xbc82d2e2	-0.015969697
19	0xbd196ac8	-0.03745535
20	0x3e7c5924	0.2464338
21	0xbe130d09	-0.14360441
22	0x3ce96558	0.028490707
23	0x3e58bd89	0.21166052
24	0xbdbae164	-0.09125021
25	0xbdfc2ef9	-0.12313647
26	0x3e9de6c3	0.3084012
27	0xbe531f4b	-0.20617406
28	0x3df5990b	0.11992081
29	0x3da6f582	0.08152296
30	0x3c1d188b	0.009588371
31	0x3e4da276	0.20081505
32	0x3e48a4ed	0.19594164
33	0xbe18119e	-0.1485047
34	0x3d9fe3c3	0.07807114
35	0x3e3b37b7	0.18282972
36	0x3ebb6bd9	0.3660572
37	0x3e7d860b	0.24758165
38	0x3e9e080e	0.3086552
39	0xbe2c0065	-0.16797026
40	0xbe928479	-0.28616694
41	0x3da8d88c	0.08244428
42	0x3e4b95e0	0.19881392
43	0x3e277717	0.16354023
44	0x3e7a435b	0.24439757
45	0x3e704827	0.23465024
46	0xbdf221d8	-0.118228614
47	0xbdcd3220	-0.10019326
48	0x3e42645c	0.18983597
49	0xbccb8e97	-0.024848266
50	0xbe5ec5ae	-0.21755096
51	0x3e5e3a7d	0.21701999
52	0x3e7f5494	0.24934608
53	0x3eb6470c	0.3560108
54	0x3e8b378a	0.2719081
55	0xbe3cfa4e	-0.18454859
56	0xbddb81ae	-0.10718094
57	0x3e7eaa73	0.24869709
58	0xbe7df23b	-0.24799435
59	0x3e3e6b0b	0.18595521
60	0xbe59af6d	-0.21258326
61	0x3e49a556	0.19691977
62	0xbe69380e	-0.2277529
63	0x3ea1513a	0.31507283
64	0x3e0d4e87	0.13799487
65	0xbdcb7971	-0.099352725
66	0x3e3a0386	0.18165407
67	0xbab59e83	-0.0013856444
68	0xbe322153	-0.17395525
69	0xbe409dd2	-0.18810204
70	0x3eb57b01	0.35445407
71	0x3e9ea143	0.30982408
72	0x3e9ffc4a	0.3124717
73	0x3e1eba01	0.15500642
74	0xbe2d7680	-0.16939735
75	0xbcce4aa3	-0.025182074
76	0x3e0af10a	0.13568512
77	0x3e810423	0.2519847
78	0xbbe77c38	-0.0070643686
79	0xbe12bc29	-0.1432959
80	0x3ea246f9	0.31694773
81	0xbe1c3b4a	-0.15256992
82	0xbe00f0c5	-0.12591846
83	0x3e749129	0.23883499
84	0x3dffb235	0.12485162
85	0x3eb33898	0.35004115
86	0x3db34a1f	0.08754372
87	0x3d964497	0.07337301
88	0x3d54dd63	0.051968943
89	0x3e0cbed6	0.13744673
90	0xbe118f11	-0.14214732
91	0xbbe1aa78	-0.0068867765
92	0x3cf32b65	0.029683778
93	0xbe942212	-0.28932244
94	0xbe0334ec	-0.12813157
95	0x3ebc4ea8	0.3677876
96	0x3ed4f3af	0.41592166
97	0xbbedb0d1	-0.007253744
98	0x3eb6e6f9	0.35723093
99	0xbdf77208	-0.120822966
100	0x3e809bb9	0.25118807
101	0x3c5b41da	0.013382399
102	0x3d971a9c	0.07378122
103	0x3e4133b7	0.18867384
104	0xbb6776e2	-0.0035318662
105	0xbc20f21c	-0.009823348
106	0xbe4df3cb	-0.20112531
107	0xbe8566cc	-0.2605499
108	0xbe2c7321	-0.16840793
109	0xbe66aa7a	-0.22525969
110	0x3e70586f	0.23471235
111	0x3d18f92a	0.037346996
112	0xbe25e0da	-0.16199055
113	0xbe450b4a	-0.19242588
114	0x3b8ae3f0	0.004238598
115	0x3e9c7544	0.30558217
116	0x3e320fd8	0.17388856
117	0xbdc6b3d3	-0.097022675
118	0x3e38e33e	0.18055436
119	0xbe66e77c	-0.22549242
120	0x3e20f0ca	0.15716854
121	0xbce83548	-0.028345719
122	0x3e8bd133	0.27308044
123	0x3eba2a4f	0.36360404
124	0xbe5050ed	-0.2034337
125	0xbe300f33	-0.17193298
126	0xbe7233e2	-0.23652604
127	0x3de0fb3f	0.109854214

fc2.weight f4 [128, 128]
0	0x3d158a99	0.03650913
1	0xbcedc0b3	-0.02902255
2	0x3c64a6ca	0.013955781
3	0xbd8c7327	-0.06857901
4	0xbde7849a	-0.113045886
5	0x3b849ce0	0.0040470213
6	0x3ba7c351	0.005119719
7	0x3d8f7271	0.0700425
8	0xbc54f20b	-0.012997161
9	0x3da50d6d	0.080592014
10	0x3c7c1900	0.01538682
11	0x3d91452b	0.07093271
12	0x3c1248f7	0.008928529
13	0x3d9aabc7	0.07552295
14	0x3d0b65c6	0.034032606
15	0x3d66862b	0.056280296
16	0x3d8a7db1	0.06762255
17	0x3dadafb3	0.084807776
18	0x3d8d5261	0.06900478
19	0xbc2305bb	-0.009950097
20	0xbdbaaf76	-0.09115498
21	0x3d7ed483	0.062214386
22	0xbc292d2e	-0.010325713
23	0xbda35875	-0.07975856
24	0x3d7885b2	0.060674377
25	0xbcbd55d4	-0.023112215
26	0xbde5a549	-0.11213166
27	0x3db6c3c8	0.08924061
28	0xbd512d4e	-0.051068597
29	0xbd7f51fd	-0.06233405
30	0xbd87fc67	-0.06639939
31	0xbdc02738	-0.093824804
32	0x3da13680	0.07871723
33	0xbce1fae4	-0.027585454
34	0xbcf1ab0c	-0.029500507
35	0xbd377cbd	-0.044796694
36	0xbc379658	-0.011205278
37	0xbd056a0a	-0.03257183
38	0xbb24aacd	-0.002512622
39	0x3b91492f	0.004433773
40	0xbdaae8bc	-0.08345172
41	0x3ae86ac9	0.001773202
42	0xbdee33e8	-0.11630994
43	0xbddc8d43	-0.10769131
44	0xbdc2a2ae	-0.09503685
45	0x3d129330	0.0357849
46	0x3cb2508b	0.021766922
47	0xbc496784	-0.012292746
48	0xbcacbf1d	-0.021087224
49	0x3b051d00	0.0020311475
50	0x3d414df4	0.047193483
51	0x3d41de9d	0.04733144
52	0xbc67cb7d	-0.0141476365
53	0xbcff1557	-0.031138105
54	0x3d2ef7d7	0.042716827
55	0xbd05c68f	-0.032660063
56	0x3d871c1f	0.065971605
57	0xbd87136f	-0.065955035
58	0x3d453f7f	0.048156258
59	0xbd0670f9	-0.032822583
60	0x3d6e7722	0.058219083
61	0x3cb92b69	0.022603707
62	0x3c86190d	0.016369367
63	0xbbb9b70a	-0.005667572
64	0xbdaf2445	-0.0855184
65	0xbd020e9b	-0.03175221
66	0x3d600391	0.0546909
67	0xbcb4fdd2	-0.022093687
68	0xbdce7cd3	-0.10082402
69	0xbccb63a2	-0.024827782
70	0xbd36afd2	-0.04460127
71	0xbab84fd4	-0.0014061877
72	0xbdaeddff	-0.08538436
73	0x3d27bf37	0.04095384
74	0xbd64f239	-0.055895064
75	0xbd4fd1ed	-0.05073731
76	0x3cd4e466	0.025987815
77	0xbdae6b6c	-0.08516583
78	0x3d8eacd5	0.06966559
79	0x3cad06cb	0.021121403
80	0x39cb4b8d	0.00038775467
81	0x3d35a80b	0.04434971
82	0x3b7c6ce7	0.003851706
83	0x3c8e3e43	0.017363673
84	0x3d17114b	0.036881726
85	0xbd45e6f7	-0.04831597
86	0xbdb3e3d9	-0.08783693
87	0x3d53b9f9	0.05169103
88	0xbdce82ef	-0.10083567
89	0xbda4fcba	-0.08056016
90	0x3ddf56da	0.109052375
91	0x3e001298	0.12507093
92	0x3c0b9cb8	0.008521251
93	0xbd1b1d73	-0.03786988
94	0x3dc1dde1	0.09466148
95	0x3d82446a	0.06360705
96	0xbd817823	-0.063217424
97	0x3e038d67	0.1284691
98	0x3d2e0ea2	0.042494424
99	0xbd672280	-0.056429386
100	0xbdb8209d	-0.089905955
101	0x3b3cdc1d	0.0028817721
102	0x3d5d2189	0.05398706
103	0x3da21f62	0.07916142
104	0xbd1d44a2	-0.03839553
105	0xbd90d608	-0.07072073
106	0x3d4bb314	0.04973133
107	0xbdaf6ab1	-0.08565272
108	0x3d682e96	0.056685053
109	0x3d600954	0.054696396
110	0x3dd03873	0.10167017
111	0x3c8a6322	0.016892973
112	0xbd9bb2a3	-0.076024316
113	0x3d808fd2	0.062774315
114	0x3d478a2e	0.048715763
115	0xbd7e2779	-0.062049363
116	0x3d509625	0.05092444
117	0x3daa07db	0.083022796
118	0xbc3fd4c8	-0.011708446
119	0x3cc5ab72	0.024129603
120	0x3d84b5f9	0.06480021
121	0xbc2f0f7b	-0.010684843
122	0x3d5579b9	0.052118037
123	0x3db13af4	0.086538225
124	0xbabc4767	-0.0014364541
125	0x3dcf7e30	0.1013149
126	0x3d5f2596	0.054479204
127	0x3d567a13	0.052362513
128	0x3c73b435	0.014874508
129	0xbd2da1c7	-0.04239061
130	0xbadc58ec	-0.0016811169
131	0xbcca659b	-0.024706652
132	0xbdfdeb0d	-0.12398348
133	0xbd8031ef	-0.06259524
134	0xbdaf069d	-0.08546183
135	0xbcd5d520	-0.026102602
136	0x3cc035cd	0.023463154
137	0x3c39cba3	0.011340055
138	0xbc09a212	-0.008400457
139	0xbd90ec26	-0.07076292
140	0x3d93d4f8	0.07218355
141	0xbd82946f	-0.06375968
142	0xbd22941e	-0.039692037
143	0xbd9ca714	-0.07649055
144	0x3d9bb9ab	0.07603773
145	0xbcb02604	-0.021502502
146	0xbd946634	-0.07246056
147	0x3cd93d78	0.026518568
148	0xbdda0fb4	-0.106475264
149	0x3cb0b826	0.021572184
150	0x3da57338	0.08078617
151	0xbd3dba59	-0.046320293
152	0xbd915a00	-0.07097244
153	0xbdad5b2d	-0.08464656
154	0xbdd227aa	-0.102614716
155	0xbe00a6ac	-0.1256358
156	0xbd913ccf	-0.070916764
157	0xbccba27a	-0.024857748
158	0xbd139f38	-0.036040515
159	0xbde4ab46	-0.1116548
160	0x3b613490	0.0034363605
161	0x3c9de00e	0.019271877
162	0xbd36439c	-0.04449807
163	0x3c5c369e	0.013440756
164	0xbc9bf234	-0.01903639
165	0xbdd79b8e	-0.105277166
166	0xbd245a6e	-0.040125303
167	0x3da70ddc	0.0815694
168	0x3d65c4e4	0.056095973
169	0xbdaa2b60	-0.083090544
170	0x3d773e0e	0.060361914
171	0x3d07565e	0.03304135
172	0x3c78b091	0.015178815
173	0xbdada889	-0.08479411
174	0xbc959912	-0.018261466
175	0xbc7b1a8d	-0.015326154
176	0x3c54c6d4	0.012986857
177	0xbcaa2baf	-0.020772783
178	0x37ba0a59	2.2177746e-05
179	0xbdb4bbe9	-0.088249035
180	0xbb679757	-0.0035338008
181	0xbc1f5c07	-0.009726531
182	0x3a3db9bf	0.0007237456
183	0xbd8a7dfb	-0.0676231
184	0x3d0b3e78	0.03399512
185	0xbe0c2432	-0.13685682
186	0x3d69feae	0.057127647
187	0x3dcad031	0.099029906
188	0x3c70a2d8	0.0146872625
189	0x39a60cf0	0.00031671626
190	0x3d1bfd66	0.038083456
191	0x3ced8593	0.028994357
192	0x3d9e2e8b	0.07723721
193	0xbdf1a95d	-0.117998816
194	0xbd87a270	-0.06622779
195	0x3cc7df1c	0.024398379
196	0xbd78217a	-0.0605788
197	0xbc5f913e	-0.013645468
198	0x3cf3651e	0.029711302
199	0xbc881f67	-0.016616536
200	0xbd8762e1	-0.066106565
201	0xbd858d53	-0.06521096
202	0x3d95d149	0.073153086
203	0xbbff003b	-0.00778201
204	0xbda5a3d8	-0.08087891
205	0xbb6ec793	-0.0036434873
206	0xbd4c63c4	-0.04989983
207	0x3bb7cfd5	0.0056094923
208	0x3ca4d014	0.02011875
209	0xbd37e47d	-0.044895638
210	0x3c8366d5	0.016040245
211	0x3d74d248	0.059770852
212	0xbbf85c74	-0.0075793806
213	0xbda13973	-0.07872286
214	0x3d11c558	0.035588592
215	0x3dd103d3	0.102058075
216	0xbd5d4bbf	-0.054027315
217	0x3d6f6197	0.05844268
218	0x3ce5d3cc	0.028055094
219	0xbc4de087	-0.0125657385
220	0x3d8bd801	0.06828309
221	0x3cff9e45	0.031203398
222	0x3ceda8be	0.029011127
223	0xbd2fa324	-0.042880192
224	0xbd8367b6	-0.06416266
225	0x3d5867eb	0.05283348
226	0xbdf3ee69	-0.119107075
227	0xbd4c6a19	-0.04990587
228	0x3c80f568	0.015742019
229	0x3d0586bb	0.032599192
230	0x3d0bbfac	0.03411834
231	0x3d07b7a3	0.033134114
232	0x3d9f401a	0.07775898
233	0x3d2106e9	0.03931323
234	0x3de232c6	0.110448405
235	0xbc2dfee5	-0.010619854
236	0x3ccd39b7	0.025051935
237	0x3d62496e	0.05524581
238	0xbc3ea3d8	-0.011635743
239	0x3cfa09b4	0.030522205
240	0x3cc524c4	0.024065383
241	0xbc034841	-0.008012832
242	0xbde0d7ff	-0.10978698
243	0xbd8a778b	-0.06761082
244	0x3cd66116	0.026169341
245	0x3c50cc0e	0.012743963
246	0x3d8941c3	0.06701996
247	0xbc91b9df	-0.017788826
248	0xbdc62ac3	-0.09676125
249	0x3da9265b	0.08259269
250	0xbd2fe21f	-0.042940255
251	0x3bd2ec15	0.0064368346
252	0xbbde29e4	-0.006779896
253	0xbd4c16dd	-0.04982649
254	0x3da87d39	0.08227009
255	0x3bc73d08	0.0060802735

fc2.bias f4 [128]
0	0x3d94f0fe	0.07272528
1	0xbdd60ccd	-0.1045166
2	0x3d477412	0.048694678
3	0x3d910baf	0.070823066
4	0x3c09b0ab	0.008403937
5	0xbd8c4728	-0.068495095
6	0xbd7c09f3	-0.061532926
7	0xbd502a10	-0.050821364
8	0x3836908a	4.3526794e-05
9	0x3be4c51f	0.0069815065
10	0xbd659dff	-0.05605888
11	0xbd613486	-0.05498173
12	0x3d872944	0.06599668
13	0x3bac1da5	0.0052525573
14	0x3d21150d	0.039326716
15	0xbd2c2b7b	-0.042033654
16	0xbc2ddffb	-0.010612483
17	0x3c55f1cd	0.013058138
18	0xbcd6d51e	-0.02622467
19	0x3d4b9daf	0.049710926
20	0xbd19f0f2	-0.0375833
21	0x3e1f5cc3	0.1556273
22	0xbd69c27b	-0.057070237
23	0xba8e56a3	-0.001085956
24	0x3ba57841	0.005049736
25	0x3d639953	0.055566143
26	0xbc9dfd74	-0.019285895
27	0x3e206353	0.15662889
28	0xbc80fa1e	-0.015744265
29	0xbbf0143d	-0.0073266313
30	0xbc870739	-0.016482936
31	0x3c20305e	0.009777157
32	0x3d9bb50b	0.076028906
33	0x3d835bb2	0.06413974
34	0x3cfc2d76	0.030783396
35	0xbde033d5	-0.10947386
36	0x3d974185	0.07385544
37	0x3c3488a9	0.01101891
38	0xbdb99ae0	-0.09062743
39	0xbd28e45d	-0.04123341
40	0x3d0bab01	0.03409863
41	0x3e2ecab2	0.1706951
42	0x3d729dce	0.059232526
43	0xbc8a4739	-0.016879665
44	0x3dfb025f	0.122563116
45	0xbd0dc643	-0.034612905
46	0xbd447279	-0.047960732
47	0x3cf8e3dc	0.03038209
48	0xbcb9d23d	-0.022683257
49	0xbd8ab00b	-0.06771859
50	0x3cefe205	0.02928258
51	0xbc2bf815	-0.010496159
52	0xbd7ea82f	-0.06217211
53	0x3d517a7b	0.051142197
54	0x3d1b3b75	0.0378985
55	0xbd6cc447	-0.057804372
56	0xbde7692d	-0.112993576
57	0x3c9863a9	0.01860221
58	0x3e3cf38c	0.18452281
59	0xbc4b5f4f	-0.01241286
60	0xbdc6678a	-0.09687717
61	0x3dd8caec	0.10585579
62	0x3dab78d5	0.08372656
63	0xbdc37475	-0.09543697
64	0x3d978607	0.073986106
65	0xbd8d147f	-0.06888675
66	0xbb5158c4	-0.0031943778
67	0x3de799cd	0.11308632
68	0xbd8bdee4	-0.068296224
69	0xbd7b6b52	-0.061381646
70	0x3c68b090	0.014202252
71	0x3c6f7b5b	0.014616813
72	0x3d372ec4	0.044722334
73	0xbcf818ff	-0.030285357
74	0xbd9e7660	-0.07737422
75	0x3bed4ba2	0.007241682
76	0x3d806c5f	0.0627067
77	0x3df17db6	0.117915556
78	0xbbb5e246	-0.0055506555
79	0x3ce69caa	0.028150875
80	0xbd88ac8d	-0.066735364
81	0x3e0114b5	0.12605555
82	0x3bf687e0	0.007523522
83	0x3d95e057	0.0731818
84	0xbba10e8d	-0.0049150647
85	0xbdbd0cb0	-0.092309356
86	0xbc84d4da	-0.016214777
87	0xbd99ea51	-0.075153954
88	0x3d353e8b	0.0442491
89	0x3bb2db09	0.00545824
90	0xbd8910b3	-0.06692638
91	0xbde5a7d0	-0.11213648
92	0xbd1154b4	-0.03548117
93	0xbdcc8777	-0.09986775
94	0x3bebed0c	0.007199889
95	0x3e27cd7a	0.16386977
96	0x3d04d45c	0.032429084
97	0xbd1527b3	-0.036414813
98	0xbc95316a	-0.018212039
99	0xbdb5c13a	-0.08874746
100	0x3d9d5dfa	0.0768394
101	0xbda9e917	-0.082964115
102	0xbd23c20d	-0.039979983
103	0xbccf6bc9	-0.02531995
104	0xbd302924	-0.043007985
105	0x3d4f142f	0.050556358
106	0xbd3032ff	-0.043017384
107	0x3d8dc586	0.0692244
108	0x3dc8a99d	0.09797976
109	0x3dcec7bf	0.10096692
110	0xbdae689d	-0.08516047
111	0x3bf56608	0.0074889697
112	0xbcf2e4a1	-0.029650034
113	0xbddeed44	-0.108850986
114	0x3e23ca7f	0.15995215
115	0xbde8cbe5	-0.11367015
116	0x3cbbe305	0.0229354
117	0x3d20da75	0.039270837
118	0xbd5d3758	-0.054007858
119	0x3ddac6ed	0.10682473
120	0xbd7db36e	-0.061938696
121	0x3d3511f5	0.04420658
122	0x3d9eedbc	0.07760188
123	0xbd3caf70	-0.046065748
124	0x3da38380	0.07984066
125	0x3d0e117b	0.03468464
126	0xbd75c8f6	-0.060006104
127	0x3dff3f25	0.12463216

fc3.weight f4 [3, 128]
0	0xbe075b42	-0.13218406
1	0xbcedc607	-0.02902509
2	0xbc4cf522	-0.012509616
3	0xbda8f58e	-0.08249961
4	0x3d819077	0.063263826
5	0xbd680966	-0.056649588
6	0xbc1b46f1	-0.009477363
7	0x3c85d5a5	0.016337225
8	0xbafe13a6	-0.0019384518
9	0xbde06158	-0.10956067
10	0xbdcf96b5	-0.10136167
11	0x3c356320	0.0110709965
12	0xbe14dd72	-0.145376
13	0x3ccb4533	0.02481327
14	0xbd429a61	-0.04751051
15	0xbdab8c07	-0.083763175
16	0xbc8aa01a	-0.016922045
17	0xbc42474c	-0.011857819
18	0xbd3e7f82	-0.04650832
19	0xbd7bd6a2	-0.061483987
20	0x3ccfa668	0.025347903
21	0xbe1dc323	-0.1540647
22	0x3d5eb151	0.05436832
23	0x3d1f14c0	0.038838148
24	0x3c86558c	0.016398214
25	0xbd3d7be1	-0.04626072
26	0xbd9c4d2f	-0.07631909
27	0xbdaf3101	-0.08554269
28	0x3bfaaa21	0.0076496755
29	0xbcbddc25	-0.023176262
30	0x3c582dd1	0.013194517
31	0x3d048e4c	0.032362267
32	0xbe03d355	-0.12873586
33	0xbd910129	-0.070802994
34	0x3d672a65	0.056436915
35	0x3d2e388d	0.0425344
36	0xbe0d1226	-0.13776454
37	0x3d3b2959	0.04569373
38	0xbddb97b1	-0.10722292
39	0x3ca6c634	0.020358182
40	0xbdcb7139	-0.09933705
41	0xbe1838ce	-0.1486542
42	0x3d6a1b0e	0.057154708
43	0xbd25279d	-0.04032098
44	0xbd959c4d	-0.07305203
45	0x3cd47744	0.025935777
46	0xbd84ba2d	-0.06480823
47	0xbd85467b	-0.06507584
48	0xbd751f9f	-0.05984461
49	0x3d11fc2e	0.035640888
50	0xba7b3d2f	-0.0009584007
51	0xbdc38311	-0.09546483
52	0x3dab9a75	0.0837907
53	0xbe091a30	-0.13388896
54	0xbdaafa25	-0.083484925
55	0xbcdee361	-0.027208032
56	0x3b4fb5e6	0.0031694113
57	0x3cc6845e	0.02423304
58	0xbde385fe	-0.11109541
59	0x3da7d88d	0.08195601
60	0xbb3ebd97	-0.0029104704
61	0xbe032b4f	-0.1280949
62	0xbe024f5d	-0.12725587
63	0xbc2b91ca	-0.010471771
64	0xbd59d91c	-0.053185567
65	0xbd3003f2	-0.042972513
66	0x3b70323a	0.003665103
67	0xbd124e4a	-0.035719194
68	0xbd03bdf4	-0.032163575
69	0x3d75fef2	0.060057588
70	0xbd1c1dc3	-0.03811432
71	0xbdf7f5f9	-0.121074624
72	0xbd9a96b5	-0.07548276
73	0x3d66204a	0.056183137
74	0x3cc0dcab	0.023542723
75	0xbdfe4a94	-0.124165684
76	0xbe00c2ba	-0.12574282
77	0xbdcff465	-0.101540364
78	0x3d056c63	0.03257407
79	0x3cfa9f5c	0.030593567
80	0xbce259da	-0.027630735
81	0xbe1ecd4a	-0.15507999
82	0x3cccff9b	0.025024226
83	0xbda858b1	-0.082200415
84	0xbd605315	-0.054766733
85	0x3d495565	0.049153704
86	0xbca1e8b1	-0.019764276
87	0x39e45633	0.00043551772
88	0xbdc36194	-0.09540096
89	0xbe16186b	-0.14657752
90	0xbd4b8e83	-0.049696457
91	0xbc70b00c	-0.01469041
92	0x3d4b9ffd	0.049713124
93	0x3c4ef9a0	0.012632757
94	0xbd81031c	-0.06299421
95	0xbe181722	-0.14852574
96	0xbdea97a2	-0.11454703
97	0xbdd82ece	-0.10555802
98	0x3b9b977c	0.004748283
99	0x3d83eb6b	0.06441387
100	0xbdc7394b	-0.09727725
101	0xbd21b416	-0.039478384
102	0xbcc87ce0	-0.024473608
103	0xbc75c69c	-0.015000965
104	0xbcb7231a	-0.022355605
105	0xbde30a3d	-0.11085937
106	0xbd581e0f	-0.05276304
107	0xbdd230bf	-0.10263204
108	0xbd93be38	-0.07214016
109	0xbd89ce06	-0.06728749
110	0x393ef4cf	0.0001821101
111	0x3b7a355d	0.003817878
112	0xbd828a55	-0.06374041
113	0xbaa9bb9f	-0.0012949592
114	0xbcf3d301	-0.0297637
115	0xbca25b42	-0.019818906
116	0xbdce6028	-0.10076934
117	0xbd624546	-0.055241846
118	0x3d1352f4	0.035967782
119	0xbe041452	-0.12898377
120	0x3c908d9d	0.017645651
121	0xbd5f710c	-0.05455117
122	0xbda0d465	-0.07853011
123	0x3da20193	0.079104565
124	0xbdd22eac	-0.10262808
125	0x3ae39473	0.0017362967
126	0x3d6643c9	0.05621699
127	0xbdf9ee54	-0.122036606
128	0x3da3a77c	0.079909295
129	0x3cf4cb47	0.029882086
130	0xbd6d1367	-0.05787983
131	0xbde714bc	-0.11283252
132	0x3d87f887	0.066392
133	0xbc975a8f	-0.018475799
134	0xbd8ad696	-0.0677921
135	0x3dabfe75	0.08398143
136	0xbc363e1a	-0.011123205
137	0xbd33ce5b	-0.043897968
138	0xbb138066	-0.0022506951
139	0xbbf4c7a0	-0.007470086
140	0xbd5bb181	-0.053636078
141	0xbd06752b	-0.032826584
142	0x3ce34051	0.02774063
143	0x3c3d67e8	0.011560418
144	0x3de97947	0.11400085
145	0xbdd698de	-0.10478376
146	0x3c478a10	0.012178913
147	0xbc9f35de	-0.019434866
148	0x3de844eb	0.1134127
149	0x3d279bdf	0.040920135
150	0x3d3ffc79	0.046871636
151	0xbd1fc72c	-0.039008304
152	0xbd830a04	-0.06398395
153	0x3d58eed0	0.052962124
154	0x3c149ed0	0.009071067
155	0x3ca6a9ec	0.020344697
156	0x3cdffd32	0.027342413
157	0xbccf81b5	-0.025330404
158	0x3dcd3fa7	0.10021906
159	0x3db1ac3b	0.086754285
160	0xbc90d7e9	-0.017681079
161	0xbcf30fd8	-0.02967064
162	0xbdc91f97	-0.098204784
163	0xbd753cdf	-0.059872504
164	0x3c930af7	0.017949564
165	0x3b326251	0.0027219246
166	0xbd747c91	-0.05968911
167	0xbc17bcec	-0.009261351
168	0xbded439f	-0.11585163
169	0xbc7809e4	-0.015139077
170	0x3c9fe920	0.019520342
171	0x3d28f8d2	0.04125292
172	0xbac00def	-0.001465259
173	0xbc8bac61	-0.01704997
174	0xbd6f66a2	-0.058447488
175	0x3d87f8d3	0.06639256
176	0x3cea1841	0.028576018
177	0xbd097618	-0.03355989
178	0xbe0b2579	-0.13588513
179	0xbc09bbd4	-0.008406598
180	0x3c8b7b7c	0.017026655
181	0xbc8b1e0e	-0.016982105
182	0x3d3b498a	0.04572443
183	0xbc68bd6b	-0.014205317
184	0x3d023387	0.03178742
185	0xbbfc0f4c	-0.007692253
186	0xbd932cc0	-0.0718627
187	0x3d0b1cfb	0.033963185
188	0xbd8bc37b	-0.06824394
189	0x3c70e9f2	0.014704214
190	0xbd85ff1e	-0.065428
191	0x3da62437	0.08112376
192	0x3cccb412	0.024988208
193	0x3cc3f3ab	0.0239199
194	0x3c66762b	0.014066259
195	0xbd56e350	-0.052462876
196	0x3cfd20f6	0.030899506
197	0xbb5c96a0	-0.0033659115
198	0x3c4591b2	0.012058662
199	0xbe392c58	-0.18083322
200	0x3ca0056e	0.01953384
201	0x3d0cffa3	0.03442348
202	0x3bb17e93	0.0054167
203	0x3d9c86fd	0.076429345
204	0x3d93fe4d	0.072262384
205	0xbaed18b0	-0.0018089022
206	0x3db0a506	0.08625226
207	0xbd4a7f7b	-0.04943798
208	0xbc9a6e0a	-0.018851299
209	0x3cdcff6a	0.02697726
210	0x3d551deb	0.052030485
211	0xbca0677a	-0.019580591
212	0xbcc765d5	-0.02434055
213	0x3d2152d7	0.039385643
214	0xbd8387c9	-0.06422383
215	0x3d418829	0.047248993
216	0xbdc5e872	-0.09663476
217	0x3ce66fdd	0.028129512
218	0x3dc4fbdb	0.0961835
219	0x3dc59099	0.096467204
220	0xbc935c10	-0.017988235
221	0x3d43884b	0.0477374
222	0x3dbb9a18	0.091602504
223	0xbcfb69e9	-0.03069015
224	0xbd7e15b2	-0.06203241
225	0xbc19d2ed	-0.0093886675
226	0x3e0b4a90	0.13602662
227	0xbcd0946d	-0.0254614
228	0x3ce7cbaf	0.028295366
229	0x3d465593	0.048421454
230	0x3da0e567	0.07856255
231	0x3da3c9d2	0.079974785
232	0x3d610f4f	0.05494624
233	0x3d49969c	0.049215898
234	0x3d4adf5c	0.04952942
235	0xbe21552b	-0.15755145
236	0xbc978d9e	-0.018500146
237	0xbd699402	-0.057025917
238	0xbd813685	-0.06309227
239	0x3d513ad7	0.051081505
240	0xbd5bf3d6	-0.053699337
241	0x3ce02e61	0.027365865
242	0xbdf833dc	-0.121192664
243	0xbd44a31b	-0.048007112
244	0xbb0fda57	-0.002195021
245	0xbdc17891	-0.09446824
246	0xbd993143	-0.07480099
247	0x3cf01fcb	0.029312035
248	0xbd16d5f3	-0.03682513
249	0xbca267f0	-0.019824952
250	0xbe1ff3b8	-0.15620315
251	0xb9bc6b00	-0.00035937876
252	0x3c44939a	0.011998082
253	0x3df4ea93	0.11958804
254	0x3c97f38f	0.018548755
255	0xbdd6c91b	-0.104875766

fc3.bias f4 [3]
0	0xbdf4290f	-0.11921894
1	0x3d7ceb62	0.061747916
2	0x3d2b78bb	0.041863184
