scripts/models/pg/reinforce_run_1.pth (torch, 76888 bytes, 6 tensors)

fc1.weight f4 [128, 12]
00000000: b55d 3e3d 5b51 99bd b45f 6b3e d533 32be
00000010: 907f 6cbe 7ed0 82be 1310 a63d 6034 d83d
00000020: 3f75 ef3c 06de 603d b330 93be a1ff 963e
00000030: 9007 273e a0f7 f93c 15a0 833e e757 66be
00000040: 402d f7bb e7b7 063e 1ef1 d23d dcc2 66be
00000050: aaa6 1cbe 18ca 49be 59ba b2bd dc7e 6f3e
00000060: 5654 e9bc c7ef 0ebd fd55 a5bc b74d 263c
00000070: 50d7 6e3d 06d8 cf3d 8fb3 2cbe 439b ef3e
00000080: fb22 713e f86c 203e 3ccc fb3d 4a61 143e
00000090: e88f ae3e e14e 873e 9171 983d d00c 94bd
000000a0: f5c3 fdbd 5a19 f13d 79fd 15be 2e07 8abd
000000b0: 2872 d8bd fe30 123e be5b ac3d f960 e8bb
000000c0: e6fd 9b3e defe 893d f8e7 e33d c6ee 31be
000000d0: 80e5 4f3e 42a3 123e eeca aa3e b540 7dbe
000000e0: 5869 9e3e 9b31 ca3c 4777 103e 0dfe 6bbd
000000f0: 0d7b e53d 96b3 34be c048 29be 10b1 61be
00000100: ad4d 81be bd84 c23d 3eb6 88bd 6f6b 37be
00000110: 6979 203e 6527 e63d 5010 a03d f113 ea3d
00000120: 2fbe b23d b9cd 913e ee08 043e ba32 213c
00000130: 112d 57be 90e6 953e 2cd1 da3d 7c5d 16be
00000140: 4901 22be c6c2 683e 5ca7 27be 6981 903e
00000150: d541 9bbd c8e2 773d b1ce 0a3e 3fb3 fd3d
00000160: 045a 1bbe 5117 d13e 9537 05be a3c3 023e
00000170: dc66 4f3e dd7a 113e 6681 4dbe c405 51bd
00000180: a814 d43d ee4b 82be 0495 70be 5c8a 3e3e
00000190: 2ff5 69be 7f1b 4d3d 1afa cf3d 115e a43e
000001a0: f410 94bc f188 78be 4af7 a6bd fe57 7d3e
000001b0: 5470 18bd 0699 703e 8c91 97bd 816b 81bb
000001c0: 4670 28be 83c7 e5bd 9c29 26bd 5b02 95be
000001d0: 83f6 b83d fbfa 3bbd dcfd a83e 38cb 993e
000001e0: a0bf 08be e3bc a9bd 1c00 3cbe 4a13 7ebe
000001f0: 5412 52be 399b bfbd 49fc 5e3c 6d37 6bbe
00000200: 59da 153e 0d35 4fbe c57d 4c3e 75e0 1e3e
00000210: b3fa 35bd 4aea 853e 3ce9 1b3d a80c 173e
00000220: ecd4 bfbd e086 7dbe 13d9 a03e e882 a9be
00000230: 7507 7ebd 23a8 143e a052 9c3e 3d91 ab3e
00000240: 8dd2 fd3c bdb9 a7bd 4587 303e e9bc a7bd
00000250: 9d78 40be 8600 bd3e cde1 573d c45d ce3e
00000260: a155 533e 3c48 913e a65c 4e3e 47cb 91be
00000270: db26 52be a1a3 853e f2d0 753e c875 4b3e
00000280: 20f2 bbbd e59b 853e 918c 383d 5bf7 533e
00000290: fa3a 883e bd43 873e 33fe ccbd 775e 823e
000002a0: 8ddb bd3d 1cc7 33be 02a0 8bbe ab61 0c3d
000002b0: 2f51 58be d06f 8e3e cc06 2abe aae8 03be
000002c0: f6b4 193e 99f2 383e 54af 49be 1ad5 0d3d
000002d0: 82ae 33be a447 d43d fcbd 7abe d88d 7b3e
000002e0: 9a2e 6ebe 50c9 b5bc b8da 68be 2bc5 76be
000002f0: 2c7a 6a3e 147e ad3d 9869 dbbd 37c7 03be
00000300: 448d f43c 17ea 173e a862 5d3c 158f 873e
00000310: 415f b3bc a8b5 c53e 74a2 e63d b2d9 a73e
00000320: daee 563e 4c92 6fbe 54cc 253c d288 493e
00000330: da66 4bbe 88c7 4abe c48e 62be f4bf 853e
00000340: b42c 0c3e 283f b33d 0057 73bc c7f6 81be
00000350: 4878 8bbe b48d b6bd 4e5c 95bd 18b8 35be
00000360: 6f77 58bd 3783 d23d 7028 34bd 866f dcbd
00000370: 3896 3bbe 416b 743e 4147 263e f13e d03e
00000380: c321 84bd 3b59 98bd bf97 c1bd f13a 17bd
00000390: 1ed4 5dbe 8204 4dbd 7214 babd 2626 293d
000003a0: c340 603e 3c26 0fbe 57ad 74be 2ca9 ad3d
000003b0: d215 edbc 9ac0 7bbe 7184 28be 5759 fd3d
000003c0: a25f 3fbe 24d4 fe3d 1ea4 7f3c 9434 133e
000003d0: e36d 7ebe 1d18 24bd 5c2a bdbc 512c 59bc
000003e0: 9678 263d 7ef4 3bbe 73db 073e d172 4bbe
000003f0: e5e2 bc3e ba9d 823e 3bc0 b73d be01 1abe
0.046476085 -0.074862204 0.22985727 -0.17402585 -0.23095536 -0.25549692 0.08108535 0.10556865
0.029230712 0.054899238 -0.28748092 0.29491904 0.16311479 0.030513585 0.2570807 -0.2249447
-0.007543236 0.1315609 0.10299896 -0.2253527 -0.15297952 -0.19705999 -0.08726949 0.23388237
-0.028482597 -0.03489664 -0.020182604 0.010150365 0.058310807 0.10148625 -0.16865371 0.46798143
0.235485 0.15666568 0.12294814 0.14490238 0.34094167 0.26427367 0.07443536 -0.07229006
-0.123908915 0.117724136 -0.14647473 -0.06739651 -0.105686486 0.14276502 0.08415936 -0.007091638
0.30467147 0.06738065 0.11128229 -0.17376241 0.20302391 0.1432009 0.33357948 -0.24731715
0.30939746 0.024681857 0.14108 -0.05761533 0.11205111 -0.17646632 -0.16531658 -0.220402
-0.25254574 0.09497974 -0.06675385 -0.17912076 0.15671314 0.11237983 0.07815611 0.11429585
0.08727681 0.28477266 0.12894031 0.009838754 -0.21013285 0.29277468 0.106844276 -0.14684099
-0.15820803 0.2273055 -0.16372436 0.28223732 -0.07580916 0.06051901 0.13555409 0.12387704
-0.15171057 0.40838102 -0.13009484 0.12769942 0.20254081 0.14207025 -0.20068893 -0.05103089
0.10355502 -0.25448555 -0.23494345 0.18607467 -0.22847436 0.05007505 0.10155125 0.32103017
-0.01807449 -0.24270989 -0.081526354 0.24740598 -0.0372165 0.23495874 -0.07400808 -0.003949583
-0.16449079 -0.112196945 -0.040567026 -0.2910336 0.090313934 -0.04589365 0.3300618 0.30037856
-0.13354349 -0.082879804 -0.18359417 -0.24812046 -0.20514804 -0.09355778 0.013609954 -0.22970362
0.14634074 -0.20235081 0.19969852 0.15515311 -0.04442854 0.2615531 0.038064227 0.14750922
-0.093667835 -0.24758482 0.31415614 -0.33107686 -0.06201883 0.14517264 0.30531788 0.33509246
0.030984187 -0.08189724 0.17239101 -0.08190329 -0.1879601 0.36914462 0.052705575 0.40305912
0.20638134 0.28375423 0.2015253 -0.284754 -0.20522635 0.261014 0.24005488 0.19869149
-0.09177041 0.260955 0.04505593 0.20699827 0.26607496 0.26418868 -0.10009422 0.25462696
0.092703916 -0.17556423 -0.27270514 0.03427283 -0.21124719 0.2781968 -0.16604155 -0.12881723
0.15010437 0.18061294 -0.19695789 0.034627058 -0.17547038 0.10365227 -0.24486536 0.24565828
-0.23259965 -0.02219072 -0.22739685 -0.24098651 0.22898167 0.08471313 -0.107135 -0.12868963
0.029852517 0.14835392 0.013512291 0.2647635 -0.021896007 0.38615155 0.11261454 0.32783276
0.20989552 -0.23395652 0.010119516 0.19681099 -0.19863454 -0.19802678 -0.22124773 0.2612301
0.13688928 0.087522805 -0.014852285 -0.2538359 -0.27240205 -0.089137465 -0.07292996 -0.17746007
-0.052848276 0.102789335 -0.043983877 -0.10763459 -0.18319023 0.23869039 0.16238119 0.4067302
-0.06451752 -0.07438894 -0.094527714 -0.036921445 -0.21662948 -0.050053127 -0.09085931 0.041296147
0.21899705 -0.13979429 -0.23894249 0.084795326 -0.028941069 -0.2458519 -0.16456772 0.12370556
-0.18688825 0.12442806 0.015603093 0.14375526 -0.24846606 -0.04006206 -0.023091488 -0.013255195
0.040642343 -0.18354985 0.13267307 -0.19868018 0.36891857 0.2551096 0.08972212 -0.15039727

fc1.bias f4 [128]
00000000: a37f 0dbe 3373 49be bb76 36be bf73 783e
00000010: 012f ae3d b1c5 3a3e b7c0 d13d 2066 823d
00000020: 961a 25be 388a 183e 1c76 10be 311a c5bd
00000030: db8a 19be bc86 31bd a30e a23d 72db 90be
00000040: 50b2 c8bc a74c 3dbe c9b7 363d d1f1 893d
00000050: 3abc 65be fe97 ca3e da6f c73e 788e 18bd
00000060: 5be7 4c3e 39bd f73d bccc 56bc 1f0d f3bc
00000070: edc9 943e 538a 8d3e e6ab 933e 0cf5 0b3e
00000080: ce4e 9d3e ac9f 313e f036 0e3e c397 c6bd
00000090: 767a b4bd 0bf5 9fbd c7ea 81be fe78 273e
000000a0: b8b4 003e 2b86 9bbd 6e59 6e3e b271 8cbe
000000b0: 52c1 e1bd dbb5 b93d 89ed 90be 22b2 71bd
000000c0: 5a2e 963e 6a00 6fbe 7ebc 6d3b b7d7 84bd
000000d0: 1cd1 e83d 308c 633c 7de5 3fbe 089d f13d
000000e0: dc8c 5f3d 050b 3f3e 7af8 11be 7685 8cbe
000000f0: df90 953e 1ffc 113e 631c 863e 692f 55be
00000100: 909f 983e 84e5 68be ce2d 383e 75a9 82be
00000110: 6a41 8a3e d9ee 1bbc b8cf b6bd b0a7 773d
00000120: 1da8 2a3d a56a 8c3e e3d3 613e a042 773e
00000130: 3b69 1f3e 9f11 afbd d459 43be 8a6b 043e
00000140: 5fb5 ce3d 15c0 f93c a193 b33e 1a1b 9b3e
00000150: 4846 d7bd d216 ea3c ec38 60be 67f2 053d
00000160: b73e 0d3e 783a 67be c5a2 1a3e f15a b83d
00000170: 70d7 98bd 641b c7bc 9b0c 253d c4a2 f03d
00000180: 05c6 613c 4a86 fe3d 7954 41be e841 a73c
00000190: 169f 5bbe 40cb 473e e041 01bd d39c a03d
000001a0: 5994 803c 95b2 18be ea4c fb3b 8614 b23e
000001b0: 3b03 0a3e e68c 053e ae82 1fbe ff06 3e3e
000001c0: e69c 293e 998a 85be 2c36 7b3e d54d 523e
000001d0: 56a5 893b fa47 2f3e b443 73be 691e 673e
000001e0: 1c99 9ebd a8cd 653e dd4a 9c3e a490 b6bd
000001f0: 1c44 0a3e c6e6 6cbe bfca 663e 15e9 7d3c
-0.13818221 -0.19672851 -0.1781873 0.24262904 0.08505059 0.18239476 0.102418356 0.06367135
-0.16123423 0.14896476 -0.14107555 -0.09624136 -0.14994375 -0.043341383 0.07912948 -0.28292423
-0.024499089 -0.18486272 0.044608865 0.06735576 -0.22435084 0.39569086 0.38952523 -0.037245244
0.2001013 0.12096638 -0.013110336 -0.029669343 0.29060307 0.27644596 0.28842086 0.13667697
0.30724186 0.17346066 0.13888144 -0.09696915 -0.0881242 -0.0781041 -0.25374433 0.16354749
0.12568939 -0.0759395 0.23276302 -0.27430493 -0.11023201 0.09067889 -0.28306225 -0.05900777
0.29332238 -0.23340002 0.003627568 -0.06486457 0.113680094 0.013888404 -0.18739887 0.117975295
0.054577693 0.18656547 -0.14254943 -0.27445573 0.2921209 0.14256333 0.26193532 -0.20818867
0.29809237 -0.22743803 0.17986223 -0.2551991 0.27003032 -0.009517395 -0.08926338 0.060462654
0.04166423 0.27425113 0.22053485 0.24146509 0.15567486 -0.08548283 -0.19077235 0.12931648
0.100931875 0.0304871 0.3507357 0.30294114 -0.10511452 0.028575335 -0.21896714 0.032701876
0.13793455 -0.22580898 0.15101154 0.09001721 -0.074629664 -0.024305053 0.040295225 0.11749795
0.013780122 0.12427957 -0.1887988 0.020417169 -0.21447405 0.19511127 -0.031556964 0.07842412
0.015695738 -0.14911874 0.007669081 0.34781283 0.13477795 0.1304203 -0.15577194 0.18557356
0.16563758 -0.26082304 0.24532384 0.20537503 0.004200618 0.171173 -0.23756295 0.22570194
-0.07744047 0.22441733 0.30525866 -0.08914307 0.13502544 -0.23134908 0.22538279 0.015497466

fc2.weight f4 [128, 128]
00000000: 662f ed3d 4f9a 56bc 9fc0 00be 6b67 c53c
00000010: d76c 093e 9bdb 03bc b66e f03c bd22 a93c
00000020: b269 aabd 91dd da3d a2fd 233d 0b4a 293e
00000030: 45b5 eabc 6c2c b3bc f790 d83d b281 353d
00000040: 6420 893d de02 12bd a92d fcbd cfaa d03d
00000050: 234a 9cbd ca0b 4c3e d889 543e 16f6 90bb
00000060: 3c92 573d 87bf 85bd 25a4 2cbe 5ec2 883d
00000070: c63e 90bb 1b0c 193e 37dc a43d 7569 833c
00000080: f78d e23d 2208 f93d bf4d 1d3d c6d6 f73c
00000090: 15da 8e3d 44b6 3ebd 5ea8 95bd 09b5 e03d
000000a0: d01d 9e3c 2035 37bd 6a6e fcbc 3a67 80bd
000000b0: d932 fe3d af7c 63bd 80bc 95bc cfe4 d73d
000000c0: 4922 273e f0d4 2cbe 938d 803d 93e7 bc3d
000000d0: a738 d63c 3b79 003d 83bd a7bd 573c a03d
000000e0: a6d9 053d 5876 1d3e 8069 d3bd 5927 093d
000000f0: b0bc b83d eb0e 5e3e 8b8c a93d 8355 bb3c
00000100: 74aa f13d 586f 81be 6780 d03c 879b 2fbb
00000110: 7cab 723d f85c 4d3c c353 e43c ab70 97bc
00000120: f8b1 7c3d 3f72 ad3d 9f43 8e3c 7efa 063b
00000130: 3c8a 4a3d e475 a7ba 9d7e 693d a619 bc3d
00000140: bc2d b2bc a637 d13d 1e9e 2d3d d6d5 ae3b
00000150: af74 823d 5803 e43d 0955 21bd 855b 563d
00000160: 98b9 9c3d 4d22 4fbd a462 45bc 7b2a 14be
00000170: 6b8d 283e faa0 9d3d 4ad8 483e 8b90 f3bc
00000180: 8c71 513d 3778 6a3d 5365 c23c f5b2 1abc
00000190: 0528 15bd 670a 083e e86c 223e 9735 203c
000001a0: 3b32 b1bd b1d5 7dbd 3529 f83d ed7b 983d
000001b0: af35 ad3d 76cb 343d 6602 2f3e e79a 9a3d
000001c0: 9b7d f8bb 7835 a93c 3610 713e f0de bb3d
000001d0: 409b 393c 3435 1f3d 81bc 47bd 0e77 2b3d
000001e0: 4504 23bd cfc5 c23d 3446 ac3d 8a0a d23d
000001f0: c3bd 133d 56a4 d539 cb6f 063e 1b30 b03c
00000200: 1c47 fc3c 6845 70bc 3856 5a3c 6b22 aabd
00000210: ee05 2dbd c8a8 acbd 9ef4 453d fa4a 793d
00000220: 4836 e93c ea0b 4f3d e65a 5e3d 5294 10bd
00000230: c792 a73d c021 46bc 63e3 9c3d dd4c 35bd
00000240: 4420 98bd 90d9 aabc 2498 a93c 96fa 9bbd
00000250: bc7e af3c 15f0 b1bd 687d e73c 69eb 8fbd
00000260: 809d 673a e1bf 803d c2d4 173d e0c4 4ebc
00000270: 3aab 53bd c033 833b 6c8e 64bd 4fc8 acbd
00000280: e2cf 633d d40d 5cbd 189e b6bc 2951 2bbd
00000290: 04b0 24bd 0046 48bc ba35 473d e13e 97bd
000002a0: ae7f dabc 4a19 723d 44cb 5cbd 8424 e23c
000002b0: 5077 63bd 00ae c8b9 3e01 6dbd 894c 8b3d
000002c0: a343 20bd c03e ac3b a8e9 26bd 00fc f5bb
000002d0: ffa5 1dbd d019 103c 8590 933d 26a7 773d
000002e0: 445c b43c 7c96 d93c dd52 a93d 98dc b83c
000002f0: b4fc 35bd a333 b13d 0146 90bd 8055 2a3c
00000300: 40d0 9bbd 50d0 ea3c 75c7 933d c80f 18bc
00000310: 6496 b0bd b0da cbbc daa5 763d 2867 adbd
00000320: c6ef 79bd 8002 79ba 1438 81bd 00d3 38bc
00000330: 54b1 4cbd 3c1e d13c 6eb4 6b3d 1463 a2bc
00000340: b6b7 93bd 0095 31bc ba2e 0b3d 6501 8b3d
00000350: d5b6 28bd 8007 2bbb d298 75bd 9cde 67bd
00000360: 8099 47ba 0085 e73a ead8 fabc 9c6b aebc
00000370: a29d 193d 300d 7bbc 4349 1abd ccbf a3bd
00000380: b382 8b3d 5a9b 5d3d ceac 3e3d e247 783d
00000390: c23c 253d 1a58 223d a06b 33bc c75d a53d
000003a0: efa0 a13d a84a ae3c ecf4 823c ffb8 24bd
000003b0: c2f0 adbd 16cb 9abd 90e3 e3bb 91b6 a13d
000003c0: f59b 99bd 34c4 b93c b140 a43d 6865 76bc
000003d0: 1c8c 9cbc c01e 4c3c 89de 873d 7cef afbd
000003e0: a4ca a0bd b20e 183d 2a76 783d 66e7 8dbd
000003f0: 3440 1ebd 00d1 d739 3433 003d 2429 abbd
0.11581306 -0.0130983135 -0.12573479 0.024097165 0.13420425 -0.0080479635 0.029349666 0.020646447
-0.08320941 0.10686792 0.040036805 0.16532151 -0.02865089 -0.021871768 0.10574525 0.04431314
0.06695631 -0.035647266 -0.123133965 0.10188829 -0.07631328 0.19926372 0.20755708 -0.004423867
0.052629694 -0.065306716 -0.16859491 0.066776976 -0.0044020144 0.14946024 0.08049815 0.016041497
0.11062234 0.12159754 0.038404223 0.03025378 0.069751896 -0.04656054 -0.07307504 0.1097203
0.019301325 -0.0447284 -0.030814368 -0.06269689 0.12412042 -0.05553883 -0.01827836 0.10541689
0.16321672 -0.16878104 0.06277003 0.09223857 0.02615006 0.031365614 -0.08190443 0.07824009
0.03267827 0.15377176 -0.10322857 0.03348479 0.09020364 0.21685378 0.082787596 0.022867924
0.118000895 -0.2528026 0.025451852 -0.0026795582 0.05924557 0.0125343725 0.027871972 -0.018486341
0.06169316 0.08469056 0.017366229 0.0020596082 0.049448237 -0.0012776223 0.057005513 0.091845796
-0.021750323 0.10215692 0.04238712 0.00533555 0.06369912 0.1113345 -0.039387736 0.052333374
0.07652587 -0.05056982 -0.012047444 -0.1446933 0.16460197 0.076967195 0.19613758 -0.02973201
0.051133677 0.057243552 0.023729956 -0.009442081 -0.03641512 0.13285218 0.15861857 0.009778402
-0.08652159 -0.06197137 0.121172346 0.07445512 0.08457505 0.044139348 0.17090759 0.075490765
-0.0075833327 0.020655379 0.2354134 0.09173381 0.011328518 0.038869098 -0.048763756 0.041861586
-0.039798994 0.09510385 0.08411828 0.102559164 0.036069643 0.00040748966 0.13128583 0.021507313
0.030795626 -0.014664985 0.01332622 -0.08307346 -0.042241983 -0.0843063 0.04832899 0.06086252
0.028468266 0.05054847 0.054285906 -0.0352977 0.081822924 -0.012093008 0.07660558 -0.044262756
-0.07428029 -0.020855695 0.02070243 -0.07616155 0.021422736 -0.0868837 0.02825804 -0.07027323
0.000883542 0.06286598 0.037068136 -0.012620181 -0.051676966 0.004003972 -0.055799887 -0.08436643
0.055618174 -0.053724125 -0.022292182 -0.041825447 -0.040206924 -0.012223721 0.048635222 -0.0738504
-0.02667221 0.05910615 -0.053904787 0.027605303 -0.055533707 -0.00038276613 -0.057862513 0.06801707
-0.039127003 0.005256504 -0.040750176 -0.0075068474 -0.038488384 0.008795217 0.07205299 0.06046214
0.022016652 0.026561014 0.08267758 0.022566125 -0.04443045 0.08652427 -0.07044602 0.010396361
-0.0760808 0.028663784 0.07215778 -0.009281106 -0.08622435 -0.024884552 0.060216762 -0.08466941
-0.06101968 -0.0009498969 -0.06309524 -0.011280775 -0.0499738 0.025527112 0.057545118 -0.019822635
-0.072127745 -0.010838747 0.03398011 0.06787375 -0.041189987 -0.0026097 -0.059960194 -0.05660878
-0.0007614121 0.0017663538 -0.03062101 -0.021291547 0.037503846 -0.015322968 -0.037667524 -0.07995567
0.06812038 0.054103233 0.04655152 0.060615428 0.040341146 0.0396348 -0.010950953 0.08074527
0.07892024 0.021275833 0.015985928 -0.04021549 -0.084931865 -0.07558267 -0.006954618 0.0789615
-0.075004496 0.022676565 0.080201514 -0.015038826 -0.019109778 0.012458503 0.06634242 -0.085906
-0.07851151 0.03712339 0.060659565 -0.069289014 -0.038635448 0.00041163713 0.03129883 -0.08357456

fc2.bias f4 [128]
00000000: 9e49 623d 9a04 523d e428 ddbc 4a16 6c3d
00000010: a25a 573c cff6 653d d0d8 53bd d903 b4bc
00000020: b6d9 c1bc d979 fa3c 734f 9bbd 0aea 823d
00000030: 6e26 9a3d 2e57 36bd 9fc0 3dbd c6fd a53d
00000040: 4223 82bd b6ff 73bc 96ab 29bc 9f59 443d
00000050: 2451 b13d 30b9 c33d c5e4 a63d f122 a1bc
00000060: 8940 193c 7a70 293d fb41 d23d 9709 c2bc
00000070: d213 1b3d 1d58 b2bd f400 2dbd e218 0d3b
00000080: adc9 80bc 1950 86bd 302c abbd b86c b63d
00000090: 1888 b73d ad0b fc3c 090e 3ebc d846 eb3c
000000a0: 7e2d c23c f8c1 7d3d 33e4 323d 0e48 ff3c
000000b0: 80a5 35bd 1fa4 5bbd 99b6 453c 0021 363c
000000c0: 6c5d 86bd 8623 163c 8dd8 a4bc 1b35 cfba
000000d0: bda9 253c 57f5 853d d095 373c 5b7e 003c
000000e0: b00a b8ba c714 f6bb 06ee 87bd 044e 5a3d
000000f0: 7d01 86bd 1630 023d 9594 043d 4f7a a6bd
00000100: ed48 37bd 52c7 98bd f5ad 3abc 33dc 853c
00000110: 1bae 003d a0b8 d33c f8a4 b3bc fb01 a6bc
00000120: 6729 a33c 7930 943c a139 943d 6be3 723d
00000130: 6b13 e63d 867d e73d 41c6 bebd 41e9 71bc
00000140: c469 0f3d 4502 89bd 2ff6 ad3d 194a 89bd
00000150: c2d1 343d fe85 11bd 4a16 103d 31dc 65bd
00000160: 11e7 45bd 568e 04bd 0955 ee3c c93f 0f3c
00000170: 9789 3cbd 8867 35bc b654 58bc 0447 b1bd
00000180: 3353 1ebc 481c df3d 99e5 673d 755b bd3d
00000190: 52db 743d f534 b63c b288 a6bd 0c79 0a3d
000001a0: dbfa fcbc 878f 16bd 44c7 63bc 68b8 7a3d
000001b0: b25f 683d ef48 3d3e 68e5 47bd 41ef 163e
000001c0: 7c79 b03c d5ed a23d 1a12 233c ea10 d33b
000001d0: 1a79 e9bb 2932 543d 2a66 95bd ef81 b8bc
000001e0: 8c18 cfbd 9c78 213c 9f03 96ba c537 9b3d
000001f0: 5a85 5b3c 60dc 8dbd e29a 6cbd 6c86 353e
0.055245988 0.05127392 -0.026997037 0.057638444 0.013144167 0.05614358 -0.05172044 -0.021974491
-0.023663383 0.03057568 -0.07583513 0.06392296 0.07526861 -0.044516735 -0.046326276 0.08105044
-0.06354381 -0.014892509 -0.010355851 0.04793703 0.086580545 0.09556806 0.08149103 -0.019669982
0.009353765 0.04136703 0.10266491 -0.023686213 0.0378607 -0.087082125 -0.042237237 0.0021529724
-0.015721167 -0.06558246 -0.083580375 0.08907455 0.08961505 0.030767286 -0.011600026 0.028720304
0.023703333 0.06195256 0.04367466 0.031162288 -0.044347286 -0.053623315 0.01206746 0.011116266
-0.065607876 0.009163743 -0.02012279 -0.0015808673 0.01011127 0.065409355 0.011205152 0.0078426255
-0.0014041271 -0.007509801 -0.06637196 0.053297058 -0.065432526 0.03178414 0.03236826 -0.08128797
-0.04474728 -0.07459892 -0.011394014 0.01634035 0.03141604 0.025844872 -0.02192925 -0.020264616
0.019917203 0.01808952 0.07237554 0.059298914 0.112341724 0.113032386 -0.09315158 -0.014765085
0.035012975 -0.06689886 0.084942214 -0.06703586 0.044145353 -0.035528176 0.035177507 -0.056118194
-0.048316065 -0.032362305 0.029093282 0.008743235 -0.046029653 -0.011072047 -0.01320379 -0.08656123
-0.009663391 0.10894066 0.056615446 0.0924596 0.059779473 0.022242049 -0.08131541 0.033806846
-0.030881336 -0.036757972 -0.013902489 0.06121102 0.056731887 0.18484853 -0.048802763 0.14739706
0.021542303 0.07955519 0.009953046 0.0064412253 -0.007125032 0.05180565 -0.07294877 -0.022522895
-0.10112104 0.009855416 -0.0011445171 0.075789966 0.013398493 -0.06926799 -0.057764895 0.17727059

fc3.weight f4 [3, 128]
00000000: fe9c 953d 40f4 80ba 58cd bebc 30f3 3ebd
00000010: 2e8d 043c ea62 64bc 9dc1 da3c 35ef 28bd
00000020: 8bcf 43bd ba2f f53d a40a 543d 361f 603c
00000030: 8b0e b43c d824 89bd e704 0cbe 63ce e73d
00000040: ce5d 4f3d 59c6 943d 8d58 603d da1c 02bc
00000050: 83be 203e 1e7c 0a3d 9fa4 2e3e 5843 23be
00000060: c6a5 debd 7203 20bd 115d 153e 62be 84bd
00000070: 472d 4f3d 85f3 ff3c 8b67 72be c5ce 00be
00000080: 34e2 44be 6578 72bd ebee 36be 03fd b43d
00000090: 48fa 013e 3747 dbbc d2a0 803c 7b6b fc3c
000000a0: 9c3b ee3d 03b6 b1bd d1d0 05bb 994e 023d
000000b0: 9763 d93c 9b8b 77bd 0698 193d b826 7abc
000000c0: 78c5 d93c 005b d1bd 7800 323d bee7 ea3b
000000d0: 8422 133c cf2b a33c b322 b33d 73de 273d
000000e0: c347 933c f576 9bbd 9d5a 963d 9104 a83c
000000f0: e2ef 803d 254a 213e d8fa 3b3a abad 2e3d
00000100: 55fa 223d de6c 0fbe 3a1d debc 5422 e7bd
00000110: 9323 af3c 08ea 7cbd bb37 433d e87e 233d
00000120: 3c04 91bd dc06 333d e3ee cfbd 97e7 833c
00000130: 89a4 ea3b 1dd5 323e eb04 8e3c 91f8 be3c
00000140: e0ef 95bc fc7a 5fbe deab 1d3d e717 f0bc
00000150: 1fa2 363c 017d 52bd 402e 98bd a33b 963d
00000160: 03cb b5bd 7f8f 92bd 74e3 60bc 7ce6 84bd
00000170: 3a13 8b3d ce75 8cbd 1fc4 6bbd 82e5 e4bc
00000180: a98e 00be 41a1 d33d 5c16 a23c c2d4 cb3d
00000190: 1f2b b5bd af98 0a3e 4514 933c c1c4 d23c
000001a0: 8e8e 28be 2791 d4bc 6509 3abe bdae af3b
000001b0: 022d 53bd 1f51 bb3d a975 af3d ce47 3a3e
000001c0: cbbf d3bc feaf 323e 7d0c bbbd 54c6 c0bd
000001d0: 952e 553d 066d 9a3d 87e0 6b3d eb97 4b3d
000001e0: 0d00 cc3c b760 60bd 7576 3cbd 1e25 323e
000001f0: 00ae 5abd da11 f5bc eeae 03be d10e f03d
00000200: 9332 43be 5284 04bd 903f 92bb 2758 683d
00000210: e184 aa3d 75a9 1c3d 651a 9fbd c5a7 09be
00000220: c728 4bbc 6af5 233d 2f77 f73c b7ae 9e3d
00000230: 70de 93bd 4021 91bd ab3b 45bc 8aa8 2cbe
00000240: 2d25 8c3d 170a bdbd cb08 72bd 62d9 0dbe
00000250: 5252 45be e56d 37bd 8792 10be 13b6 533c
00000260: 14a1 9ebd 800d a43a 0ff3 fcbd bbf0 2a3d
00000270: 6700 80bc d33b d53c 3bdd ee3c f15c 9ebd
00000280: 4a69 533c 1928 0fbe ea9a 103c 99a7 74bd
00000290: 400b c53b 7dbb fabd 97b8 c8bc e5fb 1eba
000002a0: 7f22 febd fb11 723a c5bc 1abe 543a 4e3b
000002b0: a246 803d b5f3 e5bd 41ba 833c 241b cdbc
000002c0: e653 6b3d 74a2 f8ba e44c 6c3d 2015 43bd
000002d0: 0f81 703d 486c 023a 45cb a93d 412a f53c
000002e0: 5009 923d 9d78 203d fe93 2e3d c591 e73c
000002f0: 9dc5 15bd 1007 28be cde1 a7bb 37e7 2c3d
00000300: f323 303d a9eb 683d e6e7 3b3d 3aa1 b93c
00000310: 923b 543c d140 0b3b bae6 bb3d 10c0 2fbe
00000320: 0caf 29bd a387 7fba 9e3e ed3c b65d f4bd
00000330: 18cf dfbd 55a9 1ebe d6bb 60bc 9da8 aabc
00000340: bf9e 9cbd cdc6 8d3d f01b c5bc c69f adbc
00000350: e6ec 16be 2577 e3bd 4c2d cbbc aacf 1a3d
00000360: cfa2 d53c e955 51bd 1956 a33c 36f5 ee3c
00000370: ecea d4bc 7825 1f3c 390c c9bd bfe6 5f3c
00000380: 23bf 3a3d 7bf8 d5bd 8ac0 433d 3bd5 28be
00000390: cd79 0b3d 3292 1fbe 0571 bc3d 2864 fc3c
000003a0: 3456 033d 9d8a 10bd dccf 3bbc cf9b a73d
000003b0: 8122 023d cd78 3bbe 7f00 933d 0f02 32be
000003c0: 722d 5fbc 4c64 49be 1b74 533c 6cc4 e0bd
000003d0: 15d2 10bd 57f0 653d c983 8a3d 7955 823c
000003e0: 601f a83d d082 d6bd 1aa2 913d dabd 58bd
000003f0: 10ea 0bbd 000c 4239 368d edbb 064c 2cbe
0.073053345 -0.0009838417 -0.023291275 -0.04661864 0.0080903005 -0.013939599 0.02670365 -0.04124375
-0.04780535 0.11971994 0.05176796 0.013679316 0.02197959 -0.066964805 -0.13673745 0.11318662
0.05062657 0.07264394 0.05477195 -0.007941449 0.15697674 0.033809774 0.17054985 -0.15943658
-0.108714625 -0.039065786 0.14586283 -0.06481625 0.05058029 0.031244049 -0.23672311 -0.12578876
-0.19226915 -0.05919685 -0.17864577 0.08837321 0.12693131 -0.026767356 0.015701685 0.03081297
0.11632463 -0.08677294 -0.0020418654 0.031813238 0.026536746 -0.060435873 0.037498496 -0.01526802
0.026583418 -0.10222435 0.04345748 0.007168739 0.008980397 0.01991835 0.08746853 0.04098363
0.017978555 -0.07591049 0.07341502 0.02050999 0.06295754 0.1575094 0.00071708625 0.04264609
0.039789516 -0.14006373 -0.027113546 -0.112858444 0.021379268 -0.061746627 0.04766057 0.03991595
-0.07080886 0.043707713 -0.10152986 0.016101642 0.0071607274 0.17464109 0.01733633 0.023311885
-0.018302858 -0.21824259 0.038493983 -0.029308273 0.011147051 -0.051388744 -0.074306965 0.073355936
-0.08876612 -0.07156276 -0.013726104 -0.06489274 0.067907766 -0.06858407 -0.057560083 -0.02794147
-0.1255442 0.10333491 0.019786052 0.0995269 -0.08846115 0.13534807 0.017954001 0.025728585
-0.1646063 -0.02594812 -0.18167646 0.0053614066 -0.051556595 0.09146332 0.08567364 0.18191454
-0.02584829 0.17449948 -0.09133241 -0.09412828 0.052046377 0.07540326 0.057587173 0.049705427
0.024902368 -0.054779734 -0.046011407 0.17396972 -0.053388596 -0.029915739 -0.12859699 0.11721576
-0.19062261 -0.032352753 -0.0044631436 0.056724694 0.08326126 0.038247544 -0.07768706 -0.13442905
-0.012399859 0.040028967 0.030208198 0.07748168 -0.07220161 -0.0708642 -0.012038152 -0.16861168
0.06843028 -0.0923044 -0.059090417 -0.13852456 -0.19269684 -0.044782538 -0.14118396 0.012921828
-0.07745567 0.001251623 -0.12351047 0.041733485 -0.015625192 0.026029503 0.029158225 -0.07732571
0.012903521 -0.1398014 0.008825997 -0.059730146 0.006013304 -0.12242792 -0.024502082 -0.0006064757
-0.12408923 0.00092342467 -0.15111072 0.0031467872 0.06263472 -0.11228124 0.016080024 -0.025037356
0.05745306 -0.0018969313 0.057690516 -0.04762757 0.05871683 0.00049752416 0.08290724 0.029927375
0.071306825 0.039177526 0.042621605 0.02826775 -0.03656541 -0.16408944 -0.005123353 0.04221269
0.043003034 0.056865368 0.045875452 0.022659887 0.012953656 0.002124835 0.09174867 -0.1716311
-0.041426703 -0.00097476895 0.028960522 -0.119319364 -0.10928172 -0.15494283 -0.013716659 -0.020832354
-0.07647466 0.06922684 -0.024061173 -0.02119435 -0.14738807 -0.111067094 -0.024801873 0.0377957
0.02607861 -0.05110732 0.019938515 0.02916966 -0.025990926 0.009713523 -0.098167844 0.013665854
0.04559244 -0.104477845 0.04779104 -0.16487591 0.034051705 -0.15583113 0.09201244 0.030809477
0.03206463 -0.035288442 -0.011463132 0.08184015 0.031771187 -0.183078 0.07177829 -0.17383598
-0.013621675 -0.19667166 0.0129061 -0.109749645 -0.0353566 0.05613741 0.06763417 0.015909897
0.08209109 -0.10474169 0.071109965 -0.05291543 -0.034158766 0.00018505752 -0.0072494997 -0.16825876

fc3.bias f4 [3]
00000000: 2c09 053e 9485 c2bc 6696 a73d
0.1299178 -0.023745336 0.08182983
