scripts/models/pg/reinforce_run_9.pth (torch, 76888 bytes, 6 tensors)

fc1.weight f4 [128, 12]
0.19550171 -0.08336734 0.0880895 0.18449526 0.19756433 0.2648387 -0.049905352 -0.07145693
0.17775217 0.12957005 0.14885685 -0.21110493 -0.11763082 -0.24495916 0.25619605 0.033865843
-0.09585446 -0.31166178 0.16847695 -0.070179895 -0.037192963 -0.21231298 0.23372097 0.2245566
0.105218425 -0.23023322 -0.11914664 0.23490132 -0.22051525 0.282979 0.04698241 0.06670175
0.056258217 -0.26355258 0.011187758 0.087055124 -0.2446246 0.21506025 0.13983619 0.30236748
0.047228444 -0.32593247 0.13323632 -0.027988927 -0.028290946 0.025065687 0.25841862 0.21989208
-0.0686532 0.059614982 -0.09183678 0.15658922 0.2206392 0.392913 0.11138183 0.36549938
-0.13316919 -0.1344677 -0.15153378 0.044261172 -0.10568467 -0.26070893 0.14531925 0.11091463
-0.27093458 0.046377365 0.13338651 -0.23807526 0.1733635 0.06412903 -0.253093 -0.004684439
-0.03434901 0.26148275 0.28656182 0.2374995 -0.22709607 -0.16621105 0.21284676 -0.022606693
0.034590423 -0.24108084 0.2727209 -0.10894191 0.18788244 0.07642096 0.116024904 -0.017068978
0.022791674 0.018611958 -0.15026352 0.10369904 -0.20296933 -0.05944475 -0.078785196 0.21242309
-0.024233662 -0.03959441 -0.25768623 0.1990542 0.2615569 -0.19991036 0.23074712 -0.107790075
0.041085515 0.040398948 -0.1936972 0.23952399 -0.12181292 0.2309464 0.032663774 -0.22142763
-0.00936537 0.0078981 0.10829415 -0.29712707 -0.077701084 0.285483 0.25850156 -0.03591252
0.20862865 0.2416765 -0.24203146 -0.21967696 -0.16996732 0.025394995 0.05789734 -0.14786708
0.317891 -0.014463964 0.084906965 -0.2239323 0.037904974 -0.17271322 -0.041323952 -0.21133283
-0.1312113 0.13788284 -0.20105807 0.36166352 -0.03821864 -0.043125454 0.040448986 0.09065976
-0.22592866 -0.038726248 0.2715485 0.020562219 0.1429935 -0.12047492 0.005369777 0.30247742
-0.058557063 -0.25624153 0.15810974 -0.16396551 0.2620086 0.024554538 0.08377106 0.12443295
-0.05091722 0.039703563 0.13442914 0.095990896 0.0073987255 0.117800616 -0.03207426 -0.22499193
-0.22050303 0.2526243 0.1725268 0.29129165 0.09264905 0.20824245 0.07588375 0.14382361
-0.2257776 -0.1152915 0.05387778 -0.23371427 0.058554422 -0.24237923 -0.033555936 0.10128753
-0.06286136 -0.18462743 0.28888682 -0.09000212 0.218577 -0.09796904 -0.031998817 0.2651938
-0.13794334 -0.05411704 0.1539168 0.0285718 0.07533212 0.32606685 0.17277329 0.07078627
-0.01594124 0.14131607 0.021134332 -0.2545913 -0.17269568 -0.027576365 0.037613202 0.00279555
0.18351693 0.38030517 -0.2033948 0.29678652 0.3168802 -0.14972824 0.22387281 -0.15869266
0.16095632 0.07056101 -0.19126303 0.25359434 -0.05990604 0.2784973 0.109441705 -0.002176314
-0.018525451 0.06691541 0.20417309 0.0019825932 -0.21741073 0.12324962 -0.18913929 0.19755462
-0.050043337 -0.034923166 0.09201566 0.36482754 -0.059412066 0.10059913 -0.098762825 -0.16222343
-0.14836086 -0.27499574 0.28284276 -0.19315079 0.25156426 0.2142892 0.2219062 0.20995514
-0.19845644 -0.21421362 -0.20101415 -0.24143574 0.19881092 -0.18105212 -0.16520832 0.05721507
00000000: 9a31 483e 7fbc aabd 4568 b43d 53ec 3c3e
00000010: 4e4e 4a3e f098 873e 8e69 4cbd 0358 92bd
00000020: aa04 363e 03ae 043e ee6d 183e e42b 58be
00000030: 6de8 f0bd 93d6 7abe 212c 833e e9b6 0a3d
00000040: 584f c4bd 2292 9fbe 3985 2c3e 7aba 8fbd
00000050: a657 18bd 9368 59be 8d54 6f3e 2af2 653e
00000060: c27c d73d 42c2 6bbe 2703 f4bd f989 703e
00000070: c0ce 61be a0e2 903e a170 403d ed9a 883d
00000080: 046f 663d 5df0 86be dc4c 373c f549 b23d
00000090: df7e 7abe c138 5c3e 3831 0f3e e9cf 9a3e
000000a0: 9d72 413d 9fe0 a6be 1a6f 083e 0949 e5bc
000000b0: 6ac2 e7bc 8e56 cd3c 724f 843e 642b 613e
000000c0: 0d9a 8cbd d72e 743d ec14 bcbd ed58 203e
000000d0: 3eef 613e e52b c93e 281c e43d bc22 bb3e
000000e0: 815d 08be e7b1 09be ac2b 1bbe 344b 353d
000000f0: 3471 d8bd a47b 85be 92ce 143e 3627 e33d
00000100: f0b7 8abe 31f6 3d3d 7996 083e 00ca 73be
00000110: 3486 313e 1556 833d 6895 81be ec7f 99bb
00000120: 8cb1 0cbd 11e1 853e 3bb8 923e 1233 733e
00000130: df8b 68be 3b33 2abe 80f4 593e ac31 b9bc
00000140: b0ae 0d3d e5dd 76be 13a2 8b3e f01c dfbd
00000150: 4164 403e 9882 9c3d 779e ed3d 3ed4 8bbc
00000160: 9bb5 ba3c 1b78 983c aede 19be 2a60 d43d
00000170: 31d7 4fbe 577c 73bd 225a a1bd 7085 593e
00000180: ac85 c6bc c02d 22bd 73ef 83be ddd4 4b3e
00000190: c9ea 853e 4db5 4cbe f948 6c3e 0bc1 dcbd
000001a0: 4949 283d 5e79 253d 8f58 46be c745 753e
000001b0: 0d79 f9bd 377d 6c3e 73ca 053d edbd 62be
000001c0: 3571 19bc 0867 013c 53c9 dd3d 0a21 98be
000001d0: bf21 9fbd d42a 923e 515a 843e 0219 13bd
000001e0: c0a2 553e 0b7a 773e 18d7 77be fff2 60be
000001f0: ea0b 2ebe 2a09 d03c c325 6d3d 786a 17be
00000200: 9cc2 a23e 43fa 6cbc b4e3 ad3d 824e 65be
00000210: 3f42 1b3d bcdb 30be 4e43 29bd a267 58be
00000220: 415c 06be 2931 0d3e 2be2 4dbe f62b b93e
00000230: 268b 1cbd 51a4 30bd d6ad 253d d3ab b93d
00000240: d859 67be 6a9f 1ebd 6808 8b3e 1972 a83c
00000250: e36c 123e 8ebb f6bd f4f4 af3b 52de 9a3e
00000260: 88d9 6fbd 1732 83be 85e7 213e 93e6 27be
00000270: fe25 863e 9926 c93c 2990 ab3d b4d6 fe3d
00000280: 938e 50bd 34a0 223d cba7 093e e096 c43d
00000290: 0271 f23b 7341 f13d 4d60 03bd 4964 66be
000002a0: 8ccb 61be f957 813e deaa 303e 2e24 953e
000002b0: c9be bd3d 823d 553e f168 9b3d 7f46 133e
000002c0: 3e32 67be f31d ecbd f2ae 5c3d cb52 6fbe
000002d0: c3d6 6f3d 4332 78be f371 09bd d66f cf3d
000002e0: 75bd 80bd f90e 3dbe f9e8 933e 0853 b8bd
000002f0: a6d2 5f3e fea3 c8bd 3111 03bd 7bc7 873e
00000300: 0541 0dbe d4a9 5dbd 5e9c 1d3e 680f ea3c
00000310: ba47 9a3d 3cf2 a63e 7beb 303e 64f8 903d
00000320: 3497 82bc 29b5 103e e821 ad3c ca59 82be
00000330: 23d7 30be d4e7 e1bc 4d10 1a3d 8c35 373b
00000340: ddeb 3b3e 5cb7 c23e ba46 50be 67f4 973e
00000350: 1f3e a23e 5c52 19be ea3e 653e 5480 22be
00000360: bcd1 243e 4a82 903d 75da 43be 1ed7 813e
00000370: 0960 75bd 3397 8e3e f922 e03d 7da0 0ebb
00000380: b0c2 97bc f20a 893d c012 513e 65ee 013b
00000390: eba0 5ebe 4c6a fc3d bbad 41be c24b 4a3e
000003a0: 3efa 4cbd 980b 0fbd b572 bc3d adca ba3e
000003b0: 115a 73bd eb06 ce3d 2a44 cabd e61d 26be
000003c0: e9eb 17be 3ecc 8cbe c4d0 903e 52c9 45be
000003d0: 08cd 803e a16e 5b3e 613b 633e 7bfe 563e
000003e0: 2a38 4bbe d15a 5bbe a7d6 4dbe ee3a 77be
000003f0: 1795 4b3e ba65 39be 5f2c 29be 595a 6a3d

fc1.bias f4 [128]
-0.022332828 0.19148035 -0.17272426 -0.16237883 -0.08459434 -0.19928129 0.10544617 -0.13012175
-0.006153492 0.3307049 0.16155908 -0.120209426 -0.22167061 0.11435608 0.21333502 0.15835117
-0.07416119 -0.17907731 -0.095845774 0.052727252 -0.17916135 -0.104154654 -0.24666421 0.30814913
-0.043045677 -0.22245508 0.22723204 -0.19475028 0.1443143 -0.023678498 0.13121897 0.1927156
0.31979153 0.19433336 0.15533575 0.10542511 -0.15275283 0.026408508 0.09294929 -0.1340273
0.15616223 0.31031236 0.34548235 -0.14137672 0.16342105 -0.030432215 -0.21492909 0.08487799
-0.18281738 0.26988143 -0.0014514226 -0.20998645 -0.12327352 -0.045804568 0.25036228 0.13689952
-0.068160705 0.03916314 0.055677634 -0.047178127 0.12404672 -0.09560043 0.10877778 0.25857517
0.007540121 0.2504388 -0.1576929 -0.14957133 -0.26902765 0.3708743 -0.18790983 0.19257866
-0.118252605 0.06304024 -0.08626196 0.35157976 -0.19357024 0.3125308 -0.013402829 -0.032109715
-0.21818388 0.26304296 0.23039164 0.26033735 0.30869463 0.08883592 0.084813036 -0.17411314
0.302702 -0.24045822 -0.16013217 -0.10294331 0.108800754 -0.2479651 -0.081048295 -0.124296255
0.30586904 0.13080724 0.065120175 -0.18517375 -0.17139494 0.08573154 0.05752163 -0.0017246777
0.34417328 0.21759298 -0.19916356 0.13341591 -0.014661996 -0.12954602 0.13067223 0.2163532
-0.089752 -0.013379476 0.117165305 0.20349969 -0.10371942 -0.058580887 0.1934587 -0.1872741
0.15447554 -0.17960994 0.21633533 0.16232389 0.06440896 -0.12326018 -0.21335529 0.23139231
00000000: 56f3 b6bc 6d13 443e a1de 30be a346 26be
00000010: cc3f adbd 6510 4cbe 29f4 d73d a33e 05be
00000020: 3ba3 c9bb 2752 a93e be6f 253e 5c30 f6bd
00000030: 9ffd 62be 8533 ea3d 7f74 5a3e cf26 223e
00000040: d2e1 97bd 0b60 37be ca4a c4bd 88f8 573d
00000050: 1376 37be 094f d5bd 8b95 7cbe b9c5 9d3e
00000060: aa50 30bd 44cb 63be 84af 683e 9e6c 47be
00000070: 21c7 133e 69f9 c1bc 445e 063e 3d57 453e
00000080: b7bb a33e 53ff 463e 5610 1f3e 1fe9 d73d
00000090: 3d6b 1cbe a856 d83c 335c be3d 743e 09be
000000a0: fee8 1f3e 43e1 9e3e 10e3 b03e 0fc5 10be
000000b0: d957 273e fb4c f9bc 5f16 5cbe 83d4 ad3d
000000c0: 7b34 3bbe e62d 8a3e a93d beba b006 57be
000000d0: d476 fcbd 929d 3bbd 7c2f 803e 632f 0c3e
000000e0: d797 8bbd 8769 203d 3b0e 643d da3d 41bd
000000f0: 350c fe3d 29ca c3bd e2c6 de3d f763 843e
00000100: 1f13 f73b 8439 803e 3f7a 21be 3a29 19be
00000110: febd 89be 3ce3 bd3e 6f6b 40be 5733 453e
00000120: 6c2e f2bd 3e1b 813d 1caa b0bd 4302 b43e
00000130: 4737 46be 0904 a03e 8a97 5bbc 7a85 03bd
00000140: 986b 5fbe 91ad 863e c9eb 6b3e f04a 853e
00000150: 390d 9e3e 9bef b53d 75b2 ad3d b74a 32be
00000160: c2fb 9a3e ae3a 76be b0f9 23be f1d3 d2bd
00000170: eed2 de3d 90ea 7dbe a6fc a5bd 098f febd
00000180: de9a 9c3e 55f2 053e ba5d 853d 309e 3dbe
00000190: 2882 2fbe 0594 af3d cd9b 6b3d 950e e2ba
000001a0: 7b37 b03e b2d0 5e3e 88f1 4bbe 2e9e 083e
000001b0: de38 70bc b6a7 04be f1ce 053e b18b 5d3e
000001c0: e6cf b7bd 9735 5bbc 5df4 ef3d 3962 503e
000001d0: d96a d4bd 83f2 6fbd 0a1a 463e c8c4 3fbe
000001e0: d62e 1e3e abeb 37be 0287 5d3e 3c38 263e
000001f0: d8e8 833d d56f fcbd cf79 5abe 1bf2 6c3e

fc2.weight f4 [128, 128]
-0.08364388 -0.05112198 0.073300354 0.03130209 -0.088890284 0.014222854 0.03827539 -0.039315775
0.070931524 -0.06432605 0.021292152 0.019857323 -0.056551185 0.053190257 0.016801814 -0.03020238
-0.027409786 0.0146316355 0.0126723545 -0.100422926 0.048610013 0.07132401 0.009587668 0.047438487
-0.043379802 0.0095126955 -0.021545397 -0.022155425 0.0012575437 -0.08638064 -0.039967835 0.055623624
-0.055696275 0.019973526 -0.061391436 -0.035105783 0.035536796 -0.092624344 -0.061519377 -0.09424486
0.06936244 0.026038967 0.06177679 0.080132805 0.03268833 -0.024238534 0.039328672 0.026460895
-0.07027363 -0.088701285 -0.04906719 0.0049400385 -0.07722805 -0.069473125 0.0027326362 -0.044380352
-0.04958651 0.06543293 0.01227261 0.026044067 -0.007426279 -0.020754639 5.9096987e-05 -0.027684212
0.04028538 -0.04511591 0.07430879 -0.084125094 0.05913201 -0.045176875 -0.047841057 0.044599418
0.027245495 0.02513811 -0.0025316614 0.03952083 0.06088116 -0.045040842 0.0619671 -0.058931425
-0.019760989 -0.022838322 -0.0010928926 -0.085147366 0.067343846 -0.03189324 -0.040683996 -0.08412591
0.049162034 -0.05552088 -0.047394022 0.04675643 -0.06829367 -0.05969402 -0.016910288 -0.015010364
-0.050376225 -0.017474294 0.05439162 -0.027376167 0.06591722 -0.052815802 0.021860873 -0.04439651
-0.025528803 0.010219407 0.0417441 -0.09618248 -0.04915661 0.08071241 -0.020421542 0.061890043
0.04893196 -0.040052757 -0.08825342 0.0020380113 -0.075445026 0.047071274 0.019664336 -0.009371468
-0.07317991 -0.035414994 -0.060356993 -0.09665509 -0.027975013 0.039223567 -0.08365284 -0.09756121
0.0023648299 0.05185863 0.062385976 0.003989081 -0.010884228 0.06583394 -0.06727285 -0.04563232
0.08178834 -0.019678522 0.05946349 0.03305109 0.05679828 0.07794769 0.043473154 0.055464264
0.07824288 -0.049533755 -0.07064951 0.078865185 0.060810376 -0.073478915 0.07303568 0.02965089
-0.0009866578 0.044218183 -0.037769753 -0.053072065 -0.0028305675 -0.04142188 0.08358955 0.055326145
-0.09683985 -0.08932948 0.027810888 -0.043719582 -0.016635329 0.0056442255 -0.02154958 0.08067708
-0.012428415 0.058809627 -0.08738809 0.08443487 0.043167688 0.018543543 -0.028959952 0.045130115
-0.026585696 0.07317625 -0.040047403 -0.0796745 -0.044059943 -0.02244765 0.053187594 0.042661406
0.013990463 -0.034455933 -0.010702922 -0.049131706 0.0052054767 0.0421988 0.038900826 0.06790668
-0.07201303 -0.05824952 -0.009855955 -0.016917914 0.004548602 -0.07311585 0.031374827 -0.041121375
-0.019025669 -0.009788159 -0.055331465 -0.07564439 0.08430026 0.025612496 -0.07574673 -0.058416728
-0.08155047 -0.06442494 0.041525654 -0.05449633 0.07728654 -0.018560499 -0.008957161 -0.0059590437
-0.055744622 -0.054752395 0.089516565 -0.01433545 0.03149723 0.08491258 0.057464678 -0.07006444
0.001672262 -0.089643955 0.02949261 -0.06641938 -0.016202219 0.061959617 -0.0014593652 -0.06730507
-0.0031272934 0.015566067 -0.07388308 0.006451542 -0.06641113 -0.02526613 0.05412706 0.013606742
0.00474406 0.03416073 -0.09032511 0.031088527 -0.07881952 0.03224416 0.031777233 0.056481842
0.003933701 0.04796742 0.00701602 0.051569052 -0.014542481 -0.026286071 -0.010104618 0.07079036
00000000: 7c4d abbd 4865 51bd 7f1e 963d 9f36 003d
00000010: 1c0c b6bd f906 693c a8c6 1c3d 9409 21bd
00000020: 8c44 913d 60bd 83bd e16c ae3c d3ab a23c
00000030: 37a2 67bd 07de 593d f5a3 893c fb6a f7bc
00000040: 7d8a e0bc 87b9 6f3c b59f 4f3c 89aa cdbd
00000050: 4b1b 473d 5312 923d 9815 1d3c dc4e 423d
00000060: 05af 31bd 23db 1b3c f97f b0bc 4b7f b5bc
00000070: 2ad4 a43a 55e8 b0bd 50b5 23bd 99d5 633d
00000080: c721 64bd 859f a33c 9675 7bbd 15cb 0fbd
00000090: 088f 113d d5b1 bdbd befb 7bbd 7303 c1bd
000000a0: e50d 8e3d ac4f d53c a909 7d3d ab1c a43d
000000b0: 33e4 053d e48f c6bc 1a17 213d 85c4 d83c
000000c0: 9feb 8fbd 05a9 b5bd aefa 48bd 0ce0 a13b
000000d0: bd29 9ebd ed47 8ebd 0716 333b 2cc8 35bd
000000e0: 391b 4bbd b301 863d 0f13 493c 5e5a d53c
000000f0: 2558 f3bb a205 aabc e8de 7738 00ca e2bc
00000100: 4802 253d 76cb 38bd 352f 983d c749 acbd
00000110: 6834 723d 630b 39bd fcf4 43bd e1ad 363d
00000120: f231 df3c 70ee cd3c 3bea 25bb 98e0 213d
00000130: 865e 793d bf7c 38bd 37d1 7d3d 1462 71bd
00000140: cce1 a1bc 6f17 bbbc 643f 8fba be61 aebd
00000150: 92eb 893d 7ca2 02bd 43a4 26bd 354a acbd
00000160: 215e 493d dd69 63bd 3c20 42bd ac83 3f3d
00000170: 8ddd 8bbd b781 74bd 7287 8abc 08ee 75bc
00000180: 4d57 4ebd 4026 8fbc bfc9 5e3d fc43 e0bc
00000190: 9cff 863d 6255 58bd 9315 b33c 1dd9 35bd
000001a0: c821 d1bc 4d6f 273c ddfb 2a3d 52fb c4bd
000001b0: 7158 49bd 8c4c a53d 144b a7bc 6a80 7d3d
000001c0: e16c 483d 5c0e 24bd 36be b4bd 2890 053b
000001d0: ec82 9abd cfcd 403d 1a17 a13c c98a 19bc
000001e0: 59df 95bd 500f 11bd e538 77bd 1bf3 c5bd
000001f0: db2b e5bc e4a8 203d 2e52 abbd 2cce c7bd
00000200: 43fb 1a3b b769 543d 7088 7f3d d6b6 823b
00000210: c353 32bc f2d3 863d 59c6 89bd f5e8 3abd
00000220: a580 a73d da34 a1bc fd8f 733d 9460 073d
00000230: 50a5 683d 0aa3 9f3d e810 323d 7f2e 633d
00000240: ce3d a03d e8e3 4abd b1b0 90bd 1284 a13d
00000250: 4d14 793d 1d7c 96bd bb93 953d 6ce6 f23c
00000260: be52 81ba 201e 353d 75b4 1abd 1862 59bd
00000270: 0b81 39bb fda9 29bd ff30 ab3d ab9d 623d
00000280: f953 c6bd 60f2 b6bd a9d3 e33c 4e13 33bd
00000290: d046 88bc 32f3 b83b bf88 b0bc 063a a53d
000002a0: 8da0 4bbc 5de2 703d 87f8 b2bd 30ec ac3d
000002b0: 9ad0 303d a1e8 973c 6c3d edbc 5bda 383d
000002c0: 3fca d9bc 6edd 953d bf08 24bd 622c a3bd
000002d0: 3378 34bd 22e4 b7bc 3cdb 593d babd 2e3d
000002e0: 4138 653c aa21 0dbd 4f5b 2fbc 543e 49bd
000002f0: b492 aa3b a6d8 2c3d 7956 1f3d a812 8b3d
00000300: 917b 93bd 0c97 6ebd df7a 21bc 7097 8abc
00000310: 700c 953b c3bd 95bd e482 003d e36e 28bd
00000320: b8db 9bbc 845e 20bc 3fa3 62bd 72eb 9abd
00000330: 9da5 ac3d 4cd1 d13c 1a21 9bbd 6146 6fbd
00000340: ef03 a7bd 39f1 83bd ce16 2a3d 8b37 5fbd
00000350: 6848 9e3d 300c 98bc 0ec1 12bc 1544 c3bb
00000360: 7954 64bd 0c44 60bd 7654 b73d 3cdf 6abc
00000370: 3d03 013d a6e6 ad3d 1560 6b3d f27d 8fbd
00000380: cd2f db3a 4097 b7bd 7c9a f13c e206 88bd
00000390: 84ba 84bc 5ec9 7d3d 2c48 bfba 3ed7 89bd
000003a0: 47f3 4cbb d108 7f3c 0350 97bd 7567 d33b
000003b0: 8f02 88bd eafa cebc 56b4 5d3d d0ee 5e3c
000003c0: 0f74 9b3b 1fec 0b3d 5ffc b8bd 5ead fe3c
000003d0: 216c a1bd 7412 043d d828 023d 8159 673d
000003e0: 47e6 803b 7c79 443d a4e6 e53b 123a 533d
000003f0: 9643 6ebc e355 d7bc d78d 25bc 89fa 903d

fc2.bias f4 [128]
0.02147649 -0.06901477 -0.018375594 0.13649711 -0.029465457 0.027906882 0.048397064 0.08798897
0.07057422 -0.02525599 0.010789566 0.12168258 0.015342434 -0.07198851 0.07381144 0.0438921
-0.060208797 0.051888898 -0.04104257 0.04340075 0.019792212 -0.025002962 0.0013877822 0.044265226
-0.06530253 -0.037697773 0.10491485 -0.0791301 -0.06227772 -0.04041833 0.05173323 0.089212276
-0.049248166 0.0925335 0.00440549 -0.014505255 0.008064479 -0.039009158 -0.033545267 0.026865067
-0.08767527 -0.03678588 -0.07005788 0.05418369 -0.06660003 0.029434435 -0.0036254013 0.06306837
0.019794067 -0.051984422 -0.08337929 -0.05795685 -0.0048049097 0.05420809 0.057974525 0.017115476
-0.003557101 0.036221698 0.033989213 -0.06731543 -0.001044078 0.07536443 -0.025660032 0.05390764
0.038110793 -0.086245485 0.028798016 -0.032763485 -0.09235011 0.06782087 0.06296054 0.029100463
-0.03042331 0.051973898 -0.011415168 -0.0712744 0.07492028 0.13401735 0.044165026 0.029623533
0.10149301 0.08718576 0.043103803 -0.02465697 0.09992412 -0.08349377 -0.013974891 0.017266084
0.033902045 0.00042869608 0.04067856 -0.021985719 0.034253683 0.09887334 -0.045207802 -0.051240467
-0.013583097 -0.038688686 0.09420851 0.12833701 -0.03593043 0.03817539 0.013824964 -0.044493906
0.05002025 0.09907504 0.05929432 0.15276258 0.04410067 0.046893604 0.06406011 -0.013575202
0.08650317 0.052140336 0.051039085 0.066050395 0.04480144 0.027145619 -0.07893652 0.028422294
-0.03845521 0.04585756 0.07706387 0.09058473 0.0153958425 0.076386616 0.07917433 -0.012124566
00000000: 77ef af3c 9e57 8dbd 6a88 96bc e6c5 0b3e
00000010: 8b61 f1bc f99c e43c 003c 463d 9033 b43d
00000020: 3789 903d a6e5 cebc b8c6 303c b734 f93d
00000030: d55e 7b3c b66e 93bd 742a 973d 34c8 333d
00000040: 809d 76bd 7489 543d 411c 28bd fcc4 313d
00000050: 4723 a23c 03d3 ccbc 3ee6 b53a 744f 353d
00000060: 55bd 85bd fb68 1abd 99dd d63d f60e a2bd
00000070: ec16 7fbd b18d 25bd 39e6 533d edb4 b63d
00000080: 72b8 49bd 3482 bd3d ee5b 903b 73a7 6dbc
00000090: e020 043c 11c8 1fbd c366 09bd 2114 dc3c
000000a0: 188f b3bd caac 16bd 817a 8fbd b8ef 5d3d
000000b0: 9965 88bd 7c20 f13c 2498 6dbb fd29 813d
000000c0: 2b27 a23c 9eed 54bd c3c2 aabd 2964 6dbd
000000d0: 8172 9dbb 4d09 5e3d b276 6d3d c135 8c3c
000000e0: 401e 69bb 345d 143d 4638 0b3d acdc 89bd
000000f0: 72d9 88ba ab58 9a3d fd34 d2bc 42ce 5c3d
00000100: 101a 1c3d 79a1 b0bd d1e9 eb3c 0133 06bd
00000110: 0e22 bdbd abe5 8a3d 75f1 803d 1864 ee3c
00000120: 4e3a f9bc 95e2 543d af06 3bbc 50f8 91bd
00000130: ce6f 993d d83b 093e 63e6 343d 0dad f23c
00000140: 91db cf3d 738e b23d 9d8d 303d 6afd c9bc
00000150: 04a5 cc3d c8fe aabd f1f6 64bc 9a71 8d3c
00000160: dfdc 0a3d 9dc2 e039 909e 263d 651b b4bc
00000170: 974d 0c3d 1b7e ca3d d12b 39bd 86e1 51bd
00000180: a38b 5ebc 0778 1ebd 64f0 c03d c76a 033e
00000190: c92b 13bd cc5d 1c3d 1a82 623c 3e3f 36bd
000001a0: 09e2 4c3d dbe7 ca3d 9ade 723d cb6d 1c3e
000001b0: e7a2 343d 8213 403d f231 833d 866a 5ebc
000001c0: 9328 b13d 1b91 553d 5c0e 513d 6e45 873d
000001d0: b781 373d 7d60 de3c 78a9 a1bd dfd5 e83c
000001e0: 3683 1dbd 23d5 3b3d aad3 9d3d 7d84 b93d
000001f0: d83e 7c3c 9670 9c3d 2726 a23d 1ea6 46bc

fc3.weight f4 [3, 128]
0.04671526 -0.04617975 -0.0022982224 0.15299366 0.032950908 -0.024864912 -0.03305426 0.026856992
0.07322564 -0.042992093 -0.041705675 0.050552186 0.1064759 -0.038906526 0.10114104 0.07620615
-0.033706393 0.06264063 0.009203791 0.006894621 -0.14712821 -0.11225036 0.10852986 -0.013598838
0.044720046 0.07343944 0.16953887 -0.025111916 -0.045008823 0.0049245507 0.077890165 0.06731678
0.06630488 0.10286055 0.041750547 -0.057435352 -0.15559694 0.090930834 -0.14769755 0.037661485
0.0695136 0.06918475 -0.086345576 -0.007716811 -0.053583745 -0.03783465 0.119315535 0.14038669
-0.12970543 -0.13310538 -0.05892485 0.018504852 -0.109187886 0.04742305 0.10332766 0.0050829947
0.045285366 -0.10721767 -0.06405327 -0.061172873 0.12663916 0.043803554 -0.060208596 -0.16622312
-0.08766164 0.07101332 0.01464423 -0.066300936 0.0019497449 0.11767099 0.024709297 -0.058593776
-0.026278261 0.1241055 0.026492992 -0.08425939 0.05298633 0.12603478 0.13912463 0.12568182
0.09943259 -0.05153983 0.09704578 -0.14869675 0.07632274 0.041126113 0.010701965 -0.07321609
0.0130871795 0.0069640647 0.014659202 -0.039560072 0.012263805 0.10537732 0.034494013 -0.013887215
0.08001698 -0.121060684 -0.019494198 0.09849703 0.10684714 -0.00019184146 0.03757237 -0.046465833
0.080230445 -0.012237464 0.14708786 0.15310767 -0.07134634 -0.071619555 -0.027131047 0.10061715
0.015531854 -0.06327823 0.07212894 0.115045235 -0.060540635 0.05211914 0.08244129 0.0358464
-0.09134846 -0.12713738 0.1220836 0.03412465 -0.08920194 -0.0046694498 -0.10299544 -0.044073876
0.042648368 0.050862983 -0.13487282 0.0033244016 0.050992165 0.081724264 -0.10109731 -0.012491228
0.0036087958 0.03299131 0.07865291 -0.08348605 -0.031434864 0.023894101 -0.10218175 -0.108433805
0.06807742 0.044263966 0.081605725 0.010439528 0.0071707913 0.041381493 0.012374822 -0.0077173547
0.085239 -0.06481837 -0.097038895 -0.003100191 -0.097126074 0.06753019 0.05026287 -0.07633296
-0.07339756 -0.08367972 -0.09413112 -0.008409313 0.05792419 -0.13163902 0.046211243 0.06957012
0.08037513 0.083566606 -0.07539355 0.044088103 0.01906245 -0.04035521 -0.09923697 -0.08155106
-0.093260184 -0.056603674 0.044292092 -0.05308606 0.06320165 0.03131205 -0.13355131 -0.005737221
0.028720267 -0.10199459 -0.05989442 -0.07722277 -0.10747801 -0.071375616 0.07944978 0.019662647
-0.00026039212 0.053123057 0.020386819 0.06416149 0.026890285 -0.093472786 -0.13527639 -0.05124877
0.037441567 -0.035138424 -0.003278977 0.05647113 -0.12870754 -0.07396022 -0.093667954 -0.118613966
-0.058040787 -0.09364173 0.014394678 -0.0016239928 -0.0813013 0.07905804 0.016521089 -0.09702362
0.022916941 -0.02857391 -0.110941745 -0.14138664 0.039969977 -0.14024158 -0.02793799 0.027365498
-0.13157183 -0.10106083 -0.06864983 -0.14047624 -0.11045627 0.022465967 -0.0020563705 -0.00085343764
-0.12153755 -0.09682077 -0.12593466 -0.0009498405 -0.0086274585 -0.03411723 0.082278855 -0.025644895
-0.0146201905 -0.045763247 0.028557746 -0.021257043 0.0625537 -0.12907134 -0.020892635 -0.073072575
-0.062292494 0.062962204 0.02768143 -0.05922939 0.083156385 -0.14408165 -0.103819855 -0.08205556
00000000: 8058 3f3d fa26 3dbd c69d 16bb 5faa 1c3e
00000010: 88f7 063d 80b1 cbbc e763 07bd 3203 dc3c
00000020: 53f7 953d 7a18 30bd 92d3 2abd cf0f 4f3d
00000030: 0910 da3d 735c 1fbd 0923 cf3d f811 9c3d
00000040: b70f 0abd bb49 803d 7fcb 163c 46ec e13b
00000050: c7a8 16be 84e3 e5bd e744 de3d a9cd 5ebc
00000060: 5e2c 373d 6b67 963d 999b 2d3e 81b7 cdbc
00000070: 2c5b 38bd 205e a13b e184 9f3d 61dd 893d
00000080: daca 873d 8da8 d23d 9f02 2b3d 5541 6bbd
00000090: ce54 1fbe f239 ba3d 073e 17be ee42 1a3d
000000a0: 255d 8e3d bcb0 8d3d f3d5 b0bd 4ddd fcbb
000000b0: a17a 5bbd 82f8 1abd b45b f43d 87c1 0f3e
000000c0: 80d1 04be c74c 08be 2f5b 71bd 7d97 973c
000000d0: e69d dfbd ac3e 423d 749d d33d 408f a63b
000000e0: 267d 393d f094 dbbd 5c2e 83bd 6890 7abd
000000f0: b2ad 013e 5b6b 333d 4a9d 76bd 6536 2abe
00000100: f287 b3bd 6e6f 913d 5aee 6f3c c9c8 87bd
00000110: 958e ff3a 7dfd f03d 276b ca3c 0700 70bd
00000120: 8245 d7bc 062b fe3d d507 d93c 3090 acbd
00000130: 3208 593d 430f 013e b076 0e3e bcb2 003e
00000140: 50a3 cb3d 6e1b 53bd f0bf c63d f643 18be
00000150: 194f 9c3d db73 283d 4b57 2f3c 51f2 95bd
00000160: 9c6b 563c cf32 e43b 262d 703c be09 22bd
00000170: 20ee 483c 10d0 d73d 9849 0d3d 3487 63bc
00000180: f1df a33d aaee f7bd 4cb2 9fbc d0b8 c93d
00000190: acd2 da3d 0d29 49b9 7ce5 193d f552 3ebd
000001a0: dc4f a43d a57f 48bc 339e 163e 42c8 1c3e
000001b0: 081e 92bd 46ad 92bd ee41 debc 5d10 ce3d
000001c0: 5179 7e3c 0498 81bd 56b8 933d d69c eb3d
000001d0: 75f9 77bd e17a 553d fbd6 a83d add3 123d
000001e0: e714 bbbd 4d30 02be f706 fa3d 4ac6 0b3d
000001f0: 82af b6bd 2f02 99bb 46ef d2bd cf86 34bd
00000200: 0eb0 2e3d b455 503d 1a1c 0abe 34de 593b
00000210: 29dd 503d 0d5f a73d 1b0c cfbd 02a8 4cbc
00000220: 8c81 6c3b e521 073d c714 a13d bcfa aabd
00000230: d8c1 00bd 90bd c33c aa44 d1bd 8b12 debd
00000240: 2d6c 8b3d 224e 353d e720 a73d 8e0a 2b3c
00000250: f5f8 ea3b a47f 293d c4bf 4a3c dde1 fcbb
00000260: c991 ae3d 7ebf 84bd 54bc c6bd 932c 4bbb
00000270: 09ea c6bd 454d 8a3d 70e0 4d3d 7454 9cbd
00000280: 7651 96bd 4660 abbd d1c7 c0bd 37c7 09bc
00000290: ea41 6d3d 61cc 06be 0048 3d3d c77a 8e3d
000002a0: b79b a43d f824 ab3d ef67 9abd ba95 343d
000002b0: db28 9c3c 814b 25bd c13c cbbd 3e04 a7bd
000002c0: 32ff bebd 41d9 67bd a06b 353d c570 59bd
000002d0: de6f 813d 1041 003d adc1 08be 4cff bbbb
000002e0: c446 eb3c 8ae2 d0bd da53 75bd f926 9ebd
000002f0: 6e1d dcbd 612d 92bd 91b6 a23d 8f13 a13c
00000300: 3d85 88b9 9097 593d 4202 a73c 1967 833d
00000310: 0449 dc3c a96e bfbd e585 0abe 3bea 51bd
00000320: 545c 193d 4fed 0fbd 1be4 56bb 464e 673d
00000330: e9cb 03be 7578 97bd fcd4 bfbd e1eb f2bd
00000340: 2dbc 6dbd 3cc7 bfbd a8d7 6b3c 28dc d4ba
00000350: 4c81 a6bd 2fe9 a13d 3c57 873c 52b4 c6bd
00000360: 4fbc bb3c d513 eabc 6d35 e3bd a9c7 10be
00000370: 8fb7 233d 7d9b 0fbe 36de e4bc 9c2d e03c
00000380: c4ba 06be fbf8 cebd 4898 8cbd 01d9 0fbe
00000390: e636 e2bd 8c0a b83c 2cc4 06bb 3bb9 5fba
000003a0: aee8 f8bd f849 c6bd 04f5 00be b8fe 78ba
000003b0: 2f5a 0dbc 82be 0bbd d181 a83d 3e15 d2bc
000003c0: 8689 6fbc 3e72 3bbd eff1 e93c 4023 aebc
000003d0: 271c 803d 472b 04be 0827 abbc 13a7 95bd
000003e0: 6a26 7fbd 54f2 803d 2bc4 e23c 849a 72bd
000003f0: e54d aa3d 248a 13be 819f d4bd bf0c a8bd

fc3.bias f4 [3]
-0.0067195017 0.027559534 0.02912391
00000000: 442f dcbb 88c4 e13c 4495 ee3c
