scripts/models/pg/reinforce_run_9.pth (torch, 76888 bytes, 6 tensors)

fc1.weight f4 [128, 12]
000000 dc b1 3f 3e 24 32 6b 3e 04 65 74 3e 59 29 38 be
       0.18720192 0.22968346 0.2386666 -0.17984523
000010 7b bc 66 3d 7b 5f ca 3d 9f d9 8e 3d 81 c6 f1 ba
       0.056332093 0.09881493 0.06975102 -0.0018446
000020 b9 f8 ab 3d dd 30 02 3e a9 be 63 3e 50 37 62 3e
       0.083970495 0.12713952 0.222407 0.22091413
000030 65 70 48 bd aa 92 1f 3c 48 9e 7d 3d 24 b2 46 3e
       -0.048935313 0.009739557 0.061918527 0.19403893
000040 dc ab c2 3d 9b ff 7c 3d e1 8e ec 3c fb a7 b2 3e
       0.09505436 0.061767202 0.028876724 0.34893784
000050 98 61 3a 3e 10 cd 9d 3d 18 dd 16 37 77 a0 64 be
       0.18201292 0.07705128 8.992174e-06 -0.22326837
000060 0e 40 6b be ca 46 91 be de 70 2d be b7 7b 88 3e
       -0.22973654 -0.2837432 -0.16937587 0.26656887
000070 e7 cf e5 bc a1 40 94 bd 3b 62 b7 3d d8 57 4e 3e
       -0.028053237 -0.072388895 0.08954283 0.20150697
000080 58 3c 8d 3e 5a ba 97 3d 22 89 08 be 6e a8 63 be
       0.275851 0.074085906 -0.13333562 -0.2223222
000090 a4 ed 48 3e 84 4c 18 3e 5f e1 7b 3e 43 40 f7 bd
       0.19621903 0.14872938 0.24597691 -0.12072804
0000a0 90 96 8b 3d db 3a 25 3d c4 be 13 bc 6b 05 ab 3e
       0.06815827 0.040339332 -0.00901765 0.3340257
0000b0 a0 86 e1 bd 5c 1c 6d be 64 14 92 3e c0 b9 1d 3e
       -0.11012006 -0.2315535 0.28531182 0.15402889
0000c0 80 8e 96 3d e1 5d 0d 3e 09 ee 16 be 28 1d 16 bd
       0.073513985 0.13805343 -0.1473924 -0.0366489
0000d0 e6 85 84 3d f0 6a 92 3e cf d3 22 be 33 ba 1a 3e
       0.064708516 0.28597212 -0.15901111 0.15110092
0000e0 e9 a6 ee bd d5 2b 96 3e c1 cb e9 3d 37 f4 49 3e
       -0.11652929 0.29330316 0.11415816 0.19722067
0000f0 5e 62 1f 3e 39 bd 21 3e f6 55 17 be 7b bd cd 3c
       0.15564868 0.15794839 -0.14778885 0.025114765
000100 7d 09 61 3e 86 a6 70 3e 18 89 83 be cb 85 97 3e
       0.21976276 0.23501024 -0.25690532 0.29594263
000110 da a5 04 3d c1 e9 72 3e 09 57 99 3e 50 ce ee bc
       0.03238473 0.23721983 0.29949215 -0.029151112
000120 04 3f 95 bd 27 82 30 be 17 be 1c be 1d 1b ad 3d
       -0.0728741 -0.17237149 -0.15306889 0.08452437
000130 b8 56 56 be e2 89 80 3e 5f 8f 64 bd c0 7b 2a 3d
       -0.20931518 0.25105196 -0.05580079 0.041621923
000140 6a 83 00 3d a1 b5 8a 3d ae 80 e4 3c 1d 53 21 be
       0.031375326 0.06772924 0.02789339 -0.15754361
000150 3f 51 7b 3d e8 66 42 3e 93 41 b5 bb 00 09 77 3e
       0.06135678 0.18984568 -0.0055314987 0.24124527
000160 bd 6f 99 3e 17 71 ed 3d 46 71 48 3e 27 f1 79 3e
       0.29968062 0.11593836 0.1957446 0.24408399
000170 cc 15 ca 3d cf 6e 27 3d 09 de 68 be 8c b5 be bb
       0.09867439 0.04087716 -0.2274095 -0.005819982
000180 cd 89 81 3e 0b d2 89 be d9 4c a5 bd 4b 20 54 3e
       0.25300446 -0.26918063 -0.08071298 0.20715444
000190 e7 05 3a bd 2e fb 68 be 87 bc 38 3e 7e 21 3c 3d
       -0.045415785 -0.22752067 0.18040667 0.04593038
0001a0 c4 c1 5a be c1 a1 8c be d1 02 a2 b9 1b f4 05 be
       -0.21362978 -0.27467158 -0.00030901146 -0.130814
0001b0 54 a4 90 be 20 fb 81 3c de 6b 37 3c 7b 70 2f 3e
       -0.28250372 0.015866816 0.011195151 0.17132752
0001c0 60 9b 77 3e b4 b2 71 3e 99 3a ba 3d 60 a0 57 be
       0.24180365 0.23603326 0.09093208 -0.21057272
0001d0 1f 55 84 be 40 d2 51 be e6 8a d8 3d 24 14 73 3e
       -0.25846192 -0.2049036 0.10573368 0.23738152
0001e0 c0 f8 b3 bc d8 5c 52 bd 88 6b 8f 3d c6 8d 84 3e
       -0.0219692 -0.051358074 0.07002932 0.25889415
0001f0 28 d2 5c be 71 b1 77 3e bf dc 81 be f5 a4 35 be
       -0.21564543 0.24188782 -0.25363728 -0.17738707
000200 1b 2b b5 3c bf 16 ba bd 20 b1 13 be fe ce 0c be
       0.02211528 -0.0908637 -0.14423037 -0.13750836
000210 ba b2 ee 3c ab 7a 72 3e 0c 53 da bb c2 45 9f bd
       0.029137958 0.23679607 -0.006662732 -0.07776977
000220 ce 87 fd bd 87 f3 11 be a9 9f a9 3d b7 7e 31 3e
       -0.12379418 -0.14253055 0.08282406 0.17333494
000230 d0 e0 59 bd 6b d5 0d 3e d8 5d 04 bd dd 65 42 bd
       -0.053192914 0.13850944 -0.03231606 -0.047460426
000240 a7 a3 6d 3e 7a ac 1d be a0 3a dd bc a8 65 5d 3d
       0.2320696 -0.15397826 -0.027005494 0.054052025
000250 b2 a8 0c 3e b6 97 45 bd 8d 9b 06 bd b8 f6 92 3d
       0.13736227 -0.048240386 -0.03286319 0.07175964
000260 68 27 8c 3e 37 29 b1 3d 63 cc 94 be 1a 59 3b bd
       0.27373815 0.08650439 -0.29062185 -0.04573927
000270 a1 60 62 be dc 16 5a be e2 b7 44 3d fb 6e 01 3e
       -0.22107174 -0.21297783 0.048026927 0.12639992
000280 24 74 1e 3e f6 a8 b0 3d da c8 69 3e 17 36 7a 3e
       0.15473992 0.08625977 0.22830525 0.24434696
000290 89 26 36 3e 50 ba 86 be 95 2f a2 3e 3e 8c 7c 3e
       0.17788137 -0.2631402 0.31676927 0.24662873
0002a0 0a eb 36 be e4 71 6f bd c1 28 38 be 28 b2 6d be
       -0.17863098 -0.058458224 -0.17984296 -0.23212492
0002b0 6e cc 3f 3e bd fa ed bd fe 32 e4 3c 8b fe 12 be
       0.18730327 -0.1162009 0.027856346 -0.14354913
0002c0 07 11 82 3e 7d b3 84 bd f9 80 b9 bd 4e f4 7f 3d
       0.25403616 -0.06479547 -0.09057803 0.062488846
0002d0 26 27 f3 3d 9f af 16 be ca dc 92 be 1d e3 30 be
       0.11872701 -0.14715432 -0.28684074 -0.17274137
0002e0 37 9d 7d 3e b3 44 d8 3c 96 c2 8f 3e 78 c3 14 be
       0.24767004 0.026399946 0.28078145 -0.1452769
0002f0 b7 e4 35 3e 00 40 fb 3d d1 29 37 be 0e 0e 94 bd
       0.17763029 0.122680664 -0.17887045 -0.07229243
000300 52 28 40 3d 93 09 08 3e 2a 79 6a bd 86 81 8c 3e
       0.046913452 0.13284902 -0.057244457 0.2744257
000310 07 ff 48 be 0c 13 4a be e0 5c ee 3d 0f 13 d3 bd
       -0.19628535 -0.19733828 0.11638808 -0.103063695
000320 12 b0 08 be 34 07 1e 3e 2f 96 02 be 46 b4 2d be
       -0.13348415 0.15432435 -0.12752603 -0.169633
000330 c4 0c 74 be 5a 6f de bd 80 52 35 3e 00 24 68 be
       -0.23832995 -0.108610824 0.17707253 -0.22669983
000340 20 d0 28 be 3a 35 75 3d b6 d5 00 3e d8 90 46 3e
       -0.16485643 0.059865214 0.12581524 0.19391191
000350 4e dd 37 3e 44 34 52 be f7 21 7c 3e ce e1 01 be
       0.17955515 -0.2052775 0.24622332 -0.12683794
000360 7e e0 7a be c4 c3 8a 3e 6d 8e 04 be 45 2e 52 be
       -0.244997 0.27102482 -0.12944956 -0.20525463
000370 52 13 37 3e 57 4d 68 be cb ca c6 3d 63 86 9c 3e
       0.17878464 -0.22685753 0.097066484 0.3057128
000380 e9 4e 0a be ec fb 68 3e 06 06 2a 3e b6 43 8d be
       -0.13506664 0.2275235 0.1660386 -0.27590722
000390 fc b1 c1 bd 0e 9f 46 3e 8c 52 ad bd e9 a3 1e be
       -0.09457776 0.19396612 -0.0846301 -0.15492214
0003a0 33 f0 61 3d 12 f6 11 3e cc 0f 6e 3e 59 72 9a bd
       0.055160712 0.14254025 0.23248214 -0.07541341
0003b0 fb 17 f4 3d 6f 3a 91 3e c0 8c 18 bd c3 e4 3f bd
       0.119186364 0.28364894 -0.037243605 -0.046849024
0003c0 ac 9d b8 bd dc 3e 89 3d c0 06 f4 3c 03 e4 81 3e
       -0.090144485 0.067014426 0.029788375 0.25369272
0003d0 f5 82 7b be cd 60 6d be 74 df 15 3e c2 b9 91 3d
       -0.24561675 -0.23181458 0.14636022 0.071155086
0003e0 67 77 38 be b3 73 54 3d f2 6b 54 bd 4b b4 06 bd
       -0.18014298 0.051868152 -0.051860757 -0.032886785
0003f0 ec 2b d0 bd f8 be 02 be c1 e7 69 3e 07 c7 0e 3e
       -0.101646274 -0.12768161 0.22842313 0.1394311

fc1.bias f4 [128]
000000 6b cc 2a be 1a 62 5d be 3b e6 c2 bd bc bd 8e bd
       -0.16679542 -0.21619454 -0.09516569 -0.06969783
000010 3c d5 6a be 35 c2 f0 bd 20 dd 90 bd 2f 0a bc 3c
       -0.22932905 -0.11755792 -0.07073426 0.022954075
000020 d6 3a 4a 3e a0 e8 dc bd 48 b0 87 be b8 cc 94 3e
       0.19749007 -0.10786557 -0.2650168 0.29062438
000030 ce 37 86 be 79 3c 04 bc 64 88 08 3e 00 1c 13 3d
       -0.2621445 -0.008071058 0.13333279 0.035915375
000040 29 05 18 3e 9a 9d 58 3e b6 fd 23 3e b6 86 8f 3e
       0.14845718 0.2115387 0.16014752 0.28032464
000050 61 5d 53 be fd 69 9a bd 67 4b 11 be 45 67 40 be
       -0.2064109 -0.07539747 -0.1418892 -0.18789394
000060 f5 57 9b 3e 03 cf 90 3e 15 34 cb bd a9 20 a6 3e
       0.30340543 0.28282937 -0.09922043 0.32446793
000070 51 97 61 3e 9e e7 27 be 23 7a f3 3c 4c a2 8b 3e
       0.22030379 -0.16396949 0.029721325 0.2727226
000080 45 e6 97 3e 23 d3 01 be 9e 89 07 bc c1 62 5c be
       0.2966787 -0.12678199 -0.008272557 -0.21522047
000090 d2 15 d2 bd e4 f9 30 3e 36 0f 83 3e 1b 07 08 be
       -0.10258068 0.17282826 0.25597543 -0.1328396
0000a0 15 06 9f 3e 5f 5f 6e 3c 0e c4 0d be 89 3e 56 3e
       0.31059328 0.014549105 -0.1384432 0.20922293
0000b0 35 d6 92 be d5 67 a0 3c 16 f4 f0 3d 13 6f bf bd
       -0.28679052 0.019580761 0.11765306 -0.093473576
0000c0 7e 3c 9f 3d 23 98 e9 3d 1c a6 89 3e f4 f2 53 bc
       0.0777521 0.11405971 0.26884544 -0.0129363425
0000d0 a0 ca 14 3e f2 d1 88 3c 43 f6 28 3e bd 84 c4 3d
       0.1453042 0.016701672 0.16500191 0.0959563
0000e0 4e a7 93 be c9 b8 1f bd c0 b7 93 bd b1 8c 3d be
       -0.2883858 -0.038994584 -0.07212782 -0.18510701
0000f0 24 b7 0c be 51 b4 4c 3e 40 e0 8b 3e 19 33 06 be
       -0.13741738 0.1999066 0.27319527 -0.1310543
000100 ab 7d 8d 3e ba 01 8c 3c 8c 96 c8 bd c6 30 38 bb
       0.2763494 0.017090667 -0.097943395 -0.0028105243
000110 98 11 1e 3e 35 43 c8 3c 76 7d 8e 3e 0d 45 68 bd
       0.15436399 0.02444611 0.27830094 -0.056706477
000120 bc 07 0d be af b1 14 3e 40 1c 14 3e 5e 12 39 be
       -0.13772482 0.14520906 0.14463902 -0.18073413
000130 dd d2 86 be 27 7d 0a be 02 8e a2 3c ad ce 87 3e
       -0.2633275 -0.13524304 0.019843105 0.2652487
000140 5e 73 4e 3e ab 79 6e 3d 2c 85 1d 3e 1b c2 8c 3c
       0.20161197 0.0582215 0.15382832 0.0171824
000150 a5 0d 41 3e bc bd 72 3e 54 0e 59 be 7a 64 4e 3e
       0.18852861 0.2370519 -0.21196872 0.20155516
000160 b1 27 06 3e 2a 97 87 be ac 73 f4 3d 52 fe 87 3e
       0.13101079 -0.26482517 0.11936125 0.26561219
000170 b5 3d 3c be 32 3b 18 bd fa 17 0b be e0 e8 75 3e
       -0.18382914 -0.037165828 -0.13583365 0.24014616
000180 8f 19 48 be 8a c2 89 3e 4b 0a 5e 3e 17 71 1e 3e
       -0.19541 0.26906234 0.21683614 0.15472828
000190 a8 8c 5c be d5 41 08 3e 4d 5c 1d 3d dc 23 4f 3d
       -0.21538031 0.13306363 0.038418103 0.050571308
0001a0 1a ea 5a be bd 2d e9 3c b6 dd 19 be 39 7e 88 3e
       -0.21378365 0.028464193 -0.15025982 0.266588
0001b0 fb 34 7c 3e 1b 0f 6f 3d 70 8f 9b 3e 8c 80 8c 3e
       0.24629585 0.058364015 0.30382872 0.27441823
0001c0 01 de 0e be 9d e9 e9 bb d4 ac 3f be 96 f8 19 3d
       -0.13951875 -0.0071384446 -0.18718272 0.037590586
0001d0 b0 6d 8c 3e a4 a8 6b be d7 82 8d 3e f2 04 3b be
       0.27427435 -0.2301355 0.27638885 -0.18263605
0001e0 44 86 6b be 50 a6 9a 3e 19 6c 47 3e 3f 07 d1 3d
       -0.23000437 0.3020501 0.1947483 0.1020646
0001f0 88 a6 d9 3d bf 4b 7e be e0 c7 b7 bd 85 55 14 3e
       0.106274664 -0.24833582 -0.0897367 0.14485748

fc2.weight f4 [128, 128]
000000 a2 1a 4f 3d 48 56 85 bd 40 64 90 bd ac 32 00 3d
       0.05056251 -0.065105975 -0.07050371 0.031298324
000010 cb 99 97 bd 68 ac 30 bc 6e bc de bc 38 bf 70 3c
       -0.074023806 -0.010783292 -0.02718946 0.014694028
000020 40 2f 8d bd 95 b9 98 3d 78 5c 01 3c bb ff 65 bd
       -0.06893778 0.07457272 0.007895581 -0.056152087
000030 f5 47 48 bd 8d f7 ac 3d 02 49 47 3d 80 c9 64 ba
       -0.04889675 0.08445654 0.04865361 -0.00087275356
000040 dd 09 9b bd c8 8b 09 3c 74 6c a1 bc 40 d3 22 bb
       -0.07570241 0.008395143 -0.019705035 -0.0024845153
000050 85 50 7d bd 68 24 15 3d 50 f8 bb 3b e7 93 8b 3d
       -0.061844368 0.036411673 0.0057363883 0.068153195
000060 ff 0d 46 bd b0 59 0f bc 9c e6 97 bc b8 cf d1 bc
       -0.04835319 -0.0087494105 -0.01854258 -0.025611743
000070 fc c2 86 bc 1b ac 6b bd 2a c2 a5 bd de ca 53 3d
       -0.016450398 -0.05753718 -0.080936745 0.05170714
000080 11 32 8a 3d 48 75 a2 bc 58 73 62 3c 58 8b 27 3c
       0.06747831 -0.019831315 0.013821445 0.010226093
000090 f9 a6 ad 3d d3 04 94 bd e2 1a 60 3d 58 d0 e1 bc
       0.08479113 -0.07227483 0.054713137 -0.027565166
0000a0 4a a8 31 3d e8 14 83 bd d1 d8 44 bd 70 92 3c bc
       0.043373384 -0.06400472 -0.048058335 -0.011509523
0000b0 9e 39 7f bd f3 3d 98 3d b8 f4 87 bd 94 77 65 bd
       -0.062310807 0.07433691 -0.06638473 -0.05602224
0000c0 28 26 71 bd ea 77 b4 bd 8e 8c 63 3d 14 a8 97 bc
       -0.05887428 -0.08811934 0.055553965 -0.018512763
0000d0 3c d0 dd bc c0 12 7d 3c 05 8e 4e bd 18 d8 09 3d
       -0.027076833 0.015446365 -0.05042841 0.03365335
0000e0 bb 72 1b bd cd ea 9d bd 7c 45 b7 3c 00 6c d7 ba
       -0.037951212 -0.077108 0.022372 -0.0016435385
0000f0 e0 ea da bc d4 b6 ac 3c db f9 b0 bd 6f ba 92 bd
       -0.026723325 0.021083273 -0.08641406 -0.07164466
000100 1f ad 69 bd 5d 88 80 bd 8a 0e 9a bd 2a 15 b4 bd
       -0.057049867 -0.06276009 -0.07522304 -0.08793099
000110 6a 90 11 3d 51 56 93 3d 86 02 06 bd e4 af 9d bd
       0.035538115 0.07194198 -0.03271725 -0.07699564
000120 f8 fb 63 bc f8 84 89 3c 0a e9 87 bd 30 53 ad bb
       -0.0139150545 0.016787037 -0.066362455 -0.0052894577
000130 34 47 03 3d 46 97 60 3d 7c a7 c3 3c 30 a5 a1 bc
       0.032050326 0.054831766 0.023883574 -0.019732088
000140 80 ff c9 bb c3 02 74 bd 58 6b 94 bd 94 2a ce bc
       -0.006164491 -0.059572946 -0.07247037 -0.025166787
000150 c6 3a a1 bd cf ae a7 3d 6c a3 ba 3c 58 bd 8f bc
       -0.07872538 0.08187639 0.022783004 -0.01754634
000160 38 75 a1 bd 47 3c 27 bd ab 5b 68 bd 72 22 4b 3d
       -0.07883686 -0.04082897 -0.056728046 0.049593396
000170 a5 bd a7 3d c0 54 51 3b ab 91 17 bd 1e d3 8c bd
       0.08190469 0.0031941384 -0.037004154 -0.06876205
000180 87 a8 ab bd ff e9 9c bd 48 9f 21 3c 8c af aa bd
       -0.083817534 -0.07661819 0.009864636 -0.08334264
000190 5f cf a1 3d 44 48 ab bd a4 64 8c bd 44 a5 98 bd
       0.07900881 -0.08363393 -0.06855133 -0.07453397
0001a0 40 ab 12 bb d0 15 60 3c 7a d4 2e bd b0 22 a1 bb
       -0.0022379905 0.0136770755 -0.042683102 -0.004917465
0001b0 c1 23 11 bd 14 fd f9 3c d7 9b ac 3d b6 56 54 bd
       -0.03543449 0.030516185 0.084281616 -0.051840506
0001c0 1c b4 d8 bc 1c 04 a5 3c e0 52 36 bb 28 d1 9e bc
       -0.02645307 0.020143561 -0.0027820393 -0.019386843
0001d0 c2 5e da bc d0 57 c6 3c af 4d 9d 3d 63 ed a7 3d
       -0.026656512 0.024211794 0.076808326 0.08199575
0001e0 ba 23 26 3d 46 14 6a bd bc 2f b9 bc 46 9a 9d bd
       0.040561415 -0.05714824 -0.02260577 -0.07695441
0001f0 b0 5b df 3c 80 66 77 3c 2d 32 9a bd 1a d1 75 bd
       0.0272654 0.0151001215 -0.075291015 -0.060013868
000200 bb 75 a4 bc 6d 49 38 3c 43 91 38 bd 9a 09 06 bd
       -0.02007567 0.011247975 -0.045060407 -0.032724
000210 ea 04 da bc 66 ff 94 3d ea 8b 4f bd b1 03 9e bc
       -0.026613671 0.07275276 -0.05067054 -0.01928887
000220 22 45 10 3d d8 dd 3d bd 7b b4 a8 3d 8e e7 97 bc
       0.03522218 -0.046354145 0.08237549 -0.018543031
000230 c0 be 0c 3c 4e 4a e1 3d 36 22 c7 bc d8 8b 84 bd
       0.0085904 0.110005006 -0.024308305 -0.064719856
000240 1e 37 9a bc 91 49 64 bc f9 7c cf 3c 30 af cf bc
       -0.01882511 -0.013933555 0.025328146 -0.02535209
000250 9a 92 80 bd dc a8 c9 3b bb 0a b7 3d f1 e7 ee 3d
       -0.06277962 0.006154163 0.089375935 0.11665333
000260 ca cd 9c 3d c4 77 59 3d 25 8c 62 3d 55 00 1f 3d
       0.07656439 0.053092733 0.055309433 0.038818676
000270 e4 a4 08 bd 12 8f 86 bc a7 3d f6 3c 3d 90 50 bd
       -0.033360377 -0.016425643 0.030058695 -0.050918806
000280 8f 77 72 3b e4 72 d6 3d ab b6 6c bd 49 f6 ca 3d
       0.0036997532 0.104711324 -0.057791393 0.099102564
000290 d8 a4 9e 3d b4 d7 78 3b 13 a6 89 3c 48 bc 4a bc
       0.07746285 0.0037970366 0.016802823 -0.012373991
0002a0 d2 16 7f 3d a6 9c ac 3d ee 4d ac 3d 7e e0 82 3d
       0.062277623 0.08428316 0.084133014 0.06390475
0002b0 7c 3a d3 bc af e0 be 3d 39 52 03 bd 3e 29 32 3d
       -0.025784723 0.09320199 -0.032060836 0.043496363
0002c0 20 b4 fd 3d ab 1a ab 3b 1f 1f e1 bc 82 88 f5 3c
       0.12387872 0.005221685 -0.02748066 0.029972319
0002d0 d3 bd b8 3d 1c 5d 74 bd 92 ba 5a bd df 87 cc 3d
       0.09020581 -0.05965911 -0.053400584 0.09986853
0002e0 56 38 04 3d e6 7f 08 bc 63 90 e7 bb 0e 45 f6 3d
       0.03228029 -0.008331275 -0.007066773 0.1202489
0002f0 4b 16 69 bd 41 d8 0a 3c ec 02 5d bd fc 01 a9 3d
       -0.056906026 0.0084744105 -0.053957865 0.082523316
000300 b1 25 ed bb f6 9c 2f 3d b8 80 79 3d 8f 6d 1b bd
       -0.007237159 0.0428743 0.06091377 -0.03794628
000310 33 9d 02 3d d6 e2 85 3c 55 57 2e bd 06 b1 c3 3c
       0.031888198 0.016343515 -0.042563755 0.023888122
000320 aa 13 01 bd 84 d1 e6 3c 85 13 d2 3c c0 d4 0d 3d
       -0.031512894 0.028176077 0.025644073 0.034626722
000330 05 65 1c 3d 9a 12 94 bd 4b 34 25 bd 45 da 75 bd
       0.038182277 -0.072301105 -0.040333074 -0.06002261
000340 16 5e 48 3d e1 d7 85 bd 59 f0 11 ba a0 a2 7f bd
       0.048917852 -0.06535316 -0.00055671256 -0.06241095
000350 36 32 14 3d e8 79 09 3d 8a 7b 8f bd 59 20 38 bd
       0.036180697 0.033563524 -0.07005985 -0.044952724
000360 3b a0 8d bd 70 ad ef 3b 70 e4 40 3b 52 43 56 3d
       -0.06915327 0.0073143765 0.0029433034 0.052310295
000370 66 36 24 3d c3 c7 60 3c 62 af e5 bc 2f e4 dc 3c
       0.04009094 0.013719502 -0.02803773 0.026964275
000380 27 3c ac bc 69 97 95 3d 5e fa 03 bc f4 2e 58 bc
       -0.021024777 0.0730427 -0.008055298 -0.013194788
000390 10 7a e5 3b 7d 54 34 3d 2c c9 3b 3d d0 a4 0e bc
       0.0070030764 0.044025887 0.04584615 -0.008706287
0003a0 cf c3 c8 bc cb 6d 7e bc f7 6d 63 bd a8 74 aa 3d
       -0.024507431 -0.015529106 -0.055524793 0.08323032
0003b0 6e f2 80 3c 64 30 4a bd 7d ca 5d 3d 13 60 15 3d
       0.0157406 -0.049362555 0.054148186 0.036468577
0003c0 f5 79 7c bd e4 3e 9d bc f9 31 20 bd 5d a7 23 3d
       -0.061639745 -0.019195028 -0.039110158 0.039954532
0003d0 3b 94 cb 3d d9 ce 7a bd 42 63 45 3d 3f e4 07 3d
       0.09940382 -0.06123242 0.048190363 0.033176657
0003e0 f4 9b a9 3c 9c d2 84 3c fe 94 3c bd 87 1a 98 3d
       0.020704247 0.016213708 -0.046040528 0.07426935
0003f0 1a b4 99 bd 35 76 97 3d 42 61 9a 3c 52 8e 65 bd
       -0.07505055 0.07395593 0.018845204 -0.05604393

fc2.bias f4 [128]
000000 7e 21 98 bd ae 4e 0e 3c 66 6f 8e 3d 93 3d bf bb
       -0.07428263 0.008685751 0.06954841 -0.0058361976
000010 77 0a da bb de d6 b4 3d 5e fd fb bc 00 f5 50 3d
       -0.0066540795 0.08830045 -0.030760463 0.0510149
000020 c0 83 71 3c b0 13 91 bd 35 36 71 3d 73 16 b3 3c
       0.014740884 -0.07083833 0.058889586 0.02186129
000030 f2 e1 8e 3c f8 69 e7 3c 4a 0c 10 bd f8 6e 9d bd
       0.017441723 0.028248772 -0.03516797 -0.07687181
000040 0d 01 bc bd dc 6f 0d bd e0 5f a5 bd 94 e1 f6 bc
       -0.09179888 -0.034530506 -0.08074927 -0.03013686
000050 9f 35 9d bc 1a a3 a9 bd 0b 54 aa bd 22 50 fa bc
       -0.019190608 -0.08283062 -0.08316811 -0.030555788
000060 a2 ed e8 bc 06 4c 73 bd 40 6e b0 bd dc b6 57 bd
       -0.028433625 -0.059398673 -0.086147785 -0.052664623
000070 1f 61 e0 3c fc 1f 2e 3d 5c 82 98 bd 37 5a 99 3c
       0.027390061 0.04251097 -0.07446739 0.018719776
000080 d7 4e b7 bd 25 a4 94 bd 8e 81 47 bc a8 3c ca 3d
       -0.089505844 -0.072578706 -0.012176884 0.098748505
000090 50 7b 41 3d bb 92 6e 3d 0d c6 12 3d 81 26 d7 bc
       0.04723674 0.0582454 0.035833407 -0.026263477
0000a0 04 b3 32 bd 52 83 43 bd 12 28 56 bd d5 6b e9 3d
       -0.043627754 -0.04773266 -0.052284308 0.113975205
0000b0 b5 dd f4 3d 89 e5 b4 3d a0 d9 45 bd 46 85 a0 bc
       0.1195635 0.08832843 -0.048303246 -0.0195948
0000c0 56 7f 60 3d 8b 9d a8 3d 9d 37 3c 3d d2 bd 4f 3d
       0.054808937 0.08233174 0.045951474 0.050718136
0000d0 6c 0f 59 bc 3d 04 2d 3d 2d 12 94 bc df 8a 78 bd
       -0.013248306 0.04224037 -0.018075073 -0.060679313
0000e0 38 e6 ec 3d 7c 12 8b bd 8b 27 41 3d af 17 cf 3b
       0.11567348 -0.06790635 0.04715685 0.006319962
0000f0 9a 31 07 bd 0d e5 b1 bd a3 eb 2e 3d 64 b0 28 bd
       -0.033006288 -0.08686266 0.04270519 -0.041183844
000100 69 f3 3d bd cb f3 f5 3c 50 bd 81 3b 83 ef a7 3d
       -0.046374712 0.030023476 0.0039593354 0.0819998
000110 24 ec e2 3c 71 74 5c bd 0d 42 19 3d 4d 45 a7 3d
       0.027700491 -0.053821985 0.037416507 0.08167515
000120 8c ab 90 bc d1 28 9b bd f5 08 68 bc 09 21 9d 3d
       -0.017659925 -0.075761445 -0.014162292 0.076723166
000130 b9 c6 ce bc 88 cb 29 3d 03 90 ed 3d 6a fe 34 bd
       -0.025241243 0.04145387 0.11599734 -0.04418794
000140 f8 a4 1a 3d 15 cb 35 bd 2d b3 af bc 4d 92 bc 3d
       0.037754983 -0.044383127 -0.021447742 0.09207592
000150 e7 7d a4 3d da 38 79 bc e4 80 e9 3d ed 55 8f 3c
       0.080318265 -0.015211308 0.11401537 0.017497027
000160 12 dc 9b bb 84 99 a7 3d 77 5c ca 3d e6 5b de 3b
       -0.004756459 0.08183578 0.098809175 0.0067858575
000170 81 0d a2 3d 7e 3c a3 3d f9 fb 5a 3d d3 7b c4 bb
       0.07912732 0.07970522 0.053462956 -0.0059962063
000180 50 6b 36 bb 1b 38 8c 3b 39 7d 8f 3c d0 66 30 bc
       -0.002783496 0.004279149 0.017515766 -0.0107667
000190 2a a8 df 3c 6d 13 54 3d 61 71 2d 3d a2 2a 13 3d
       0.027301867 0.05177634 0.042344455 0.03592933
0001a0 5f fd 3e 3d 91 b2 fa bc cf 4b 81 3c 47 3e 81 3d
       0.046628352 -0.030602725 0.015783219 0.063107066
0001b0 63 d2 c6 3c ca 9e 42 3d 80 47 8a bd 85 bd 1e 3d
       0.024270242 0.047514714 -0.06751919 0.03875496
0001c0 b7 15 13 bd 7a 55 87 bd 58 76 f5 3d 3f fc e1 3c
       -0.03590938 -0.066081 0.11985463 0.0275861
0001d0 3a 8b 7a bc e5 e5 1b bc 94 b2 9a bb e0 82 ae bd
       -0.015291983 -0.00951526 -0.004720995 -0.08521056
0001e0 93 1a 23 bd fd 30 a9 3a 1b b1 d9 3d 99 96 64 3d
       -0.039820265 0.0012908276 0.10629483 0.055807684
0001f0 5c 76 da bc d3 70 a3 3d ec b9 ae bc dd bc 85 3d
       -0.026667766 0.07980504 -0.021328889 0.065301634

fc3.weight f4 [3, 128]
000000 1b a0 a2 bd 75 d9 91 bd c0 a2 0e 3c 03 db d8 3c
       -0.07940694 -0.07121555 0.008705795 0.02647162
000010 ee 59 b2 3d 98 d8 ec 3c 64 a6 19 bd 60 9b 37 3d
       0.08708559 0.028911874 -0.037512198 0.04482591
000020 7f 58 38 3d 5f 4f 7f bd 20 cf 5a 3d ea 51 a3 3c
       0.04500627 -0.062331554 0.053420186 0.01993652
000030 20 95 69 bd 18 71 5f 3c f3 ac c9 3b d0 f7 87 bc
       -0.057026982 0.0136378035 0.0061546504 -0.016597658
000040 08 4d a0 bd 70 76 8c bd 8d c1 82 39 db 0f 5c bd
       -0.078271925 -0.06858528 0.0002493974 -0.05372606
000050 f3 ed b5 3d 1b 5a 97 3d de ec 8c bd 9e ee da 3c
       0.08883276 0.07390233 -0.06881116 0.02672511
000060 cd 4b 7e 3d 8f 12 93 bd af 0d 5f 3c 93 e1 8a 3d
       0.062084008 -0.07181274 0.013614102 0.06781306
000070 9c 49 bb bd 9f 35 4b 3d 6d 61 32 3c 6d 17 34 bd
       -0.09144899 0.049611684 0.010887486 -0.043967653
000080 23 f9 a7 bc 86 28 a2 3b 63 c2 3d 3d 87 9a 63 bc
       -0.02050454 0.0049486784 0.04632796 -0.013891823
000090 45 7f 09 bb 2b 9a 71 bd bf cf aa bd 6a 2e ad bc
       -0.00209804 -0.058984917 -0.08340406 -0.021140296
0000a0 c7 df 99 bd 19 53 73 3d 78 c9 83 bd 8d cc b5 3d
       -0.07513385 0.05940542 -0.064349115 0.088769056
0000b0 cb d1 4f bd 77 3e 3b bd d9 2f 9f bc d0 39 21 3d
       -0.050737184 -0.045713868 -0.019431995 0.039361775
0000c0 c2 b5 40 3d 24 e6 0c bd a3 34 a5 3d 60 1f 97 bc
       0.047048338 -0.034399167 0.0806668 -0.018447578
0000d0 d8 c3 ba bd 28 2f a2 3c 02 6b 93 3d d1 8c 80 bd
       -0.091193855 0.019797876 0.071981445 -0.062768586
0000e0 46 9a ed 3b 54 fd 90 3d 28 b2 7f bd 13 bd 93 3c
       0.007251057 0.070795685 -0.062425762 0.018034494
0000f0 89 5a b4 3c 6d d9 82 bd 52 0a 29 3b 7d e3 a2 3d
       0.022015827 -0.06389127 0.0025793505 0.07953546
000100 20 1a 4b bb 30 e2 a0 bd 78 dd dc bc 57 74 44 3d
       -0.0030990914 -0.07855642 -0.026961073 0.047962513
000110 e9 fa 2d bd 94 8b 04 3d ab 5c 02 bd 4d 0c 02 bd
       -0.042475615 0.032359675 -0.031826656 -0.031750012
000120 b5 97 dd bc b1 44 c3 bd 5f d5 40 bd d3 c6 88 3a
       -0.027049879 -0.09534586 -0.047078487 0.0010435231
000130 4d 5e 0f bd 98 cf b3 bc 2d 21 1b bd 16 52 09 3d
       -0.03500204 -0.021949574 -0.037873436 0.03352555
000140 a6 00 fb 3c a0 6b 00 bd fd b6 84 3c f3 2a 39 bc
       0.030639958 -0.03135264 0.016200537 -0.011301744
000150 ed d2 d4 bc c5 58 cc 3c e6 a4 89 bb 30 92 ef bc
       -0.025979484 0.024944672 -0.0042005656 -0.029244512
000160 1e f4 c9 bd 94 90 2d 3c bd ab f2 bc 84 16 a4 bd
       -0.09861015 0.010593552 -0.029622907 -0.08012107
000170 aa c0 db 3b ea f0 a1 3d bb 24 58 3c 8c dc 1e bc
       0.006706317 0.07907279 0.013192351 -0.009696137
000180 b3 52 33 3d 20 fa c8 3d 6b ce 87 3d a2 11 95 3d
       0.04378004 0.098133326 0.06631168 0.07278754
000190 8d 5b 88 3b cf cf 2c bd df c0 5a 3d a1 4f 44 bd
       0.0041613043 -0.04219037 0.053406592 -0.047927503
0001a0 5b bf 8f bd 56 2d 83 3d a6 bd 89 3c d7 93 bc bc
       -0.0701892 0.064051315 0.016814064 -0.023019714
0001b0 4e 08 13 3d a1 d8 b0 bd 4f 8b 84 3d e9 a8 e1 3a
       0.03589659 -0.08635069 0.064718835 0.0017216477
0001c0 d4 30 81 bc eb 4d 98 bd d7 eb 02 bd 71 e4 c4 bd
       -0.015770353 -0.07436737 -0.031963196 -0.09613884
0001d0 f5 ca 57 3d 98 a5 11 3d c8 c6 24 3d f4 b9 c8 bc
       0.05268379 0.035558313 0.040228635 -0.024502732
0001e0 df 61 b7 bc 85 1f ad 3d 7f 14 81 3d c5 d3 95 3d
       -0.022385536 0.084532775 0.063027374 0.073157825
0001f0 21 8e 4e bd a5 87 36 bd 0a 72 63 bd dc 3d dc 3c
       -0.050428513 -0.044562954 -0.055528678 0.026884966
000200 fb 09 52 bd 2f 50 5c bd b6 f7 b1 bd 61 8b 80 3d
       -0.05127905 -0.053787407 -0.08689825 0.062765844
000210 bd bb 9a bd b1 92 50 bb 4d f7 24 3d 34 78 a1 3d
       -0.075553395 -0.0031825716 0.040274907 0.07884255
000220 08 6a 21 3c 8a 2b 7e 3d 59 a5 8a 3d da 0e 8a 3d
       0.00985194 0.06205324 0.06769819 0.06741114
000230 b3 45 71 bd 67 68 02 be 52 01 d5 bd 86 f7 e4 bc
       -0.05890436 -0.12735139 -0.104006425 -0.02795006
000240 6b 8f 98 bc ae ba d4 bd 64 43 9a 3d 30 ee da 3b
       -0.018623075 -0.10387169 0.07532385 0.006681226
000250 85 65 f3 bd fc 57 0c bd 69 f7 87 3d 9c d4 67 bd
       -0.11884598 -0.034263596 0.066389866 -0.056599244
000260 ff 22 11 bd e6 cf 10 3d 09 78 77 3d c4 74 06 be
       -0.035433766 0.035354517 0.06041721 -0.1313048
000270 f8 ee e8 bd 02 33 ea bc f1 84 bb bc 0b 61 a4 bd
       -0.11373705 -0.028588776 -0.02289054 -0.08026322
000280 fb c3 26 bd cd 87 07 3c db 37 3c 3d ec 55 f9 bd
       -0.040714245 0.0082721235 0.045951705 -0.121745914
000290 ac 30 22 3d 77 a7 28 3d 94 1c aa bd 97 1f 8a bb
       0.0395972 0.041175332 -0.08306232 -0.0042151916
0002a0 1b 10 fe bd fa f1 c2 bc d5 ac 95 3d e0 d0 9a bd
       -0.124054156 -0.023797024 0.07308356 -0.07559371
0002b0 75 d7 e7 bd 26 04 d4 bd 8d 09 b2 bd 93 11 98 bd
       -0.11320392 -0.10352354 -0.08693228 -0.07425227
0002c0 07 ee 4f bd a2 33 9c bd 47 9f a3 3d 56 ed 54 bd
       -0.05076411 -0.07627036 0.07989364 -0.051984154
0002d0 8d 7e d7 3c 26 d6 d5 bd 33 45 14 3d 30 1d 59 3c
       0.026305461 -0.10441236 0.036198806 0.013251588
0002e0 89 a3 b2 bd ee b1 46 3d 55 c0 98 bd 2c 15 02 3d
       -0.08722598 0.04850953 -0.074585594 0.031758472
0002f0 e3 65 a0 bd 91 ba aa bd 70 dd e3 bd 43 02 87 bd
       -0.07831933 -0.08336366 -0.1112622 -0.06592228
000300 35 35 18 bd 55 93 04 be b7 1c b1 bc ef 49 65 bd
       -0.037160117 -0.12946828 -0.021620138 -0.05597871
000310 37 8a 97 3d 86 8d 92 3b 0d f2 02 3d f1 b7 b0 bd
       0.07399409 0.0044724373 0.03196912 -0.08628834
000320 3d 5b 5b bd d8 04 0e 3c c5 3e 98 3b 2b 28 96 bd
       -0.05355381 0.008668147 0.0046461546 -0.0733188
000330 79 62 49 bd a5 eb 04 3d a1 af bb bd 93 30 f8 3b
       -0.049166176 0.03245129 -0.09164358 0.00757415
000340 50 c5 89 bd be 16 61 3d 86 16 e2 bc 1e 84 15 be
       -0.067270875 0.05495333 -0.02759863 -0.1460118
000350 44 a1 43 3d b9 89 f6 3c 64 47 e7 bd 7c 76 03 bd
       0.047761217 0.030094968 -0.112929136 -0.032095417
000360 79 e8 11 bd 2d 60 d3 bd ed 69 b5 3b eb ef 00 3d
       -0.035622094 -0.103210784 0.005536309 0.031478804
000370 56 a3 0e be b7 b8 c5 bd 65 cd c7 bd 7a bb 03 3d
       -0.13929495 -0.09654372 -0.09755973 0.032161213
000380 cb 56 7a bd e5 5a 1d 3d 48 bc 38 bc db b5 c1 3c
       -0.06111793 0.038416762 -0.0112753585 0.023646286
000390 f6 ae 95 3d 8f 9f 31 3d 67 1c e8 bd 20 59 9b 3d
       0.07308762 0.043365058 -0.11333542 0.075853586
0003a0 bf 97 93 bd 16 9f 63 3c b3 aa 3e 3d a1 0a e7 bd
       -0.07206678 0.0138929095 0.04654951 -0.11281324
0003b0 b4 db 30 bd 47 37 a4 bc d3 89 91 3d 5d ee 07 bd
       -0.043178275 -0.02004589 0.07106366 -0.033186305
0003c0 a3 66 3c bd 7e dd ab bd 86 52 e8 bd 99 cc df bd
       -0.04599632 -0.08391856 -0.11343865 -0.10927696
0003d0 99 dd 43 bd 21 41 74 3c db 7c b1 3c 60 15 ab 3c
       -0.047818754 0.014908106 0.021665981 0.020884216
0003e0 05 70 ca 3b 84 9d a1 bc a7 ff d7 bd 74 8c cb 3c
       0.0061779045 -0.01972843 -0.10546809 0.024847247
0003f0 0a 16 7d 3d da 21 05 be 03 32 05 3d 84 6b 88 3d
       0.061788596 -0.13001195 0.032518398 0.06661132

fc3.bias f4 [3]
000000 8d c6 34 bc 58 2e 17 3d 70 88 8d 3d
       -0.011033666 0.03690943 0.06910789
