scripts/models/pg/reinforce_run_4.pth (torch, 76888 bytes, 6 tensors)

fc1.weight f4 [128, 12]
-0.2259939 -0.24137947 -0.16634601 0.0026241243 0.061879307 0.0987601 -0.0753223 -0.19048372
-0.06497276 -0.03434342 -0.050894544 -0.13743675 -0.17819771 -0.034706168 0.06830915 0.051847406
-0.14407375 0.13372575 0.14330176 -0.117800005 0.23779887 0.20252745 0.16311057 -0.009254715
-0.22937806 0.14540781 0.23783438 -0.20838125 -0.24913846 0.35384506 0.2673071 0.08754867
0.24862733 -0.14000203 0.26901454 -0.0991132 0.08923144 -0.08831309 -0.1874352 -0.10804924
-0.23742625 -0.07905956 -0.07688949 0.35185608 0.053467643 0.22629172 0.23197934 0.120247826
-0.23753724 0.085127935 0.026493048 -0.17719883 0.19961588 0.14712656 0.06331132 0.40326655
0.05316742 0.035660107 -0.21019217 -0.08707974 -0.12734196 -0.07836772 -0.17263885 0.13679332
0.12860355 -0.052994847 -0.16453366 0.42261627 0.12315816 -0.050678287 0.1688074 0.16627279
-0.2592916 -0.22482404 0.29960114 0.10385211 0.13949642 -0.25011617 0.2643509 0.07262295
-0.14613827 0.117213175 -0.2225299 -0.0074276323 -0.23038167 0.25935096 -0.069707304 -0.012908012
0.14275095 0.14026834 -0.005117946 -0.17775457 -0.04742661 0.17656189 0.16701765 -0.08364665
-0.13691063 0.098173246 -0.003411636 0.0659568 0.10528592 -0.26518226 -0.029515479 0.0095641455
0.074170135 0.1870907 -0.018507823 0.17743513 0.2768379 -0.26031327 0.2651527 -0.23273465
-0.20511356 -0.20013042 -0.15128596 -0.059847593 0.060852587 -0.10894869 0.2575712 0.15219587
0.037279468 -0.061375376 0.099162474 0.2541741 -0.15666838 0.03051655 -0.03901552 -0.029858582
0.30956715 0.1166579 0.2337674 0.3279758 0.23953667 -0.02270948 -0.20926411 0.2679586
-0.0027127317 0.3333082 -0.2608923 0.113139145 0.280621 0.0782308 -0.21043935 0.16597213
-0.12483233 0.2524096 -0.08949382 0.05453528 -0.2426974 0.26393232 0.27150077 0.3302322
0.011328198 -0.15171215 0.241521 0.14299357 -0.1863056 -0.20034212 -0.21235484 0.26524797
-0.09704604 0.22609103 0.16015159 0.3221742 -0.01863269 0.25208804 -0.07768539 0.16086406
0.12544723 -0.2356081 -0.12683074 -0.23144585 0.29070696 0.15376616 0.10479806 -0.19884683
-0.25014582 0.27847832 -0.005521041 -0.004151569 0.14403631 0.071181506 -0.051211894 0.18108006
0.010448545 -0.03143813 -0.2375665 0.13742816 -0.124050364 0.1954 -0.20911047 -0.19821185
0.01371029 0.043308962 0.144882 -0.03766285 -0.13740167 0.45224097 0.11969193 0.1381531
-0.23249833 0.09747828 -0.085608415 0.21660884 0.02128738 0.25180656 -0.0755988 0.1226421
-0.11352468 0.0717135 0.2565083 0.30347896 0.016603362 0.06467996 -0.23262836 -0.1714599
-0.28012434 -0.09651275 -0.02286761 -0.23178211 0.24281059 0.012448957 -0.22331715 -0.24121551
-0.09146635 -0.10881483 0.14003709 -0.031029653 -0.12743485 0.10637722 -0.022766989 -0.10874877
0.3684631 -0.14263888 0.031963497 -0.20134299 -0.022775384 0.14514564 0.1448287 0.10256271
0.066612095 -0.029069414 -0.09482198 -0.12193648 -0.10756151 0.30222055 -0.21334757 0.3878462
-0.27643862 0.09053179 0.020455366 -0.1710307 0.28098276 0.1406166 0.19157797 0.15284705
00000000: f26a 67be 2e2c 77be 9c56 2abe 80f9 2b3b
00000010: 2875 7d3d bc42 ca3d 9442 9abd 2a0e 43be
00000020: 7010 85bd b0ab 0cbd cc76 50bd 38bc 0cbe
00000030: 7679 36be 0e28 0ebd abe5 8b3d f25d 543d
00000040: 1288 13be 67ef 083e b2bd 123e 2141 f1bd
00000050: 8c81 733e 5b63 4f3e 7506 273e 17a1 17bc
00000060: 15e2 6abe c9e5 143e db8a 733e e561 55be
00000070: 271e 7fbe 2e2b b53e 7adc 883e b84c b33d
00000080: 2a98 7e3e b15c 0fbe 46bc 893e ddfb cabd
00000090: f9be b63d 7edd b4bd 03ef 3fbe ec48 ddbd
000000a0: de1f 73be fbe9 a1bd 3d78 9dbd 7b26 b43e
000000b0: e300 5b3d 04b9 673e fe8b 6d3e 7e44 f63d
000000c0: f63c 73be 8e57 ae3d f307 d93c 9c73 35be
000000d0: 1b68 4c3e 58a8 163e 5ea9 813d f478 ce3e
000000e0: 15c6 593d 5510 123d 9e3c 57be dd56 b2bd
000000f0: ee65 02be 417f a0bd 3dc8 30be 8c13 0c3e
00000100: a6b0 033e 2011 59bd 837b 28be 2961 d83e
00000110: 583a fc3d 0994 4fbd d9db 2c3e 6a43 2a3e
00000120: dec1 84be 4638 66be 5265 993e 6ab0 d43d
00000130: 26d8 0e3e 3a0f 80be 0059 873e 57bb 943d
00000140: 45a5 15be 760d f03d e1de 63be 7f63 f3bb
00000150: 2ce9 6bbe a6c9 843e b4c2 8ebd 207c 53bc
00000160: 4e2d 123e 81a2 0f3e 71b4 a7bb 4b05 36be
00000170: 6842 42bd a4cc 343e ad06 2b3e ef4e abbd
00000180: 4d32 0cbe 0e0f c93d c195 5fbb 5c14 873d
00000190: 25a0 d73d f8c5 87be 72ca f1bc efb2 1c3c
000001a0: 83e6 973d b494 3f3e b89d 97bc 8eb1 353e
000001b0: b2bd 8d3e c847 85be 18c2 873e fe51 6ebe
000001c0: 4a09 52be fdee 4cbe b5ea 1abe c022 75bd
000001d0: 9040 793d 7e20 dfbd 5fe0 833e 3cd9 1b3e
000001e0: 5bb2 183d bf64 7bbd b215 cb3d 1c23 823e
000001f0: ad6d 20be d8fd f93c bdce 1fbd fc99 f4bc
00000200: 967f 9e3e 56ea ee3d b960 6f3e 72ec a73e
00000210: 1a49 753e 3b09 babc 5549 56be df31 893e
00000220: 16c8 31bb 5fa7 aa3e ad93 85be 7fb5 e73d
00000230: 8ead 8f3e 7837 a03d 6a7d 57be 99f4 293e
00000240: 18a8 ffbd d53b 813e 8948 b7bd 6360 5f3d
00000250: ab85 78be 2322 873e 2602 8b3e 3214 a93e
00000260: e899 393c 6e5a 1bbe 4851 773e e86c 123e
00000270: e5c6 3ebe 7c26 4dbe 8c73 59be 95ce 873e
00000280: 13c0 c6bd 6884 673e c7fe 233e 04f4 a43e
00000290: 95a3 98bc af11 813e 8519 9fbd 8cb9 243e
000002a0: 3d75 003e 4043 71be ebdf 01be 2400 6dbe
000002b0: 8bd7 943e e074 1d3e 5ea0 d63d 819e 4bbe
000002c0: 1d13 80be b694 8e3e d9e9 b4bb e309 88bb
000002d0: 417e 133e 9cc7 913d 90c3 51bd 0d6d 393e
000002e0: 6030 2b3c 45c5 00bd a244 73be f8b9 0c3e
000002f0: 1e0e febd f016 483e 0e21 56be 0cf8 4abe
00000300: 20a1 603c bd64 313d f25b 143e 5c44 1abd
00000310: 06b3 0cbe 218c e73e 0b21 f53d 0278 0d3e
00000320: 0b14 6ebe b1a2 c73d 7753 afbd b5ce 5d3e
00000330: df62 ae3c caec 803e 8bd3 9abd c82b fb3d
00000340: a17f e8bd 87de 923d 0e55 833e 9861 9b3e
00000350: c603 883c ed76 843d 2136 6ebe 2f93 2fbe
00000360: 756c 8fbe 7aa8 c5bd db54 bbbc 4a58 6dbe
00000370: 57a3 783e b6f6 4b3c 40ad 64be 3301 77be
00000380: b652 bbbd 4fda debd e265 0f3e e631 febc
00000390: 487e 02be 4ddc d93d d681 babc adb7 debd
000003a0: 32a7 bc3e ed0f 12be 28ec 023d db2c 4ebe
000003b0: 7193 babc 0fa1 143e fa4d 143e 660c d23d
000003c0: ec6b 883d fb22 eebc 0732 c2bd d5b9 f9bd
000003d0: 3549 dcbd a7bc 9a3e c977 5abe c793 c63e
000003e0: 5d89 8dbe bb68 b93d 0392 a73c ac22 2fbe
000003f0: f9dc 8f3e ccfd 0f3e 042d 443e f083 1c3e

fc1.bias f4 [128]
-0.072872415 0.08840134 -0.29052502 0.11963778 -0.06133044 -0.03538484 -0.1292108 -0.27997258
-0.27176404 -0.18889599 -0.077515155 -0.021379974 0.0036351974 -0.019282548 -0.11819085 -0.21097939
-0.04987535 -0.1281808 -0.09481648 0.32481524 0.14336707 -0.26495284 0.13768336 0.002345147
0.059044946 0.025082497 0.17552094 0.21431543 0.10745693 0.29021534 0.028824566 0.27319402
-0.23599768 -0.0063375807 -0.048192877 -0.25078756 0.10053349 -0.07729306 -0.28308725 -0.3069033
-0.19988742 -0.18377592 -0.28128672 -0.098072425 0.2610309 -0.061599776 0.069111094 -0.013208425
-0.025665946 0.3607766 0.15549013 0.15193732 0.30477783 -0.13277112 0.06678503 0.33798632
0.04750713 0.25883108 -0.19045366 -0.21462104 0.22655445 0.27116224 0.17179665 -0.25584063
0.20370983 -0.17170447 -0.20871426 -0.20010267 -0.01245871 -0.12520602 0.10244905 0.3042231
-0.085545115 -0.17600176 0.00039370797 -0.20640953 -0.07640129 0.13631271 -0.17218089 -0.094029814
0.10159678 -0.1424063 0.0688363 0.039468367 0.11296304 -0.15197828 -0.06290237 0.03877068
-0.13430533 0.2068094 -0.19213507 -0.26556334 -0.17217696 0.05965465 0.059581656 -0.15150484
-0.036514193 -0.030564263 0.212484 -0.24877965 0.22217679 0.13290145 0.2895466 -0.2290581
0.17220043 -0.00012325397 0.3205361 -0.038530674 0.09141591 0.29027712 0.017227655 0.26311406
-0.19273528 -0.23413132 -0.113630645 0.1594676 0.20147426 -0.13728787 -0.28555542 0.030802103
0.0042448705 -0.094560295 0.37644312 0.10717257 -0.031404756 0.16955575 -0.08876098 -0.16639443
00000000: 223e 95bd c30b b53d b2bf 94be a704 f53d
00000010: a135 7bbd b2ef 10bd d64f 04be 9158 8fbe
00000020: a824 8bbe f36d 41be 44c0 9ebd 0e25 afbc
00000030: 7e3c 6e3b 6ff6 9dbc 0b0e f2bd fb0a 58be
00000040: 184a 4cbd d441 03be 252f c2bd 2f4e a63e
00000050: d1ce 123e e6a7 87be defc 0c3e 0ab1 193b
00000060: 1dd9 713d cf79 cd3c c3bb 333e 8175 5b3e
00000070: 6112 dc3d 1b97 943e 7f21 ec3c 16e0 8b3e
00000080: 60a9 71be 7bab cfbb e565 45bd 3a67 80be
00000090: 81e4 cd3d d34b 9ebd d0f0 90be 6e22 9dbe
000000a0: 4aaf 4cbe c12f 3cbe d004 90be 32da c8bd
000000b0: d8a5 853e 0c50 7cbd 1e8a 8d3d 2668 58bc
000000c0: 6441 d2bc b6b7 b83e ce38 1f3e 7595 1b3e
000000d0: d70b 9c3e 27f5 07be 97c6 883d 8b0c ad3e
000000e0: d696 423d 8285 843e 4906 43be 9ec5 5bbe
000000f0: e4fd 673e c7d5 8a3e 76eb 2f3e 8bfd 82be
00000100: 4f99 503e 4cd3 2fbe 31b9 55be b7e7 4cbe
00000110: 9e1f 4cbc 0236 00be cfd0 d13d 21c3 9b3e
00000120: 4732 afbd ce39 34be 976a ce39 055d 53be
00000130: 4878 9cbd 8f95 0b3e 3050 30be b492 c0bd
00000140: f911 d03d f5d2 11be 0cfa 8c3d 95a9 213d
00000150: 2b59 e73d 32a0 1bbe f5d2 80bd 01ce 1e3d
00000160: 5687 09be d8c5 533e 0ebf 44be ebf7 87be
00000170: 284f 30be 6f58 743d e50b 743d 1624 1bbe
00000180: e88f 15bd e861 fabc 6895 593e 18c0 7ebe
00000190: 5082 633e 5117 083e 743f 943e 358e 6abe
000001a0: 4f55 303e bc3d 01b9 4f1d a43e 57d2 1dbd
000001b0: 4438 bb3d 349f 943e 0321 8d3c e3b6 863e
000001c0: 665c 45be 1fc0 6fbe 2fb7 e8bd 794b 233e
000001d0: 454f 4e3e 3195 0cbe 5234 92be b154 fc3c
000001e0: 8e18 8b3b d4a8 c1bd 27bd c03e 4b7d db3d
000001f0: 46a2 00bd 06a0 2d3e 51c8 b5bd 4d63 2abe

fc2.weight f4 [128, 128]
-0.039675694 0.03769666 -0.06340793 0.028462451 0.15043099 0.1369203 0.026290968 0.004612692
-0.038556784 0.05358055 -0.014130651 0.0781312 0.07129485 0.04513659 -0.07546364 0.08684787
0.14671798 0.11500563 0.006569906 -0.058822908 0.09906094 0.039954133 -0.16202833 -0.11065146
0.028817935 -0.08752005 -0.024105763 -0.057672534 0.030528871 -0.0026949742 -0.0048403568 -0.0009892387
-0.07212626 0.052914437 0.030686913 0.04618008 0.083074294 0.09983998 -0.05080741 0.10137899
0.018097624 0.04174622 -0.0031352267 0.18309326 -0.043469347 0.07397557 0.037322983 0.049217742
0.082318164 -0.11779309 -0.03533071 -0.012402151 -0.061485153 -0.08009706 0.015165877 -0.1657298
0.11783052 -0.005471205 -0.027800351 0.012647741 -0.088493586 -0.19528459 -0.030105174 0.05775605
0.013460675 -0.1143694 0.17240071 -0.10821578 -0.049353525 -0.04981701 0.04184084 -0.05916062
-0.10294378 -0.15984063 -0.06155982 -0.09492875 0.025310079 0.079352394 0.08579218 -0.058875833
0.10996956 0.087574854 -0.03440402 -0.061741184 0.14316098 -0.051781386 -0.013913582 0.023846
-0.029816473 -0.0056531657 0.062760584 0.07727725 0.10113147 -0.020961553 -0.107803494 -0.049576182
0.019012421 -0.023170184 0.052558694 -0.044030823 -0.027878892 -0.053428154 0.018905448 0.078778036
0.05818504 0.13595288 -0.10748942 0.029172324 -0.019466585 0.07288085 -0.017406728 -0.07679512
0.17527202 0.032920294 0.010619709 -0.022779455 -0.117077954 0.11100666 0.06860212 -0.09187065
0.06529982 0.029778598 -0.029853333 -0.031202268 0.019810056 0.061269842 0.093651794 -0.077803545
0.06272622 -0.011853 0.11135406 0.10118193 0.07825178 0.11602814 -0.069857456 0.07347766
-0.045792744 -0.036940962 -0.03127322 0.027888574 -0.022338336 0.041033365 0.0070268135 0.05681145
0.038118668 0.13714975 -0.046712644 -0.13389 0.08053648 0.20529431 -0.123162724 -0.10589408
0.053670052 -0.046001438 -0.012849104 0.06949929 -0.08996209 0.0144651 0.1330791 0.12987734
0.050629314 -0.04666398 0.061156105 -0.07716311 -0.021283017 0.04695366 0.06607454 -0.052407965
-0.05600607 -0.0021477116 0.035957485 0.20434034 -0.03955695 -0.041773774 -0.029026028 -0.058452412
0.09390385 -0.10474338 0.07529506 0.026352357 0.05676434 0.028330235 0.014291469 -0.08174913
0.11423093 -0.0019993572 -0.049684726 0.0045699105 0.021111365 -0.15397602 -0.100921616 -0.04294076
-0.02110155 -0.07955634 0.09561574 -0.09190353 -0.033085298 -0.023337623 0.05742504 0.015875816
-0.010508103 -0.07840055 -0.053015955 0.058114603 0.017234325 -0.041100804 0.045101404 0.02152775
0.033898547 0.15567572 -0.1625432 -0.11758216 0.069083184 -0.0895599 0.068017155 0.051899303
-0.032156717 -0.008840636 0.04768302 -0.07664181 0.2821849 -0.12101518 -0.07241445 -0.004662783
-0.087245405 -0.071545914 -0.0048512295 0.054442666 -0.028971542 -0.11913363 0.008072532 0.05022159
0.027840648 0.020347513 -0.030838978 -0.10037768 -0.118596435 -0.08936104 0.036109056 0.000565846
0.2270626 0.0011002048 0.08431247 0.03180499 -0.023149127 0.035977542 -0.07530574 -0.0714097
0.12113746 -0.046219327 -0.007920356 -0.015588753 0.0033514458 0.014870285 0.10486953 -0.009133898
00000000: fb82 22bd d067 1a3d 04dc 81bd 162a e93c
00000010: 950a 1a3e d634 0c3e 2860 d73c 1126 973b
00000020: b8ed 1dbd 4777 5b3d 3f84 67bc 4003 a03d
00000030: 0903 923d 25e1 383d ae8c 9abd 4cdd b13d
00000040: 3d3d 163e 1288 eb3d 5e48 d73b 4af0 70bd
00000050: 76e0 ca3d f2a6 233d c1ea 25be 3c9d e2bd
00000060: 9713 ec3c b63d b3bd 7379 c5bc 093a 6cbd
00000070: af17 fa3c 2a9e 30bb db9b 9ebb 58a9 81ba
00000080: efb6 93bd cfbc 583d 1f63 fb3c 5327 3d3d
00000090: db22 aa3d e778 cc3d 6e1b 50bd ca9f cf3d
000000a0: 7841 943c 16fe 2a3d 6078 4dbb cd7c 3b3e
000000b0: ea0c 32bd 8180 973d fcdf 183d 8b98 493d
000000c0: 6d96 a83d 813d f1bd efb6 10bd 6432 4bbc
000000d0: dbd7 7bbd ed09 a4bd 4c7a 783c 13b5 29be
000000e0: 2151 f13d cb47 b3bb 90bd e3bc 7838 4f3c
000000f0: 203c b5bd aff8 47be 209f f6bc 9c91 6c3d
00000100: 2a8a 5c3c 813a eabd d089 303e 3ca0 ddbd
00000110: ec26 4abd ec0c 4cbd 4d61 2b3d 6852 72bd
00000120: 30d4 d2bd 43ad 23be 2626 7cbd 016a c2bd
00000130: 1557 cf3c 8283 a23d cfb3 af3d c927 71bd
00000140: b837 e13d 725a b33d 3beb 0cbd 53e4 7cbd
00000150: cb98 123e b818 54bd cbf5 63bc b058 c33c
00000160: ad41 f4bc 313e b9bb 9f88 803d 8943 9e3d
00000170: 041e cf3d 90b7 abbc 14c8 dcbd 6510 4bbd
00000180: f0bf 9b3c 66cf bdbc c947 573d aa59 34bd
00000190: 4662 e4bc 7bd7 5abd 99df 9a3c 6156 a13d
000001a0: 7053 6e3d 3b37 0b3e 6a23 dcbd ccfa ee3c
000001b0: 6378 9fbc 8e42 953d 8e98 8ebc c346 9dbd
000001c0: 827a 333e 6ed7 063d 4afe 2d3c fb9b babc
000001d0: 91c6 efbd 7657 e33d 457f 8c3d ae26 bcbd
000001e0: e9bb 853d 3ff2 f33c fa8e f4bc e69b ffbc
000001f0: b348 a23c 16f6 7a3d 83cc bf3d 7757 9fbd
00000200: 9b76 803d 1633 42bc 990d e43d 7938 cf3d
00000210: 7842 a03d 29a0 ed3d 6d11 8fbd 757b 963d
00000220: 2c91 3bbd 684f 17bd 5918 00bd 9476 e43c
00000230: e3fe b6bc 9a12 283d 2f41 e63b 1fb3 683d
00000240: 5222 1c3d fc70 0c3e c255 3fbd 761a 09be
00000250: 4ff0 a43d ac38 523e bd3c fcbd ffde d8bd
00000260: 21d5 5b3d 016c 3cbd 0c85 52bc a555 8e3d
00000270: 0b3e b8bd 07ff 6c3c e345 083e 91fe 043e
00000280: af60 4f3d bb22 3fbd d37e 7a3d b107 9ebd
00000290: b959 aebc 7b52 403d 1752 873d bca9 56bd
000002a0: 9f66 65bd 9fc0 0cbb 2848 133d 983e 513e
000002b0: 7806 22bd fa1a 2bbd fec7 edbc cc6b 6fbd
000002c0: a950 c03d b283 d6bd 4c34 9a3d e6e0 d73c
000002d0: b981 683d cf14 e83c c426 6a3c 166c a7bd
000002e0: e8f1 e93d a607 03bb 3682 4bbd 30bf 953b
000002f0: bef1 ac3c e4ab 1dbe feaf cebd a6e2 2fbd
00000300: 28dd acbc 6fee a2bd 2fd2 c33d eb37 bcbd
00000310: 7384 07bd 8b2e bfbc 8536 6b3d 000e 823c
00000320: 2e2a 2cbc 7890 a0bd 4227 59bd 9409 6e3d
00000330: 002f 8d3c 5159 28bd 40bc 383d f75a b03c
00000340: 34d9 0a3d 7569 1f3e ba71 26be eace f0bd
00000350: 7c7b 8d3d 2e6b b7bd 944c 8b3d 5d94 543d
00000360: c3b6 03bd 51d8 10bc 454f 433d 62f6 9cbd
00000370: 8a7a 903e cfd6 f7bd 074e 94bd 42ca 98bb
00000380: b8ad b2bd aa86 92bd 10f7 9ebb 46ff 5e3d
00000390: ba55 edbc 55fc f3bd a742 043c 27b5 4d3d
000003a0: 1212 e43c d4af a63c 06a2 fcbc d092 cdbd
000003b0: b0e2 f2bd ec02 b7bd 17e7 133d 4855 143a
000003c0: 1983 683e bf34 903a 04ac ac3d f345 023d
000003d0: 3da3 bdbc 305d 133d e539 9abd 403f 92bd
000003e0: eb16 f83d 7a50 3dbd 61c4 01bc f867 7fbc
000003f0: eea3 5b3b 7fa2 733c d6c5 d63d 58a6 15bc

fc2.bias f4 [128]
0.044533774 0.0136964 -0.04530068 -0.037237562 -0.095974445 0.0907567 -0.085337095 0.013738742
0.02522754 -0.081975445 0.11660564 0.018655103 -0.0052400054 0.11845057 0.12012089 0.010064028
0.05951707 -0.021655587 -0.07239616 0.008640573 0.052267414 0.0029534148 -0.03048053 -0.083490364
-0.0041191354 0.0033419507 0.071181886 -0.0006490159 0.035207912 0.058205917 -0.022004677 0.0389859
0.020052068 0.016447566 0.116267055 -0.03387232 -0.007456389 -0.057052605 -0.04858631 0.105121806
0.16831669 -0.025179215 0.04040514 -0.031928502 -0.005252736 -0.03184805 -0.07041256 0.004060936
0.036739517 -0.05805305 -0.01505497 0.05351199 -0.039198387 0.04916662 0.042820625 -0.09927099
-0.092583545 0.036919896 0.1255413 0.051265925 -0.05654183 0.08842128 -0.088197276 -0.0749381
-0.03968896 -0.020736359 -0.011146519 0.094752066 -0.0037276149 -0.055027824 -0.096395254 0.0392106
-0.045253888 -0.08057264 -0.0586825 -0.0779202 0.01568138 -0.011075325 0.0549057 -0.00026503069
-0.03548747 -0.06659544 0.070177026 0.12033637 -0.013778976 0.05286414 0.08073895 -0.062052008
-0.005158456 -0.031321067 -0.09088599 -0.06784237 0.038993593 0.14282484 0.051593848 0.099715196
0.064092115 0.054397024 -0.022285333 -0.03728777 -0.058512468 0.07911911 -0.024968319 0.0641854
0.016527804 -0.06578617 0.060603995 -0.03615052 -0.02918925 -0.004552461 0.004423998 0.12339344
0.07308955 -0.092036806 -0.047024827 0.035066377 -0.06742253 -0.039986745 -0.0769381 0.025644373
-0.087425694 0.023261542 0.16617621 -0.04407717 0.07553744 0.10001891 -0.08345985 0.032514486
00000000: 0c69 363d de66 603c 358d 39bd 6a86 18bd
00000010: 408e c4bd a6de b93d 37c5 aebd 7618 613c
00000020: fca9 ce3c bee2 a7bd f0ce ee3d 96d2 983c
00000030: 5ab4 abbb 3696 f23d f101 f63d 98e3 243c
00000040: 2cc8 733d 0f67 b1bc 7044 94bd 3191 0d3c
00000050: 5b16 563d 148e 413b 4eb2 f9bc fffc aabd
00000060: d0f9 86bb a104 5b3b cfc7 913d b822 2aba
00000070: 2c36 103d 5469 6e3d 2743 b4bc aeaf 1f3d
00000080: 3c44 a43c 0cbd 863c 6c1d ee3d b4bd 0abd
00000090: b954 f4bb feaf 69bd 7002 47bd 1a4a d73d
000000a0: 365b 2c3e a444 cebc dc7f 253d 76c7 02bd
000000b0: 251f acbb 1a73 02bd 7634 90bd 9a11 853b
000000c0: 2d7c 163d 09c9 6dbd 1fa9 76bc 632f 5b3d
000000d0: 7d8e 20bd f062 493d ae64 2f3d 974e cbbd
000000e0: 719c bdbd 5139 173d e68d 003e 38fc 513d
000000f0: 6898 67bd 3716 b53d c6a0 b4bd 2679 99bd
00000100: e490 22bd 4cdf a9bc e49f 36bc 5f0d c23d
00000110: 004b 74bb db64 61bd e06a c5bd 4b9b 203d
00000120: 245c 39bd 4503 a5bd 105d 70bd a094 9fbd
00000130: 3d76 803c 4875 35bc cde4 603d d1f3 8ab9
00000140: 4f5b 11bd 3163 88bd f9b8 8f3d ea72 f63d
00000150: 37c1 61bc 1288 583d 765a a53d 3f2a 7ebd
00000160: 4408 a9bb 854a 00bd 6f22 babd f1f0 8abd
00000170: bfb7 1f3d ad40 123e 1254 533d 7b37 cc3d
00000180: ba42 833d 6acf 5e3d bb8f b6bc 10bb 18bd
00000190: c5aa 6fbd 3309 a23d 5c8a ccbc a373 833d
000001a0: 5165 873c e6ba 86bd e53b 783d 9112 14bd
000001b0: 4b1e efbc d02c 95bb 2ff7 903b b3b5 fc3d
000001c0: f9af 953d cb7d bcbd 1b9d 40bd c3a1 0f3d
000001d0: d314 8abd 24c9 23bd b991 9dbd 2614 d23c
000001e0: 3e0c b3bd fd8e be3c 192a 2a3e 438a 34bd
000001f0: 60b3 9a3d b7d6 cc3d ffec aabd e92d 053d

fc3.weight f4 [3, 128]
-0.14732867 -0.10218256 -0.0366937 -0.059585802 -0.021903565 -0.036552496 0.07465849 -0.18900213
-0.037677154 -0.21548471 0.09843626 0.048321858 -0.048493966 0.14825052 0.100898266 0.056423567
0.0030016203 0.0122047365 -0.09806249 0.12108056 -0.0648767 -0.03771614 -0.05801775 -0.027030645
-0.03085659 0.13579236 -0.073043965 0.11469149 -0.13631687 0.06738867 -0.021533811 0.11265675
0.0890009 0.008233083 0.120607875 0.061327934 0.06090829 0.019050907 0.032632906 0.078447446
0.16133246 0.058417536 -0.03056827 0.09344994 -0.03649885 0.06933106 0.08443176 -0.061515465
-0.09232689 0.015572883 -0.1273752 0.06127067 -0.05229674 0.06909379 -0.043380763 0.040839463
0.067683615 -0.14186195 0.22277458 -0.2506711 -0.059820026 0.13293874 -0.08357634 -0.028445423
0.016342111 0.04436435 -0.055738 0.046896316 -0.03146931 -0.010740295 -0.035000008 0.017710993
-0.13744448 0.015260676 -0.035199173 0.06146369 -0.10652642 0.048302226 -0.07052087 -0.05792075
0.06691741 -0.11600193 0.06642066 0.16470434 0.08411382 -0.018187331 0.06125465 0.022349846
-0.069913365 -0.20201512 -0.03192149 -0.027891614 -0.21414457 0.21192253 0.0709826 0.12410605
0.20177458 -0.17122124 0.073545836 -0.0026999707 0.015150935 0.07393626 0.015941937 0.052754868
-0.019737244 0.004331851 -0.07826705 0.052214812 0.03482712 0.07481944 -0.037833747 0.054165293
-0.064281695 0.05589552 -0.1414574 0.009492065 -0.048080135 0.034986105 0.012875618 -0.0786447
0.0695265 -0.04364315 0.12317084 0.04630582 -0.06156414 0.07558506 0.038152397 -0.051828817
0.023323435 -0.024317376 -0.026368031 0.07801076 0.060330026 -0.13645203 0.045576267 0.018578496
-0.034370694 0.031594478 -0.104859956 -0.13042659 -0.018867541 -0.082987495 -0.1246492 -0.013355523
-0.15884776 -0.068945765 -0.15092249 -0.05232718 -0.013500802 0.03181419 -0.028971964 -0.05205852
-0.004801199 -0.068473876 -0.13476105 -0.0020591763 0.014336383 -0.10534792 0.015973255 -0.10916297
0.040177923 0.054751717 -0.17136095 0.04631199 -0.11124243 0.002345356 -0.031241074 -0.12033782
-0.03297313 -0.056576103 -0.019878296 -0.02256113 0.04682056 -0.058294628 0.07817454 -0.05034353
-0.0038587786 0.032857176 -0.10157589 -0.12843388 -0.114104815 0.04238317 -0.026614303 0.06920953
0.039970268 -0.003083462 -0.10085089 -0.0051347483 0.0070969607 -0.11028943 0.08821262 0.033200055
-0.0007139072 -0.01991942 -0.048404757 -0.13239653 0.033415377 -0.11811875 -0.0499871 -0.07876793
-0.053523153 0.05182444 0.010614424 0.004492581 -0.018799402 -0.064976975 -0.10605482 0.059305254
0.015481685 -0.060834084 -0.0021235833 -0.11936614 -0.15881148 -0.10313865 -0.16101116 -0.07830167
0.05936986 0.008572781 -0.03266516 -0.027402591 -0.02393882 -0.030704964 0.0006301701 -0.16140194
-0.121094264 -0.1272588 0.059179068 -0.086183414 -0.018223573 -0.09861777 -0.117014326 -0.023252705
0.0048016286 -0.08496859 0.06294737 -0.025879627 0.021095475 -0.01168181 -0.1202707 -0.1475978
0.07935418 0.05977153 -0.030317254 -0.030313287 0.0739707 -0.027993903 -0.052664395 0.01334866
0.051091425 -0.048959002 -0.09890376 0.078283064 -0.056964576 -0.14358167 -0.06888573 -0.028012713
00000000: 54dd 16be 1745 d1bd 224c 16bd 3e10 74bd
00000010: 1b6f b3bc 12b8 15bd 8de6 983d c689 41be
00000020: 5c53 1abd 06a8 5cbe f398 c93d 24ed 453d
00000030: 9ca1 46bd fcce 173e c0a3 ce3d 661c 673d
00000040: d5b6 443b 60f6 473c fdd4 c8bd 16f9 f73d
00000050: 13de 84bd 3d7c 1abd 05a4 6dbd 5f6f ddbc
00000060: f6c6 fcbc 270d 0b3e 1398 95bd 5fe3 ea3d
00000070: a696 0bbe 1203 8a3d ad67 b0bc 95b8 e63d
00000080: 1b46 b63d 0ee4 063c 4301 f73d 0033 7b3d
00000090: f97a 793d a610 9c3c 15aa 053d 0ea9 a03d
000000a0: 5634 253e 3a47 6f3d 4f6a fabc af62 bf3d
000000b0: d17f 15bd 71fd 8d3d 8fea ac3d a4f7 7bbd
000000c0: e115 bdbd 6825 7f3c a56e 02be f4f6 7a3d
000000d0: 1b35 56bd 0c81 8d3d 07b0 31bd 4847 273d
000000e0: b59d 8a3d 4244 11be 051f 643e f657 80be
000000f0: d805 75bd 1821 083e 122a abbd 6006 e9bc
00000100: e4df 853c 65b7 353d 874d 64bd 5a16 403d
00000110: f7e5 00bd 10f8 2fbc 2b5c 0fbd a516 913c
00000120: 3fbe 0cbe ea07 7a3c 022d 10bd 5ac1 7b3d
00000130: 862a dabd 8ed8 453d 3f6d 90bd 4f3e 6dbd
00000140: ff0b 893d 6b92 edbd 8e07 883d 41a8 283e
00000150: de43 ac3d 99fd 94bc 28e6 7a3d 0617 b73c
00000160: bd2e 8fbd 0ddd 4ebe 1cc0 02bd f47c e4bc
00000170: b748 5bbe 3802 593e 535f 913d 502b fe3d
00000180: ff9d 4e3e 9f54 2fbe 339f 963d fef1 30bb
00000190: a13b 783c e56b 973d aa98 823c 7d15 583d
000001a0: 00b0 a1bc 33f2 8d3b 7a4a a0bd 33df 553d
000001b0: e2a6 0e3d ef3a 993d 8ff7 1abd 6ddc 5d3d
000001c0: 1fa6 83bd b3f2 643d 35da 10be 9b84 1b3c
000001d0: adef 44bd 974d 0f3d 42f4 523c 7910 a1bd
000001e0: e963 8e3d 29c3 32bd fe40 fc3d 2cab 3d3d
000001f0: ae2a 7cbd 57cc 9a3d b045 1c3d 744a 54bd
00000200: ca10 bf3c 3c35 c7bc c501 d8bc 1bc4 9f3d
00000210: 9e1c 773d 15ba 0bbe 2eae 3a3d ee31 983c
00000220: 49c8 0cbd 3669 013d d1c0 d6bd 8c8e 05be
00000230: 1a90 9abc 59f5 a9bd 1448 ffbd 20d1 5abc
00000240: fda8 22be 7033 8dbd 6d8b 1abe 0655 56bd
00000250: 7832 5dbc 994f 023d 9d56 edbc 513b 55bd
00000260: 6053 9dbb 083c 8cbd cdfe 09be 3ff3 06bb
00000270: 26e3 6a3c a6c0 d7bd 58da 823c d690 dfbd
00000280: 9b91 243d 5643 603d 3f79 2fbe a4b1 3d3d
00000290: 12d3 e3bd 8bb4 193b 48ed ffbc ad73 f6bd
000002a0: d50e 07bd 58bc 67bd cfd7 a2bc 1ed2 b8bc
000002b0: eac6 3f3d 59c6 6ebd f919 a03d 0435 4ebd
000002c0: 90e3 7cbb 3f95 063d 0507 d0bd 2c84 03be
000002d0: c9af e9bd fa99 2d3d 3d06 dabc babd 8d3d
000002e0: ddb7 233d e813 4abb e98a cebd 6441 a8bb
000002f0: 9f8d e83b 6ddf e1bd d1a8 b43d c8fc 073d
00000300: 8025 3bba 0d2e a3bc 1144 46bd f592 07be
00000310: 90de 083d 3ee8 f1bd 46bf 4cbd 1551 a1bd
00000320: 183b 5bbd dd45 543d 1fe8 2d3c 8036 933b
00000330: 3401 9abc a612 85bd 4533 d9bd 11ea 723d
00000340: e5a6 7d3c 292d 79bd d12b 0bbb 3c76 f4bd
00000350: 7a9f 22be 5b3a d3bd 1ce0 24be a05c a0bd
00000360: cf2d 733d da74 0c3c e7cb 05bd 667b e0bc
00000370: 581b c4bc fa88 fbbc 0032 253a 8d46 25be
00000380: 4500 f8bd 2250 02be c065 723d ee80 b0bd
00000390: 9a49 95bc 1df8 c9bd 35a5 efbd 757c bebc
000003a0: fb56 9d3b 0304 aebd 8dea 803d 8301 d4bc
000003b0: 6bd0 ac3c 1065 3fbc 7c50 f6bd e123 17be
000003c0: 7284 a23d fed2 743d e45b f8bc 9253 f8bc
000003d0: f37d 973d 7853 e5bc 9fb6 57bd 57b4 5a3c
000003e0: 3e45 513d 3c89 48bd 0e8e cabd df52 a03d
000003f0: b053 69bd 1307 13be f613 8dbd eb7a e5bc

fc3.bias f4 [3]
0.10736683 0.033618756 0.0288937
00000000: 24e3 db3d d2b3 093d 7bb2 ec3c
