scripts/models/pg/reinforce_run_8.pth (torch, 76888 bytes, 6 tensors)

fc1.weight f4 [128, 12]
0	0xbe420c22	-0.18949941
1	0xbe90750d	-0.28214303
2	0xbe8341b0	-0.25636053
3	0x3dcdbea7	0.1004613
4	0xbd38ea13	-0.045145106
5	0xbeae1fe0	-0.34008694
6	0xbe94c663	-0.29057607
7	0x3d37f00a	0.044906653
8	0x3e37cd6f	0.1794946
9	0xbdc35d3d	-0.09539268
10	0xbe3a9f39	-0.18224801
11	0xbe82467d	-0.25444403
12	0x3d65be08	0.05608943
13	0xbd9f642c	-0.07782778
14	0xbe4b1952	-0.19833878
15	0xbc5046e0	-0.01271221
16	0x3d4972f5	0.049181897
17	0xbb887ad6	-0.004165034
18	0xbd6a50d0	-0.057205975
19	0xbe802cf1	-0.25034288
20	0x3d2411a9	0.040055905
21	0xbe5d79ed	-0.21628542
22	0xbeaa58f4	-0.3327099
23	0xbeb53f3d	-0.3539981
24	0x3d55adfe	0.052167885
25	0x3e8325fd	0.2561492
26	0xbe800a1c	-0.25007713
27	0x3ead937c	0.33901584
28	0x3e83c3c5	0.25735298
29	0x3d5230ea	0.05131618
30	0xbb9bf0e1	-0.0047589396
31	0x3e3b95a1	0.18318798
32	0x3e763beb	0.24046294
33	0x3e33dc8a	0.17564598
34	0xbe7dad67	-0.24773179
35	0x3eebfd97	0.4609191
36	0x3e281ed6	0.16418013
37	0xbf171af1	-0.59025484
38	0xbccbefa9	-0.024894552
39	0x3efe6b1f	0.49691102
40	0xbda79c71	-0.08184136
41	0x3e9c98ff	0.30585477
42	0xbd8f5c3c	-0.07000014
43	0x3cc505df	0.024050651
44	0x3e31fd42	0.17381766
45	0x3ee84f7d	0.45373145
46	0xbe707d99	-0.23485412
47	0x3f0c8a78	0.54898787
48	0x3eb1e016	0.34741277
49	0xbe8c5bd1	-0.274138
50	0xbde6ecaf	-0.112756126
51	0x3ed3a748	0.41338563
52	0x3e257b79	0.16160382
53	0xbb200fc6	-0.0024423464
54	0xb87d5d90	-6.0407037e-05
55	0xbe8bf39c	-0.27334297
56	0x3e0ad903	0.13559346
57	0xbd807856	-0.06272952
58	0x3edd5159	0.43226126
59	0x3e99e4e8	0.30057454
60	0xbc9d38d8	-0.019192144
61	0x3dd96350	0.106146455
62	0xbe9bb310	-0.3041005
63	0x3ecdac80	0.4017067
64	0x3d156cb2	0.036480613
65	0x3ebc9831	0.36834863
66	0x3e9e8279	0.30958918
67	0x3edee35d	0.4353284
68	0xbb8755ca	-0.0041301
69	0x3e610ed8	0.21978319
70	0xbebaf34b	-0.36513743
71	0x3ed37ad1	0.4130464
72	0x3d1e9dae	0.038724594
73	0x3d0f0557	0.0349172
74	0x3c9a361a	0.018824626
75	0x3ec6c3db	0.388213
76	0x3e2f5dc7	0.17125617
77	0xbe5cbc07	-0.21556102
78	0xbe956684	-0.29179776
79	0xbd856dd5	-0.065150894
80	0x3e491b3e	0.19639298
81	0x3e8a6168	0.2702744
82	0xbe5dc043	-0.21655373
83	0x3e328bab	0.17436092
84	0xbe85365c	-0.26018035
85	0x3ebf0b34	0.37313235
86	0x3d6e3220	0.05815327
87	0x3ecbd68e	0.3981213
88	0x3e1f95c7	0.1558448
89	0x3d77a6ee	0.06046193
90	0x3f1014d3	0.56281775
91	0x3edbc0b2	0.42920452
92	0x3e563876	0.20919976
93	0x3d9086ed	0.07056985
94	0x3e80208a	0.25024825
95	0x3ebedf72	0.3727985
96	0xbe81c47c	-0.25345218
97	0x3ea57360	0.32314587
98	0xbe16f426	-0.14741573
99	0xbe71e797	-0.23623501
100	0x3eeadadf	0.4587011
101	0x3de5752f	0.112039916
102	0x3e3a3d83	0.18187527
103	0xbd23d33d	-0.039996374
104	0xbc454e42	-0.012042584
105	0x3d4dce5f	0.05024564
106	0xbea029bd	-0.31281844
107	0xbe2fd767	-0.17172013
108	0x3c7c611f	0.015404015
109	0xbe8aaf37	-0.27086803
110	0xbe8dc8b1	-0.27692178
111	0x3f0f9242	0.56082547
112	0x3e048a97	0.12943493
113	0xbe1cbe68	-0.15307009
114	0xbe222445	-0.15834148
115	0x3deb1687	0.11478906
116	0xbe60891e	-0.21927306
117	0x3e08a4e3	0.1334415
118	0xbd048343	-0.032351743
119	0xbdd891fd	-0.1057472
120	0x3e22ba05	0.15891273
121	0xbe824bf2	-0.25448567
122	0xbdb910e0	-0.09036422
123	0x3e203d10	0.15648293
124	0xbdd135fc	-0.10215375
125	0xbd64c383	-0.055850517
126	0xbee33f24	-0.4438411
127	0xbec44c7e	-0.3833961
128	0xbeb83768	-0.35979772
129	0x3b9046e2	0.004402981
130	0xbe30fa85	-0.17283066
131	0x3d48c489	0.049015556
132	0xbeaa0aa8	-0.33211255
133	0xbe5229b0	-0.20523715
134	0xbd5d3425	-0.054004807
135	0xbd0a0e4a	-0.033705033
136	0x3e55afe2	0.20867875
137	0xbdd1c9be	-0.102435574
138	0xbeb607c9	-0.35552815
139	0xbe0303cf	-0.12794422
140	0xbeb25916	-0.34833592
141	0xbed91203	-0.42396554
142	0xbd73c056	-0.059509598
143	0xbe96d01b	-0.29455647
144	0xbe61ca14	-0.22049743
145	0x3e7b0b25	0.2451597
146	0x3bb1ad80	0.005422294
147	0x3e302178	0.17200267
148	0xbe86798c	-0.26264608
149	0xbd6994ae	-0.057026558
150	0xbe89a5cb	-0.26884302
151	0xbe7fe122	-0.24988225
152	0xbe048cca	-0.12944332
153	0x3e3576ef	0.17721151
154	0xbcce8fd4	-0.025215067
155	0xbe2e4ace	-0.17020723
156	0xbd9f5010	-0.077789426
157	0xbe44d3c6	-0.1922141
158	0xbe8173ca	-0.25283653
159	0x3ebb11d7	0.36537048
160	0x3c34e8bc	0.011041816
161	0xbe59e7b1	-0.2127979
162	0x3da389a7	0.079852395
163	0xbd42a786	-0.047523044
164	0xbe713419	-0.2355503
165	0xbd0b888a	-0.03406576
166	0xbe4e4df2	-0.20146921
167	0xbeaf93f7	-0.34292576
168	0xbda03f23	-0.078245424
169	0xbdb7b3c3	-0.08969834
170	0xbe30bba8	-0.17259085
171	0x3db3c269	0.08777315
172	0xbe36d49d	-0.17854543
173	0xbe548bd5	-0.20756467
174	0xbe4f64bc	-0.20253271
175	0xbe373016	-0.17889437
176	0xbe38893a	-0.18021098
177	0xbe93940c	-0.28823888
178	0x3db13061	0.08651806
179	0xbe2ec42d	-0.17067023
180	0xbe44f924	-0.19235665
181	0xbc580f4f	-0.013187244
182	0xbe5f5f53	-0.21813707
183	0x3dbdbe8c	0.092648596
184	0xbd69afc2	-0.05705238
185	0xbd18e514	-0.03732784
186	0x3df39039	0.11892743
187	0x3d836853	0.06416383
188	0xbeb6ea53	-0.3572565
189	0xbe872138	-0.2639253
190	0xbde23719	-0.11045665
191	0x3d4ab116	0.04948529
192	0x3e34f16d	0.17670222
193	0x3eaadd18	0.33371806
194	0xbf210678	-0.62900496
195	0x3e8cdf6d	0.2751421
196	0xbccdbbfa	-0.025114048
197	0x3f013ef8	0.5048671
198	0x3f120c50	0.5705004
199	0x3ec1a188	0.3781855
200	0x3e968579	0.29398707
201	0x3eba1069	0.36340645
202	0x3d94c0b0	0.07263315
203	0x3e4e1f6a	0.20129171
204	0xbe6a77a5	-0.22897203
205	0xbda7b20e	-0.08188258
206	0xbe08ca6f	-0.13358472
207	0xbe571e93	-0.21007757
208	0xbe5703e4	-0.20997578
209	0x3d3dda78	0.046350926
210	0xbea4390c	-0.32074773
211	0xbe0858e7	-0.13315164
212	0xbe787d7c	-0.24266618
213	0xbd6c2253	-0.05764992
214	0xbd3124ba	-0.043247916
215	0xbe8b2599	-0.27177122
216	0xbdf72456	-0.120674774
217	0xbdf4f4cc	-0.11960754
218	0xbd6e0322	-0.058108456
219	0x3d83430e	0.06409274
220	0xbdb50d17	-0.08840387
221	0x3d2e2236	0.042513095
222	0xbd1d5cc7	-0.038418557
223	0x3e845e21	0.25853065
224	0xbd8d21da	-0.06891222
225	0x3ebfb396	0.374417
226	0xbe8d3080	-0.27576065
227	0x3eef30b7	0.46716854
228	0x3d017768	0.031608015
229	0x3df7c348	0.12097794
230	0x3e0565aa	0.13027063
231	0xbe197075	-0.14984305
232	0x3d243e78	0.040098637
233	0xbca48976	-0.020085078
234	0x3d2b5863	0.04183234
235	0xbe29aaf5	-0.16569121
236	0x3e39260d	0.18080921
237	0xbeb0ae79	-0.34508112
238	0xbe6329d9	-0.22183932
239	0xbd66e96a	-0.056374945
240	0xbea9a931	-0.33136895
241	0xbd9486d7	-0.07252281
242	0xbec66e5a	-0.38756067
243	0x3ca8b157	0.020592375
244	0x3d680c19	0.056652162
245	0xbd917f1d	-0.07104323
246	0x3d2aefbb	0.04173253
247	0x3e40d0c4	0.18829638
248	0xbe0ff945	-0.14059933
249	0x3ed2a249	0.4113944
250	0xbd56d0a8	-0.052445084
251	0x3e4d6df1	0.2006147
252	0x3d15b612	0.03655059
253	0x3e924221	0.28566077
254	0xbe0c5664	-0.1370483
255	0x3eb53642	0.35392958

fc1.bias f4 [128]
0	0xbdc84b5c	-0.09779999
1	0xbe47dbd1	-0.19517447
2	0x3e603ef3	0.21899013
3	0xbe43b97e	-0.19113728
4	0x3d3c57bf	0.04598212
5	0x3e139a74	0.14414388
6	0xbd36a770	-0.044593275
7	0xbd8e3add	-0.06944821
8	0xbea53dd4	-0.32273734
9	0xbe3214f7	-0.1739081
10	0xbe7d717e	-0.24750325
11	0xbe5d906e	-0.21637127
12	0xbe7f1a93	-0.24912481
13	0xbe83af24	-0.2571956
14	0xbe35d685	-0.17757614
15	0xbe43d512	-0.19124249
16	0x3e860adf	0.2618017
17	0x3dddeeee	0.10836588
18	0xbdfd6835	-0.123733915
19	0xbe491bbe	-0.19639489
20	0xbe118fa4	-0.14214951
21	0x3d520d8d	0.051282454
22	0xbe314a03	-0.1731339
23	0x3e020a4a	0.12699237
24	0x3e23c372	0.15992525
25	0x3e5aff17	0.21386372
26	0xbde27ec1	-0.11059333
27	0xbe89a85b	-0.26886258
28	0xbdb319bb	-0.08745142
29	0xbe7067f4	-0.23477155
30	0x3e8f9170	0.28040648
31	0x3d6be1a3	0.05758823
32	0x3d2c1cf2	0.042019792
33	0x3e209626	0.15682277
34	0x3ed7bd06	0.421364
35	0xbe4a057b	-0.19728653
36	0x3eb351ce	0.3502335
37	0x3e82eca7	0.25571176
38	0xbe202787	-0.15640078
39	0x3e4972fa	0.19672766
40	0xbe6d1d4c	-0.23155707
41	0x3ea64629	0.32475403
42	0xbd4aa864	-0.049476996
43	0x3ea479e1	0.32124236
44	0xbe8370b1	-0.25671914
45	0x3dd21aca	0.10259016
46	0xbdfc0a2d	-0.123066284
47	0xbe919255	-0.28431955
48	0xbe36ecc4	-0.17863756
49	0x3e7d1a9d	0.24717183
50	0xbd84f2ea	-0.06491645
51	0x3e159f71	0.14611603
52	0xbe7d4e08	-0.24736798
53	0xbe753277	-0.23945032
54	0xbe3ac6d5	-0.18239911
55	0x3e1f15b5	0.15535624
56	0x3dd324a3	0.10309722
57	0x3e95fe92	0.29295784
58	0x3dc352a9	0.095372505
59	0x3d32e0c0	0.04367137
60	0xbe4e9a87	-0.20176135
61	0x3ea23f38	0.31688857
62	0xbe41b541	-0.18916799
63	0xbd82b61f	-0.06382393
64	0x3e90ae4c	0.28257978
65	0xbe23d116	-0.15997729
66	0x3e6fef52	0.23431137
67	0xbe14b65a	-0.14522687
68	0xbd6f00b0	-0.058350265
69	0x3e04ef59	0.12981929
70	0xbe84f19a	-0.25965577
71	0xbe222048	-0.15832627
72	0x3eac470b	0.3364795
73	0xbe5b5622	-0.21419576
74	0x3ec21f30	0.3791442
75	0xbe63c412	-0.22242764
76	0xbdf3be35	-0.119015135
77	0x3e808296	0.2509963
78	0xbccb1ab1	-0.024793
79	0xbe4ebbcf	-0.20188831
80	0x3e45dbee	0.19322178
81	0xbeabb35f	-0.33535287
82	0xbe6a1396	-0.22859034
83	0x3e5bfbee	0.21482822
84	0xbe0f02ce	-0.13965914
85	0x3d291ea0	0.041288972
86	0xbde03ad7	-0.10948723
87	0xbe0c8977	-0.13724314
88	0x3e022a24	0.12711388
89	0x3e449d90	0.1920073
90	0x3e203ded	0.15648623
91	0xbbda239d	-0.0066570775
92	0xbe392b29	-0.1808287
93	0x3e9274a8	0.28604627
94	0x3e6e4b5f	0.2327094
95	0xbca7298b	-0.020405551
96	0x3e56d378	0.20979106
97	0xbe687891	-0.22702242
98	0xbd8bcfb7	-0.06826728
99	0xbd9c5267	-0.076329045
100	0xbe8a2345	-0.26980034
101	0x3e1d770a	0.15377441
102	0xbe53b82d	-0.20675726
103	0xbe896033	-0.26831207
104	0x3e182fc3	0.1486197
105	0x3e57bd21	0.2106824
106	0xbeaa1fe6	-0.33227462
107	0x3cc04f40	0.02347529
108	0x3e0cc345	0.13746364
109	0xbe6d0c05	-0.23149116
110	0xbdc46d33	-0.095911406
111	0x3e66976c	0.225187
112	0x3c4d4c89	0.012530454
113	0xbdf490ee	-0.11941706
114	0xbe305021	-0.17218067
115	0xbe007dbd	-0.12547965
116	0xbdaa24c9	-0.083077975
117	0xbb88091b	-0.004151476
118	0xbe919898	-0.28436732
119	0xbe32278f	-0.17397903
120	0x3b6f6290	0.0036527254
121	0xbe3ab68e	-0.18233702
122	0xbcbbb526	-0.022913527
123	0x3c54cbb7	0.0129880225
124	0xbd169ff4	-0.036773637
125	0xbeafc81b	-0.34332356
126	0xbdbc705c	-0.09201118
127	0x3e5907e9	0.21194424

fc2.weight f4 [128, 128]
0	0x3d68b18a	0.05680994
1	0x3aa03dc0	0.0012225434
2	0xbe6d56e2	-0.23177674
3	0x3cbb0430	0.022829145
4	0x3cc985f0	0.0246
5	0xbd90c5b4	-0.07068959
6	0xbdf73478	-0.120705545
7	0xba89e800	-0.0010521412
8	0x3d0d8ef2	0.03456015
9	0xbd954210	-0.07287991
10	0xbc23f1c8	-0.010006376
11	0xbe61380e	-0.2199404
12	0x3d80087f	0.062516205
13	0x3cef0034	0.029174902
14	0xbd319efd	-0.043364514
15	0xbd662998	-0.05619201
16	0xbe0a84fb	-0.1352729
17	0xbd2d9f46	-0.042388223
18	0xbe32e1fa	-0.17469016
19	0xbd773638	-0.06035444
20	0xbe1b8008	-0.15185559
21	0xbdb2c1e6	-0.087283894
22	0xbca83838	-0.02053462
23	0xbe5d4b31	-0.21610714
24	0xbe61b6c1	-0.22042371
25	0x3c63a6c8	0.013894744
26	0x3d5f3036	0.054489337
27	0xbe524f57	-0.20538078
28	0x3d80495d	0.06263993
29	0xbb278c60	-0.0025565848
30	0xbe32774b	-0.17428319
31	0x3d9ea093	0.07745471
32	0x3cbbabc0	0.022909045
33	0xbe1e7691	-0.15474917
34	0xbcce0f5c	-0.025153808
35	0x3d98c303	0.074590705
36	0xbcfb31ae	-0.030663338
37	0xbe20057e	-0.15627095
38	0xbd3cf048	-0.046127588
39	0xbe12ec7b	-0.14348023
40	0xbc3fbea8	-0.011703171
41	0xbe441c0a	-0.19151321
42	0xbd8ea6db	-0.06965419
43	0xbdede3ab	-0.1161569
44	0xbc671b30	-0.014105603
45	0xbc86ed58	-0.016470596
46	0x3d054b2c	0.032542393
47	0x3d5c06a6	0.053717278
48	0x3d0ee856	0.03488954
49	0xbd6034f6	-0.054738007
50	0x3d9d3f1d	0.076780535
51	0x3d8c9b61	0.06865574
52	0x3d9db6d5	0.07700888
53	0xbd5ef335	-0.05443116
54	0x3c6d2af8	0.014475577
55	0xbd9e2db7	-0.07723563
56	0xbd8442d2	-0.064580575
57	0xbdcada08	-0.099048674
58	0xbe36b369	-0.17841877
59	0x3b8349f0	0.004006617
60	0x3d1b0f42	0.037856348
61	0xbda1a608	-0.07892996
62	0x3da5668f	0.08076202
63	0xbd9f4712	-0.077772275
64	0x3c8e8de4	0.017401643
65	0xbd4eba09	-0.050470386
66	0xbe06aa6d	-0.1315095
67	0x3d881af9	0.066457696
68	0x3be5b450	0.0070100203
69	0x3c9a9568	0.01887007
70	0xbd8e9daa	-0.06963666
71	0x3dab97ab	0.08378538
72	0xbd9ae64e	-0.075634584
73	0xbe4a9ed6	-0.19787154
74	0xbd8e9344	-0.069616824
75	0xbd8e797c	-0.06956765
76	0xba880bc0	-0.0010379478
77	0xbe3388f0	-0.17532706
78	0xbd0f05e1	-0.034917716
79	0xbe25d13f	-0.16193102
80	0xbe384b05	-0.17997368
81	0xbc89e074	-0.01683066
82	0x3cd6c748	0.026218072
83	0xbdadc115	-0.08484093
84	0x3a781380	0.0009463355
85	0xbcc4d2f4	-0.024026372
86	0x3d4755c2	0.04866577
87	0xbd9fa7a6	-0.07795648
88	0x3d438de6	0.047742747
89	0xbca28740	-0.019839883
90	0xbdc9698e	-0.09834586
91	0xbb471b20	-0.0030381158
92	0xbdd770fa	-0.105195954
93	0xbd6dfaea	-0.05810062
94	0xbe237885	-0.15963943
95	0xbdbf223f	-0.09332704
96	0xbd83d288	-0.0643664
97	0xbdacaf4d	-0.084318735
98	0xbdb4b5fe	-0.08823775
99	0x3d906aff	0.07051658
100	0xbd9b883a	-0.075943425
101	0xbe22a199	-0.15881957
102	0xbdddf9ad	-0.108386375
103	0xbd35af43	-0.044356596
104	0xbc9b291c	-0.0189405
105	0xbd7eabd2	-0.06217558
106	0xbc8d9f38	-0.017287835
107	0xbe060a08	-0.13089764
108	0xbde57f1a	-0.11205883
109	0x3da48ee5	0.080350675
110	0xbcf81ccc	-0.030287169
111	0xbcdb3fcc	-0.02676382
112	0xbcd6f598	-0.026240155
113	0x3d8d137d	0.06888483
114	0x3c583178	0.013195388
115	0xbce9cfdc	-0.028541498
116	0x3d57e85e	0.052711837
117	0xbd7480b7	-0.059693065
118	0xbda301bc	-0.07959315
119	0xbd0b9861	-0.034080867
120	0x3c15bb68	0.009138919
121	0x3d41cc46	0.04731395
122	0x3d71227a	0.05887077
123	0xbe1c8729	-0.15285935
124	0x3d78661e	0.06064426
125	0x3d7acffe	0.061233513
126	0x3d658b3e	0.056040995
127	0xbd394cb9	-0.045239184
128	0xbcc48563	-0.023989385
129	0x3d36ff12	0.044676848
130	0x3d050008	0.032470733
131	0xbd4e4308	-0.050356895
132	0xbdb34af7	-0.08754533
133	0xbcc698cd	-0.024242783
134	0x3c260de6	0.01013515
135	0xbdb6dc2b	-0.089287125
136	0x3dfa5ac3	0.12224343
137	0xbd1a24b0	-0.037632644
138	0xbde20507	-0.11036115
139	0xbd7ca2c9	-0.06167868
140	0xbe12a009	-0.14318861
141	0x3ca26a52	0.019826088
142	0xbe10adcf	-0.14128803
143	0xbdc7cb77	-0.09755605
144	0x3d003e1b	0.03130923
145	0x3cccac3f	0.024984477
146	0xbd8b8a15	-0.068134464
147	0xbda2618a	-0.0792876
148	0xbdd7a693	-0.105298184
149	0xbdf5575c	-0.11979553
150	0x3cab3b60	0.020902336
151	0xbcc66cab	-0.024221739
152	0xbdda4246	-0.10657172
153	0xbd97c92e	-0.07411419
154	0x3bcdba72	0.0062783295
155	0xbdd664fd	-0.10468481
156	0xbdbebc61	-0.09313274
157	0xbd2b3d18	-0.04180631
158	0xbd2fd151	-0.04292423
159	0xbd1b2351	-0.037875477
160	0xbdfd3423	-0.1236346
161	0xbd8318b5	-0.06401197
162	0xbdbae28c	-0.09125242
163	0xbbab7396	-0.005232285
164	0x3d7d45d8	0.061834186
165	0xbd9c9b3f	-0.07646798
166	0x3a45a880	0.0007540062
167	0x3d880c6a	0.06642993
168	0xbdc79c2c	-0.09746584
169	0xbdb47d3f	-0.08812951
170	0x3d094a58	0.033518165
171	0xbd346398	-0.044040293
172	0xbda66d4c	-0.081263155
173	0xbd7a4a3b	-0.061105948
174	0x3c0dfa62	0.008665653
175	0xbd8d7fbc	-0.06909129
176	0xbccbb805	-0.02486802
177	0x3bd24fa4	0.0064181853
178	0xbcd6acdf	-0.026205478
179	0xbdda5014	-0.10659805
180	0xbd0d01f7	-0.034425702
181	0x3cecfcb5	0.028929094
182	0xbcb1509b	-0.021644881
183	0x3ac0300e	0.0014662759
184	0xbc91b1f8	-0.017785057
185	0xbdbb145b	-0.09134742
186	0xbe15fb7c	-0.14646715
187	0xbe1b3265	-0.15155943
188	0xbde1664c	-0.1100584
189	0xbda777fa	-0.081771806
190	0x3bda14c9	0.00665531
191	0xbdd0dd8a	-0.10198505
192	0x3bba5440	0.005686313
193	0xbcf59e20	-0.029982626
194	0x3b2c4526	0.0026286333
195	0x3c1d4d60	0.009600967
196	0x3c848462	0.016176406
197	0x3df92e1f	0.12167
198	0xbd054c63	-0.03254355
199	0xbcc9acb4	-0.024618484
200	0x3d3c6c9c	0.046002015
201	0xbce563f0	-0.028001755
202	0xbd96ecfe	-0.073694214
203	0xbd9e9890	-0.07743943
204	0xbc3931e4	-0.011303399
205	0x3d066e1f	0.032819863
206	0xbdc9521a	-0.09830113
207	0xbe14e248	-0.14539444
208	0x3e03c9b3	0.12869911
209	0x3b86d94e	0.00411526
210	0x3d6ddf8a	0.05807451
211	0x3c5a95ca	0.013341377
212	0xbd94b5a5	-0.072612084
213	0xbc6674aa	-0.014065901
214	0xbd0c8083	-0.034302246
215	0xbdc13548	-0.09433991
216	0x3d077749	0.033072744
217	0xbcc63d12	-0.024199042
218	0x3ddddad3	0.10832753
219	0xbdbda575	-0.09260074
220	0xbd9efcaa	-0.077630356
221	0xbdb4aba5	-0.08821801
222	0xbcf2e4cf	-0.02965012
223	0xbdc0d3dc	-0.09415409
224	0xbe039a7b	-0.12851898
225	0xbe1c9588	-0.15291417
226	0xbccf7c03	-0.025327688
227	0x3bbfe3fd	0.0058560357
228	0x3be56796	0.007000874
229	0xbcf63674	-0.030055262
230	0xbdc99042	-0.09841968
231	0xbd490072	-0.04907269
232	0x3d9463e3	0.072456144
233	0xbd93103a	-0.07180829
234	0xbd70dc2e	-0.05880373
235	0xbded3242	-0.115818515
236	0x3c9c4dc9	0.01908006
237	0xbc38a0a0	-0.011268765
238	0xbe000295	-0.12500985
239	0xbda0c42d	-0.078499176
240	0xbdbaeae6	-0.091268346
241	0xbdfc7c37	-0.123283796
242	0xbdf3a4a7	-0.11896639
243	0xbdb1de68	-0.08684999
244	0xbda805d2	-0.08204235
245	0x38d191e2	9.9930694e-05
246	0x3cd3307c	0.025779955
247	0x3c224f2b	0.00990657
248	0xbe12ffa5	-0.14355333
249	0x3bb52187	0.0055276784
250	0x3c9571ed	0.0182428
251	0xbd3ef2ba	-0.0466182
252	0x3d5e7a60	0.054315925
253	0xbdb67d32	-0.08910598
254	0xbc51da7b	-0.012808437
255	0xbdb09320	-0.08621812

fc2.bias f4 [128]
0	0xbe4e9e33	-0.20177536
1	0xbd248455	-0.040165264
2	0xbe17dca6	-0.14830264
3	0xbd773994	-0.060357645
4	0xbcac6120	-0.021042407
5	0x3cb72624	0.022357054
6	0xbd18b370	-0.0372805
7	0xbda72d06	-0.081628844
8	0xbe0026a3	-0.12514739
9	0xbc435554	-0.011922199
10	0xbde2af45	-0.11068586
11	0xbe265cea	-0.16246381
12	0xbdd5e16a	-0.10443385
13	0xbd80e853	-0.06294312
14	0xbd914039	-0.070923276
15	0x3e08b172	0.1334894
16	0xbd8c333a	-0.06845708
17	0xbd8ecb34	-0.06972352
18	0xbd338f51	-0.04383785
19	0xbe3bacda	-0.18327656
20	0xbc12f392	-0.0089692045
21	0x3e5a1858	0.21298349
22	0x3d3c3877	0.045952287
23	0xbc730fad	-0.01483528
24	0xbde2da57	-0.11076801
25	0x3d85c00d	0.065307714
26	0x3e9ee537	0.31034252
27	0x3ea3c3e1	0.3198538
28	0x3e81d21f	0.25355622
29	0xbd9470ca	-0.07248075
30	0xbd816f5f	-0.063200705
31	0x3e9c27a3	0.3049899
32	0xbdc6b608	-0.097026885
33	0xbdf21aa0	-0.118214846
34	0x3e4df0d0	0.20111394
35	0xbdc3ad12	-0.09554495
36	0xbdf8d836	-0.12150614
37	0xbc397b54	-0.011320908
38	0xbe0ba72d	-0.13637991
39	0x3eb1f040	0.3475361
40	0xbc8b19ae	-0.016980018
41	0x3e473e52	0.19457367
42	0xbe0a4f5e	-0.13506839
43	0xbd1c825a	-0.03821025
44	0x3e0bfdbe	0.13671014
45	0x3d28d8bb	0.041222315
46	0xbd4bf435	-0.04979344
47	0x3e1e57c8	0.15463173
48	0xbd434633	-0.04767437
49	0x3e585505	0.21126182
50	0xbcb32744	-0.02186931
51	0x3e829aa3	0.25508603
52	0x3da88d48	0.08230072
53	0xbe91a13c	-0.28443325
54	0xbe591ab3	-0.21201591
55	0xbd783862	-0.060600646
56	0xbd5115bd	-0.051046122
57	0x3e3d9f1f	0.18517731
58	0xbcc54905	-0.02408267
59	0xbe0333e5	-0.12812765
60	0xbdc7655c	-0.0973613
61	0xbdfc5f93	-0.12322917
62	0x3e82e083	0.25561914
63	0x3ca7d9dc	0.020489626
64	0xbe0dc1d3	-0.1384347
65	0x3d33b459	0.043873165
66	0x3cec2c44	0.028829701
67	0x3c637e12	0.013885038
68	0x3c0c0f22	0.00854853
69	0x3d7240ff	0.059144016
70	0xbd465205	-0.048418064
71	0xbc1376af	-0.009000464
72	0x3cab3901	0.020901205
73	0xbd502ec7	-0.05082586
74	0xbc5ba5bc	-0.013406213
75	0x3e72a016	0.2369388
76	0x3ce00acf	0.027348904
77	0xbd4d262d	-0.050085235
78	0x3ea9c6cf	0.3315949
79	0xbdd243a9	-0.102668114
80	0xbcfd1dba	-0.030897964
81	0xbe417c3e	-0.18895051
82	0xbd813f0d	-0.06310854
83	0xbe5f7f20	-0.21825838
84	0xbdf3b241	-0.118992336
85	0xbddbbc12	-0.10729231
86	0x3ea00d2a	0.31260043
87	0x3c8cf496	0.017206471
88	0xbda8574f	-0.08219778
89	0x3d1d8e72	0.038465925
90	0xbd1a5d86	-0.037686847
91	0x3e725abc	0.23667425
92	0xbda489f6	-0.080341265
93	0x3ece6245	0.4030935
94	0xbd14419e	-0.03619539
95	0x3e0bf052	0.13665894
96	0xbdb54e92	-0.08852877
97	0xbe844611	-0.25834706
98	0x3d5b2c8a	0.053509273
99	0xbd5d40a6	-0.05401673
100	0xba88dc1c	-0.0010441574
101	0xbddbc3e1	-0.1073072
102	0xbd38d80d	-0.045127917
103	0x3ca467d4	0.02006904
104	0xbd7dd590	-0.061971247
105	0xbe6c2709	-0.23061766
106	0x3e87365e	0.26408666
107	0x3e6a3789	0.22872747
108	0xbdda8f92	-0.10671915
109	0x3eb557a5	0.3541843
110	0xbe134f46	-0.14385709
111	0xbd4f8c20	-0.050670743
112	0xbdeab298	-0.11459845
113	0xbdccf98c	-0.10008535
114	0xbd01c7c8	-0.031684667
115	0xbe59117a	-0.21198073
116	0x3d34784c	0.044060037
117	0xbd9b9234	-0.075962454
118	0xbe66b776	-0.22530922
119	0x3e4abe42	0.1979914
120	0x3e8a101d	0.26965418
121	0xbe40c248	-0.18824112
122	0xbe05f700	-0.13082504
123	0xbdab1ed5	-0.0835549
124	0x3d4808b8	0.04883644
125	0xbd04d527	-0.03242984
126	0x3beb44ee	0.007179848
127	0xbe073515	-0.13203843

fc3.weight f4 [3, 128]
0	0xbd97e432	-0.07416572
1	0x3d64e4cc	0.05588226
2	0x3a950958	0.0011370583
3	0x3c15a37a	0.009133214
4	0x3c45a448	0.0120630935
5	0x3c160747	0.0091570085
6	0x3db0b729	0.08628685
7	0xbce19ac6	-0.027539622
8	0x3bc6ad6e	0.006063155
9	0x3b1288ad	0.0022359297
10	0x3d836b45	0.064169444
11	0x3de7774f	0.11302053
12	0xbd45aaaf	-0.04825848
13	0x3c513d41	0.012770952
14	0x3e22ae1f	0.15886734
15	0xbdc5f028	-0.09664947
16	0x3df29657	0.11845081
17	0xbd907068	-0.0705269
18	0xbca4ad12	-0.020102058
19	0x3d75862f	0.05994242
20	0x3d0859fd	0.033288945
21	0xbd1747ce	-0.036933713
22	0x3c8c1671	0.017100545
23	0xbe5f6c82	-0.21818736
24	0x3d68edf9	0.056867573
25	0xbe3fb5c9	-0.1872169
26	0xbd80c426	-0.06287412
27	0xbdb9d7d7	-0.09074371
28	0xbe0b6702	-0.13613513
29	0x3c762b3c	0.015024956
30	0xbe0d19c7	-0.13779365
31	0x3d190a2e	0.037363224
32	0x3da21a75	0.079152025
33	0xbceebde2	-0.029143278
34	0xbd487493	-0.0489393
35	0x3e04b52f	0.12959741
36	0x3c90e9c5	0.017689595
37	0x3ccc42ff	0.02493429
38	0xbdbce3c5	-0.09223131
39	0x3d54237f	0.051791664
40	0x3de875b9	0.11350579
41	0xbdb60f81	-0.08889676
42	0xbc8f3669	-0.017482
43	0xbb953ff7	-0.0045547443
44	0xbdba3915	-0.09092919
45	0xbb702fd6	-0.0036649606
46	0x3cdaea9e	0.026723202
47	0xbc10d16b	-0.008838992
48	0x3d469b86	0.048488162
49	0xbcba7458	-0.022760555
50	0xbbe14866	-0.0068750856
51	0x3e175dac	0.14781827
52	0x3dc88d7d	0.09792612
53	0x3e6746a8	0.22585547
54	0x3e68361b	0.2267689
55	0xbc944080	-0.018097162
56	0x3cdaf75b	0.026729276
57	0x3caeb7ff	0.02132797
58	0xbb80de1e	-0.0039327284
59	0x3d312a33	0.043253135
60	0x3cbf3541	0.023340823
61	0xbdd1f4dd	-0.10251782
62	0xbda0b3d3	-0.07846799
63	0xbe198c00	-0.14994812
64	0x3dbc5941	0.09196711
65	0xbca9365b	-0.020655802
66	0xbd335b95	-0.04378851
67	0xbc8ed4f2	-0.017435525
68	0x3d2df507	0.042470004
69	0xbdd81f9b	-0.10552903
70	0xbd34d1fe	-0.044145577
71	0xbc15a0e4	-0.009132598
72	0x3d93905a	0.07205267
73	0x3da24cc1	0.07924796
74	0x3cd7f815	0.026363412
75	0x3e018635	0.12648852
76	0x3dbff6dc	0.093732566
77	0x3dd96b79	0.10616202
78	0xbe42fdd2	-0.19042137
79	0xbd728e01	-0.059217457
80	0xbd44ab22	-0.048014767
81	0x3da68851	0.08131469
82	0x3d3b1361	0.045672778
83	0x3e0fc221	0.14038898
84	0xbd620489	-0.055180106
85	0x3c319ef3	0.010841119
86	0x3d804e8c	0.062649816
87	0x3cdab323	0.026696747
88	0x3d86312f	0.0655235
89	0xbbf3ff23	-0.007446186
90	0x3d433043	0.047653448
91	0xbd9959cd	-0.07487831
92	0xbd03c58d	-0.03217082
93	0x3dfe6518	0.12421626
94	0x3cd25a0f	0.025677709
95	0x3d8a55bc	0.06754634
96	0xbd837ba6	-0.064200684
97	0x3c849ba7	0.016187502
98	0x3d523ad7	0.051325645
99	0xbca78683	-0.020449882
100	0xbbb6b436	-0.005575682
101	0x3decfc32	0.1157154
102	0xbd5c5848	-0.05379513
103	0x3da47384	0.08029845
104	0x3c9ae8cc	0.018909834
105	0xbd96d212	-0.073642865
106	0xbda2f380	-0.079566
107	0x3e09fe02	0.13475803
108	0xbc754bdf	-0.014971702
109	0x3ee24b6f	0.44198176
110	0xbd06b701	-0.03288937
111	0x3dde7880	0.10862827
112	0x3bd82ab1	0.006596886
113	0x3cfbe560	0.030749023
114	0x3d07de69	0.03317109
115	0xbe050b24	-0.12992531
116	0x3bd27684	0.0064228196
117	0x3d9759dc	0.07390186
118	0xbddf7f9a	-0.1091301
119	0xbe219cf6	-0.15782532
120	0xbe103c2e	-0.14085457
121	0x3d9ad143	0.07559445
122	0xbc5e8ce8	-0.013583399
123	0x3c02dd67	0.007987357
124	0x3ca6cdad	0.020361746
125	0xbcdeebcc	-0.027212046
126	0xbc27f317	-0.010250828
127	0x3da57ced	0.08080468
128	0x3e634b4c	0.22196692
129	0xbbbb0dbc	-0.0057084244
130	0x3d17ddc0	0.03707671
131	0x3994e763	0.00028401156
132	0xbd9c8fba	-0.07644601
133	0x3d1c7653	0.03819878
134	0x3c578ccf	0.01315613
135	0x3c0973a2	0.008389385
136	0xbddbf2ea	-0.107396916
137	0xbc49711c	-0.012295034
138	0xbe79fad6	-0.24412093
139	0xbe316393	-0.17323141
140	0xbe06960c	-0.13143176
141	0x3d2a2651	0.041540448
142	0x3e759804	0.2398377
143	0xbe8a3da0	-0.2700014
144	0xbcc434da	-0.023950983
145	0x3d9b2991	0.075762875
146	0xbd174390	-0.036929667
147	0xbdabe870	-0.08393943
148	0xbab0424c	-0.0013447492
149	0xbe543c7a	-0.20726195
150	0xbe2a1ed5	-0.16613324
151	0xbe12630a	-0.14295593
152	0x3d2577ef	0.04039758
153	0xbe2bb918	-0.16769826
154	0xbe9bc477	-0.30423328
155	0xbeb5a958	-0.35480762
156	0xbe8d8dab	-0.27647147
157	0x3d82cb35	0.06386415
158	0x3bb1e700	0.0054291487
159	0xbec4727d	-0.38368598
160	0x3c613bc1	0.013747157
161	0xbc9d92cb	-0.019235035
162	0xbea5eab9	-0.32405642
163	0x3c8f208c	0.017471574
164	0xbda3df89	-0.0800162
165	0xbd915f4a	-0.07098253
166	0x3c4a1cf0	0.012336001
167	0xbef2133f	-0.4728031
168	0x3d40e44e	0.04709273
169	0xbe85b8f5	-0.26117674
170	0xbd4fd414	-0.050739363
171	0xbda68275	-0.081303515
172	0xbe60d268	-0.21955264
173	0xbe0561d1	-0.13025595
174	0x3d1a413d	0.037659872
175	0xbe8023e7	-0.2502739
176	0xbcd2a12f	-0.025711624
177	0xbe8d78ac	-0.27631128
178	0xbdc3100d	-0.09524546
179	0xbebb5882	-0.36590964
180	0xbe827c19	-0.25485304
181	0xbe580075	-0.21093924
182	0xbe0ea63a	-0.13930598
183	0x3b9e5090	0.004831381
184	0xbdc35b92	-0.0953895
185	0xbeb5e36d	-0.35525075
186	0x3dc09122	0.09402682
187	0x3c024b90	0.007952586
188	0xbd1cf70f	-0.03832155
189	0xbcab03d9	-0.020875858
190	0xbe91b02b	-0.28454718
191	0xbe3b8cb3	-0.18315391
192	0x3cd70f1a	0.026252318
193	0xbdbddca9	-0.09270603
194	0xbd82bf55	-0.0638415
195	0xbdbfa751	-0.09358085
196	0xbd1c060c	-0.038091704
197	0xbe3c441d	-0.18385358
198	0xbddec668	-0.10877687
199	0xbd36329e	-0.044481866
200	0x3cb8aab6	0.022542339
201	0x3ae27a55	0.001727889
202	0x3d4d2bc5	0.05009057
203	0xbeeb7b28	-0.45992398
204	0xbca9e5d4	-0.020739473
205	0x3d93cd63	0.07216909
206	0xbeabcbde	-0.33553976
207	0xbd95ddc7	-0.07317691
208	0xbd1f19fc	-0.03884314
209	0xbd9a9756	-0.07548396
210	0xbc13dc41	-0.009024681
211	0xbdbc7271	-0.092015155
212	0xbc52d0e1	-0.012867183
213	0x3dbadb10	0.09123814
214	0xbed0d89c	-0.4079026
215	0xbcdb29cd	-0.02675333
216	0xbd257505	-0.0403948
217	0xbe3cf3cc	-0.18452376
218	0x3cb93358	0.02260749
219	0xbea70c70	-0.32626677
220	0xbc082c1b	-0.008311297
221	0xbebd7673	-0.37004432
222	0xbd69df0e	-0.057097487
223	0xbe3f4e71	-0.18682267
224	0x3e215678	0.15755641
225	0x3d012a41	0.031534437
226	0xbe3bf9b1	-0.18356968
227	0x3d8380aa	0.06421025
228	0x3d31e81e	0.043434255
229	0x3c858a3e	0.01630127
230	0xbe04f2e1	-0.12983276
231	0x3b8661ed	0.004101029
232	0xbd4c5716	-0.04988774
233	0x3d99fc3f	0.07518815
234	0xbe963974	-0.29340708
235	0xbea2b6d3	-0.3178011
236	0xbc984159	-0.018585848
237	0xbf0234c4	-0.50861764
238	0x3d9e8407	0.07740026
239	0xbd9f5276	-0.077794
240	0x3e0f5e37	0.14000784
241	0xbbc37551	-0.005964913
242	0xbdf25536	-0.11832659
243	0x3e0e55b6	0.13899884
244	0xbe222275	-0.15833457
245	0x3ab0fd1a	0.0013503165
246	0x3df1fb6e	0.118155345
247	0xbe9b6e29	-0.30357483
248	0xbe97d1ef	-0.29652354
249	0x3d9e0fdf	0.07717871
250	0xbcc1b5e0	-0.023646295
251	0x3a609ed2	0.0008568588
252	0xbdef20f5	-0.11676208
253	0x3dd00449	0.10157067
254	0x3d8bedf0	0.06832492
255	0xb991c4e9	-0.00027803265

fc3.bias f4 [3]
0	0x3db13ea0	0.08654523
1	0xbecedfcd	-0.4040512
2	0x3e54165c	0.20711654
