scripts/models/pg/reinforce_run_2.pth (torch, 76888 bytes, 6 tensors)

fc1.weight f4 [128, 12]
000000 de 17 c3 bd cb 98 90 be ee 16 7c be 68 86 85 3e
       -0.09526037 -0.28241572 -0.24618122 0.26079106
000010 32 3f 0a 3e 5e 49 11 bd 1f ff 1f be 9b c4 5d be
       0.1350067 -0.03547036 -0.15624665 -0.2165703
000020 73 04 ee bd 73 c8 25 be d1 61 83 be 7c d4 8b be
       -0.11621942 -0.16189747 -0.25660565 -0.2731055
000030 bd 96 68 bd 67 a1 e3 3d 91 e1 c8 3d 28 fb a3 3e
       -0.05678438 0.111147694 0.098086484 0.32027555
000040 9c 07 b5 bc f4 6a a3 3d 18 aa 8c 3e e9 81 e0 bd
       -0.022098355 0.07979384 0.2747352 -0.109622784
000050 90 1b 38 be 1c 3a 88 3c 11 e3 30 be 33 3d 33 bd
       -0.17979264 0.016629271 -0.17274119 -0.043759536
000060 64 c7 2d be 4b 21 35 3e 55 4f 22 be d3 03 22 be
       -0.16970593 0.17688482 -0.15850575 -0.15821771
000070 a2 43 5e bd 43 3e 9a 3e 3a 6c 9c 3d b6 92 7c 3e
       -0.05426372 0.30125627 0.0763783 0.24665341
000080 5a 0e 14 3d 3d 42 f0 bd b3 8c e9 bb 47 3a 95 bd
       0.0361465 -0.11731384 -0.0071273684 -0.07286506
000090 c0 07 41 be 29 56 34 3d e5 b9 64 bc 6f e7 df 3d
       -0.18850613 0.04402748 -0.013960336 0.10932814
0000a0 8b 55 07 3e 4c 96 a8 bd de e0 92 3d 00 83 5a be
       0.13216226 -0.08231792 0.07171796 -0.21339035
0000b0 e5 4e 20 be 30 89 e3 3d 29 af a0 bd 91 14 7f 3e
       -0.15655096 0.11110151 -0.07845909 0.24910189
0000c0 b7 42 10 bd 39 6f 44 3e a0 f9 d5 3d a4 40 4f be
       -0.035219874 0.19183053 0.10448003 -0.20239502
0000d0 7f 56 55 be 2f fd a5 be de 92 77 bd 4a 98 2d be
       -0.20833777 -0.32419726 -0.060442798 -0.16952625
0000e0 13 4a 88 3e 35 3e 8c 3e a7 b5 a5 3e 27 75 4b 3d
       0.26619014 0.2739121 0.32365152 0.049672272
0000f0 c3 a8 2e 3e bc f8 5d be 77 99 78 be 29 f6 27 3e
       0.17056565 -0.21676916 -0.24277292 0.16402496
000100 c8 d4 b2 3c 2a bb 7b 3e 49 a8 06 be 0b 58 f2 3d
       0.021829978 0.24583116 -0.13150133 0.11833199
000110 7b 70 90 bc 18 76 f1 3c 14 5e f0 3d d9 8d 49 3e
       -0.01763176 0.029475257 0.11736694 0.19683017
000120 90 ca eb 3c cb 2a 88 be a9 e4 05 3e 54 05 76 3e
       0.028783113 -0.26595148 0.13075508 0.2402547
000130 e0 59 1f 3c ae c9 3a be 4d 86 25 be 9b 07 81 3e
       0.009726018 -0.18240997 -0.16164513 0.25201115
000140 d3 dc 6c 3e 4a 5e 80 be 26 99 1a be f7 01 91 3e
       0.23131113 -0.25071937 -0.15097484 0.28321812
000150 9e ba 83 3e 86 78 76 bd 57 3b 35 3e 45 64 6a 3e
       0.25728315 -0.060173534 0.17698418 0.22889812
000160 93 71 6f be c3 64 ac be 74 a3 a7 3e 0c 34 85 be
       -0.23383169 -0.33670625 0.32741892 -0.2601627
000170 53 99 4f bd 2a 71 9c bd d6 ea 83 3d 97 77 57 be
       -0.05068333 -0.07638772 0.06441276 -0.21041714
000180 90 5d 03 3e 86 7b 14 be 48 fe 60 bd c9 6e 31 3e
       0.1282866 -0.14500245 -0.05493 0.17327417
000190 85 19 3f 3e 77 5e 90 3d b1 9a 1e 3c b6 3f b2 3d
       0.18662079 0.07049268 0.009680436 0.08703558
0001a0 27 36 5c 3e 39 4c 86 3d 62 76 96 3e 53 9b 9b 3e
       0.21505032 0.06557507 0.29387194 0.3039194
0001b0 59 4e d5 3d 6e e2 b6 bd e0 4e 7f be da a9 e5 3d
       0.10415334 -0.08929907 -0.24932432 0.11214037
0001c0 46 85 6d be 18 aa 09 bd 7d 1b ee bd 20 9a 11 be
       -0.23195371 -0.03360948 -0.11626337 -0.1421895
0001d0 3d a6 a0 3d c0 6d 8e 3e e2 6a 89 3e 42 d7 70 be
       0.078442074 0.27818108 0.26839358 -0.23519614
0001e0 31 8f 96 3e a4 11 df bd aa d1 64 3d 84 1f 85 be
       0.2940612 -0.108920366 0.055864014 -0.26000607
0001f0 41 9f 66 3d fc 17 00 be ed 32 5b 3e 12 56 0e 3e
       0.05630422 -0.1250915 0.21406145 0.1390002
000200 84 3f 84 be db 45 39 3d 1b 73 60 3e e1 8e 3b be
       -0.2582971 0.045232635 0.21918909 -0.18316223
000210 0d 2b 83 3e e6 5d 84 3d 34 95 9e 3e 84 86 d6 3d
       0.25618783 0.06463222 0.30973208 0.104748756
000220 d7 f3 3e be 88 08 0b bd 90 be 16 3e c7 60 3b be
       -0.18647705 -0.033943683 0.14721131 -0.18298636
000230 71 58 9a 3e 7c ae 84 3d 01 b3 80 3e dd e8 90 3e
       0.301456 0.06478593 0.2513657 0.2830266
000240 84 9b bc 3d 7c f2 8d 3b 7a 36 83 3e ac 3b d2 bd
       0.0920935 0.004331885 0.256275 -0.10265288
000250 01 11 19 3e c7 b1 2b be 87 91 af 3d de 52 e0 bd
       0.14947893 -0.16767035 0.08572679 -0.10953306
000260 1f 28 79 be d8 04 88 3e 8c b9 86 be 74 f0 65 be
       -0.24331711 0.26566195 -0.26313436 -0.22455007
000270 b7 3d 86 3e 6c bf 8d 3e 1d 74 2f 3e 28 0e 6d bd
       0.2621896 0.27685106 0.17134137 -0.05787483
000280 c2 cb 99 3d 4f 4d d4 bd b3 e2 37 be 7b 9c ff bd
       0.07509567 -0.10366308 -0.17957573 -0.12481018
000290 01 09 58 3e be 1b f5 bd 4d 12 55 3d e0 b3 29 bd
       0.21097185 -0.11968182 0.052019406 -0.041431308
0002a0 bf 10 b3 3c 82 c2 1a 3e 2e 25 67 3e bf d7 31 3e
       0.021858571 0.15113261 0.22572777 0.17367457
0002b0 0a 2a 56 3e 69 cd b0 3e 7d 46 4a be 3b 8d 13 3e
       0.20914474 0.34531716 -0.19753452 0.14409344
0002c0 ca 1a 77 be 72 6c 28 3e 64 91 6e be fc c7 69 3d
       -0.24131313 0.16447619 -0.2329765 0.057075486
0002d0 ab 1e 52 3e 07 37 2d 3e e9 32 54 bd 48 d5 73 3e
       0.20519511 0.16915523 -0.051806364 0.23811829
0002e0 d0 9d fd bc be cf 17 3e aa c2 79 be 3b ce ce 3e
       -0.03095904 0.14825341 -0.24390665 0.40391716
0002f0 65 5e 82 be b2 87 f6 3d 67 29 07 3e 54 f0 1a be
       -0.25462642 0.120376006 0.13199387 -0.1513074
000300 04 c6 26 bd fc dc 15 3e d1 3b 02 3e 88 39 76 3e
       -0.040716186 0.1463508 0.1271813 0.24045384
000310 fe f3 82 3b 58 74 83 be 12 85 bf bc ec 34 91 be
       0.0039963713 -0.256747 -0.023378883 -0.2836069
000320 72 27 6d 3e 50 fe 4c 3e 6a a7 36 3d ab e3 ba bd
       0.23159578 0.20018888 0.044593252 -0.091254555
000330 19 a5 8e be 83 59 5e 3e f8 8c 3a 3e d5 96 0c be
       -0.27860335 0.21713834 0.18217838 -0.13729413
000340 f5 76 8a be c2 79 87 3c b9 63 7b 3e 5e 7e bf 3e
       -0.27043882 0.01653755 0.2454976 0.37401098
000350 88 98 48 be e6 56 0f be 1f c9 13 be da d8 15 3d
       -0.19589436 -0.13997993 -0.1443219 0.03658376
000360 fd 95 78 3d 37 24 37 3e 0a 8e 68 be 68 3f 88 3e
       0.060689915 0.17884909 -0.22710434 0.26610875
000370 7e 2e d9 3d 8e a5 c2 3e 7d 19 21 be 65 1b 32 3e
       0.10604571 0.38016933 -0.1573238 0.17393263
000380 e7 d1 92 3e f3 df f0 3d 72 7a c3 3b 90 11 65 be
       0.28675768 0.11761465 0.0059655244 -0.22369981
000390 fa 27 71 be fd d1 cd 3d 92 df ab bd ed c7 46 3e
       -0.23550406 0.10049818 -0.08392252 0.19412203
0003a0 22 7f 83 3e 51 87 87 be 53 da 05 be 8d 2f 8c 3a
       0.25682932 -0.26470426 -0.13071565 0.0010695324
0003b0 5f 8b 02 3e f5 73 49 3c 22 34 1a be 3c 8e 06 3e
       0.12748478 0.012295713 -0.1505895 0.13140196
0003c0 a8 8d 92 3e ec 92 30 3e ef f6 19 be 4e db 69 3e
       0.286237 0.17243546 -0.15035604 0.22837564
0003d0 2d 2c 3a be 93 bb 57 be 94 c1 33 3a d9 e7 77 be
       -0.18180914 -0.21067648 0.00068571535 -0.24209537
0003e0 e9 52 90 3c 86 c4 16 bd 67 40 73 3d ea 98 84 3e
       0.01761766 -0.036808513 0.05938759 0.25897914
0003f0 3f 26 a1 3e 7b 57 5a 3c 20 8a 13 3e 2b 01 94 be
       0.31474492 0.013326521 0.1440816 -0.2890714

fc1.bias f4 [128]
000000 d0 20 ad bd c5 d0 90 3c 84 22 04 3e 44 34 9f be
       -0.08453524 0.017677674 0.12903792 -0.31094563
000010 ae 6b c5 3d 71 d1 7c be 90 c1 7c be 42 0a a0 3e
       0.09639679 -0.2468927 -0.24683213 0.31257826
000020 58 73 6b be 8f 52 96 be ac 57 15 bd f3 c8 14 3e
       -0.22993219 -0.29359862 -0.036460564 0.14529781
000030 da 79 3b 3d 8a da 9b bd 4c 0a c2 3d ea 33 8f bd
       0.045770504 -0.076100424 0.0947462 -0.06992324
000040 77 20 65 3e a8 e5 3e be b8 5c 5a be ce 53 91 3e
       0.22375666 -0.18642294 -0.21324432 0.2838425
000050 f2 34 93 3d fc 99 60 3d f5 57 0f be 29 2e 9d 3e
       0.07187833 0.05483435 -0.13998397 0.3069928
000060 ad 0a a5 3e 7e 81 89 be 86 3a 8f 3b 84 93 2e 3e
       0.32234707 -0.26856607 0.00437099 0.1704846
000070 53 e1 e2 bd 11 2c 2c 3e 42 ae 92 3e 12 c8 b0 3e
       -0.110781334 0.16813685 0.28648573 0.34527642
000080 ec dc 85 3d 00 5b 83 3d 3b ff b7 bd 63 6a ab 3e
       0.06536278 0.06413841 -0.08984228 0.33479604
000090 29 a6 56 bc ad b8 a3 bd b3 0e ea bc 91 7a 78 be
       -0.013101139 -0.079942085 -0.028571462 -0.24265505
0000a0 36 38 8b be 43 e4 a7 3d 05 a1 11 bc 51 3d 2c 3e
       -0.27191323 0.08197834 -0.008888488 0.16820265
0000b0 10 02 40 3e 22 6e 67 be 89 52 e4 3c e6 8d 26 be
       0.18750787 -0.22600606 0.027871387 -0.16265067
0000c0 97 7f c3 3d af d8 a2 3d 9d 33 2b be 08 51 93 bd
       0.0954582 0.07951485 -0.16718908 -0.0719319
0000d0 aa f4 83 be e5 f4 35 3e 30 11 3a be 69 ab 25 3e
       -0.257726 0.17769201 -0.18170619 0.16178669
0000e0 99 60 de bd bf e7 12 bd 0a b1 70 3e 36 5c 3c be
       -0.10858268 -0.03586554 0.23505035 -0.1839455
0000f0 09 29 84 3e 47 37 bf 3d 79 c9 20 be 07 9e 95 bd
       0.25812557 0.09336715 -0.15701856 -0.07305532
000100 e9 c4 87 3e e6 7b 4c be ee 88 e6 bd 1d 36 81 be
       0.26517418 -0.19969139 -0.11256586 -0.25236598
000110 1a 79 a8 3d ee af a9 bd 35 fe 36 be a9 f4 62 be
       0.08226223 -0.08285509 -0.1787041 -0.22163643
000120 3a 2c 4f be fa 5d 23 3e 9c e0 d3 3b 1e 4d 55 be
       -0.20231715 0.15953818 0.0064659845 -0.20830199
000130 63 80 80 bd 82 d9 98 bd 01 ea 8b 3e af 43 9a 3e
       -0.06274488 -0.07463361 0.27326968 0.30129763
000140 66 f2 9e 3e 7f 4b 0d be fc 12 b8 3e 08 fb 6c be
       0.3104431 -0.1379833 0.35951984 -0.23142636
000150 76 88 12 3e a1 82 c9 bd 87 0c 93 bd 63 6e 50 3d
       0.14309868 -0.098393686 -0.07180124 0.050886523
000160 b1 10 5b be 26 44 49 3e 23 d7 9f 3e bb ed 36 bd
       -0.21393086 0.19654903 0.31218824 -0.04466031
000170 44 1a 8c be b5 67 04 3d b8 fa 65 be d2 d1 89 3e
       -0.2736379 0.032325465 -0.22458923 0.26917893
000180 b6 f1 9c bc 05 0b a4 3c a0 02 fd bb 6b e8 61 3e
       -0.019158226 0.020024786 -0.00772126 0.22061317
000190 47 13 16 be 1c 70 3a be dc 28 ae ba 73 be 3c 3e
       -0.14655791 -0.18206829 -0.0013287324 0.18432026
0001a0 af de 42 be e0 54 93 bd 8a ef 84 3e b1 55 15 bd
       -0.1903026 -0.07193923 0.25964004 -0.036458675
0001b0 22 46 7e 3e 28 38 93 3d 22 81 4d 3e 2a 93 59 3e
       0.24831441 0.07188445 0.20068792 0.21247545
0001c0 8c 9e 6f 3e c4 2a 29 be 9b d9 d8 3d 3f ac b1 3d
       0.23400325 -0.1652022 0.1058838 0.086754315
0001d0 67 aa 8b be a7 98 b5 3d 73 f5 2b bc 5f ec 9f 3e
       -0.27278444 0.08867007 -0.010495531 0.31235024
0001e0 63 9a 83 bc 68 65 98 be 98 12 63 be f5 23 a1 3e
       -0.016064828 -0.29764867 -0.22175062 0.31472746
0001f0 e1 17 16 be 90 ff 1c 3e e9 42 2a 3e ad 37 f2 bd
       -0.14657547 0.15331864 0.16627087 -0.118270256

fc2.weight f4 [128, 128]
000000 bd 3a 90 bd b1 bd 13 3d c9 4f 0e 3d a3 3d 84 bd
       -0.070424534 0.036069576 0.034744058 -0.06457069
000010 3b 89 cc bd 7e 73 66 3d bb 36 7a bd aa e8 88 bd
       -0.09987112 0.056262486 -0.06108735 -0.06685002
000020 a5 ab bf 3d 22 00 8b 3d 61 5d 62 bd 3b 7f af bd
       0.093589105 0.06787135 -0.055264834 -0.08569189
000030 08 e7 7e 3d d8 52 a9 bc d5 60 49 3d a1 92 89 3d
       0.062232047 -0.020669386 0.04916461 0.0671742
000040 57 19 94 bb 2b 45 db 3d 18 a0 20 3e ed 9a a4 bd
       -0.0045196223 0.10706552 0.15686071 -0.08037362
000050 9e d9 0c be f4 87 d2 bc ac 3e 8c 3c ab d0 62 bc
       -0.1375489 -0.025699593 0.017119728 -0.013843696
000060 78 fb 9c 3d 03 0a 23 bc 22 f8 52 3c c7 37 a2 3d
       0.07665151 -0.009951117 0.012876542 0.07920795
000070 af 81 4e 3d 27 ca 73 bc a0 df 85 3d 01 04 b1 3c
       0.050416645 -0.01487974 0.06536794 0.021608355
000080 26 61 06 3e f8 86 40 bd 1e b0 10 bc e4 d7 d6 3c
       0.13122997 -0.047003716 -0.008831052 0.026225992
000090 1f 15 7d 3d 48 e1 c3 bd 69 a4 1c 3d b8 ed 53 bd
       0.06178772 -0.09564453 0.03824273 -0.05174038
0000a0 d1 94 91 3d 17 66 64 bc 0a c9 54 3d df 26 85 bd
       0.071084626 -0.013940356 0.05194954 -0.06501555
0000b0 97 1e e9 bb db 2b a8 3d a8 0e 8d bc 9d ad b9 3d
       -0.0071142423 0.0821149 -0.017218903 0.09066317
0000c0 b9 fe 04 bd 36 34 08 3d 79 cf 13 3d 7c 7b c6 3b
       -0.032469485 0.033252917 0.036086533 0.006057201
0000d0 b5 8a 8e bd d1 91 9c 3d ef 9c 84 38 a8 59 8d 3d
       -0.0696005 0.07645 6.323482e-05 0.06901866
0000e0 35 a6 0e 3b ff 53 bf 3d b3 a7 be 3d c5 f6 56 bd
       0.0021766548 0.09342193 0.0930933 -0.05248143
0000f0 12 34 12 bc 61 80 89 3d b4 dc bd 3d f9 26 5b bd
       -0.008923547 0.067139395 0.092706114 -0.053503964
000100 13 4b 05 bd 3e 66 a4 3d 15 82 95 bd c2 49 58 3d
       -0.0325423 0.08027314 -0.07300202 0.052804716
000110 a9 40 06 be 39 a1 6e 3c 9b 4f 17 bd 61 ae c8 3c
       -0.13110603 0.014564806 -0.036941152 0.024497213
000120 73 3b 0f bd 65 0e 3a bd f1 53 95 3d e1 ea 31 3e
       -0.034968805 -0.045423884 0.07291401 0.17374755
000130 78 f1 9c 3b c3 93 87 bc 6a e1 b9 3d 2f b1 8d 3c
       0.0047895275 -0.01654995 0.090761974 0.017296402
000140 0b 18 48 3d 64 d1 b2 3d 27 1e a4 3c 71 42 dc bc
       0.048851054 0.08731344 0.020033909 -0.02688715
000150 a2 c6 c2 bc 7e 52 e1 3a 81 22 62 bd b6 19 b0 bc
       -0.023776356 0.0017190722 -0.055208687 -0.021496635
000160 23 a4 ea bc af d3 39 3d b6 e9 54 bc a0 74 d6 3d
       -0.02864272 0.045367893 -0.012995174 0.10471463
000170 29 97 04 3e fb 4c ec bc 78 56 cf 3d e8 17 2d 3d
       0.12948288 -0.0288453 0.101239145 0.042259127
000180 6d df 4f 3e b0 37 69 bd 76 b6 a8 bd 3a 56 b3 bc
       0.20300074 -0.056937873 -0.08237927 -0.021891702
000190 12 b1 5a 3d 5c 66 af 3c db 47 d7 3d 85 bb a1 bd
       0.053391524 0.021411113 0.10511752 -0.07897095
0001a0 cd 76 22 3d ef de 30 3d 93 a9 ac bd 83 fb 80 3d
       0.03966408 0.043181356 -0.08430781 0.06297972
0001b0 9a 13 da bc 44 77 e8 3c 54 38 16 bd 6a 25 02 3d
       -0.026620675 0.028377183 -0.036674812 0.031773962
0001c0 22 9a a4 3b 94 88 ed bc 9f ad cc bd 70 97 00 bd
       0.005023257 -0.02899579 -0.09994053 -0.031394422
0001d0 b8 65 98 3d f3 eb 9b 3c b7 f5 c7 3d 1b f8 52 bd
       0.07441276 0.019033408 0.09763663 -0.051506143
0001e0 53 ae ad 3d 06 ae 9b 3c 6b 94 46 bb 92 4f e8 3c
       0.08480515 0.01900388 -0.0030300866 0.028358255
0001f0 5b d9 c5 bd 08 1d ae 3d e8 79 e7 3c 71 45 94 3b
       -0.09660598 0.08501631 0.028256372 0.0045248796
000200 5e de 7f 3d 99 20 5f 3c 80 2a c9 bb 12 50 44 bd
       0.062467925 0.013618612 -0.0061390996 -0.047927924
000210 be 42 85 3d c1 74 94 3d 2c d1 82 bc df 62 a8 3c
       0.06506871 0.072488315 -0.015968882 0.020554958
000220 98 e5 a7 3c b8 e2 59 3c 8d 43 87 3d 74 b5 95 3d
       0.020495221 0.013298683 0.06604681 0.0731
000230 c8 a0 4f 3d a8 fd 94 3c c0 47 ae bd 40 25 1d 3c
       0.050690442 0.018187359 -0.08509779 0.009591401
000240 3d 9d 08 bc 78 b5 fa 3c 08 c3 da 3c b2 c6 65 3d
       -0.00833827 0.03060411 0.026704326 0.056097694
000250 5d be 1e bc b6 bf c4 bd f1 72 98 bd 21 ad a9 3c
       -0.009688941 -0.096068785 -0.07443798 0.020712437
000260 94 fc 47 3d 0a a1 76 3d 0e 82 86 bc 24 bc 46 bd
       0.04882486 0.060212173 -0.016419437 -0.04851927
000270 6f 21 00 bd 66 a7 1b bd 94 a6 a3 bd 1f 6a 9b bd
       -0.031281885 -0.03800144 -0.07990757 -0.075886
000280 38 e8 00 3d b3 69 86 3d 55 cf 1e 3c a0 48 45 bb
       0.03147146 0.06563129 0.0096929865 -0.0030103102
000290 df 38 b4 bd ad 43 23 bc dd e9 a9 3c 8c 62 a1 3c
       -0.0879991 -0.009964866 0.020741398 0.019700311
0002a0 90 98 42 bc 92 c6 05 bd cc 31 9a 3c 3e 9f cb 3c
       -0.011877194 -0.032660075 0.018822573 0.024856206
0002b0 36 89 7d bd b6 f5 23 3d 40 ae 04 bd 57 74 8e bd
       -0.061898433 0.04002925 -0.03239274 -0.06955784
0002c0 3c df 3e 3d 42 b7 3d 3d 88 ec 88 bd 92 8d 19 3d
       0.04659961 0.046317346 -0.0668574 0.037488528
0002d0 e4 c0 79 bd c4 8c d5 bc 6c 02 d1 3c 3a 68 03 bc
       -0.06097497 -0.026068099 0.02551385 -0.008020455
0002e0 e8 0d 0b bc c0 08 05 bc 7c 96 24 3c 26 ee 26 3d
       -0.008487202 -0.008119762 0.010045644 0.04075446
0002f0 7c 1d 8a bd c8 9c 0a bd 18 7e 87 bd 1c af 0b bd
       -0.06743905 -0.033840925 -0.06615847 -0.034102544
000300 80 92 e7 bc 00 00 1a bd 1a a6 8b bd 56 fc 0b 3d
       -0.028268099 -0.037597656 -0.06818791 0.034176193
000310 bc 7b c0 bd 89 d2 88 3d 88 e8 0c 3d c0 bd 0a bc
       -0.093986005 0.066807814 0.034401447 -0.0084680915
000320 c0 d5 fe ba 9f 64 54 3c f5 bb 26 bd b8 de e2 3c
       -0.0019442365 0.012963443 -0.040706594 0.027694091
000330 59 c0 77 bb 11 e9 33 bd 97 27 70 bc 58 4c ae bd
       -0.0037803857 -0.04392344 -0.014657876 -0.08510655
000340 f5 33 6b bd ea af 41 3d 42 07 92 bd 55 cc 0c 3d
       -0.057422597 0.047286905 -0.071302906 0.034374554
000350 b2 42 97 bd 99 05 4b bd 91 6f 96 3d b7 83 62 bd
       -0.07385768 -0.049565885 0.07345498 -0.055301394
000360 a7 83 48 bd 90 8e 2f 3c 2b b9 f6 3b 8f bc 32 bd
       -0.04895368 0.010715142 0.007529398 -0.043636855
000370 78 fa 98 3d 56 c8 6e bd 9a 1d 2f 3d 81 5a 11 bd
       0.07469648 -0.058296524 0.04275284 -0.035486702
000380 30 2b c9 bc 48 d5 2f bc 5e 2c 4d bd cb cf b2 3c
       -0.024556726 -0.010732003 -0.05009114 0.021827599
000390 40 09 05 3b 8c 39 9e bd 66 1b ec bc 16 96 9a 3d
       0.0020299703 -0.0772582 -0.028821658 0.07548158
0003a0 bb 16 a8 3d c4 ac f6 3c ea 6b 18 bc d4 bd 04 3d
       0.082074605 0.030111678 -0.0093030725 0.032407597
0003b0 a8 b6 21 3c 90 0c a5 bd b9 68 80 bd af 8e 90 bc
       0.009870209 -0.08059037 -0.06269974 -0.017646162
0003c0 9f 4b f5 bc 55 5d b3 3d 8b 8c 17 3d ea 53 bc bd
       -0.029943286 0.08758036 0.036999267 -0.09195693
0003d0 20 ce 00 3b 30 4a c2 bd 3b 38 38 bd 2b f3 3a 3d
       0.001965411 -0.094868064 -0.0449755 0.04564206
0003e0 83 f4 31 bd 9e 55 86 bd a4 83 b0 3c 80 59 14 3c
       -0.043446075 -0.06559299 0.021547146 0.009054542
0003f0 21 53 99 bc e8 29 8f bc 6d 82 54 3d c7 72 9d 3d
       -0.018716397 -0.017476037 0.051882196 0.07687908

fc2.bias f4 [128]
000000 4e ef 21 bc c3 4e 0e bd 8c 8a 9f 3d c5 ad 4e 3d
       -0.009883715 -0.03474308 0.077900976 0.05045869
000010 08 f3 2d 3d 09 0a 2e bd cf cd af bd 06 8c 8e 3c
       0.0424681 -0.04249004 -0.08584177 0.017400753
000020 08 36 42 3d 8d a8 6d bd 02 a1 48 3d 82 ee ab bc
       0.04741481 -0.05802207 0.048981674 -0.020987753
000030 b8 94 ed 3b c5 13 46 3d 45 c5 a4 3d e6 6a 8d bd
       0.0072503947 0.048358697 0.08045439 -0.06905155
000040 da c5 69 3d d6 f1 82 3d 67 45 82 bd 61 9c 5f 3d
       0.05707345 0.06393783 -0.06360894 0.054592494
000050 5f 8c 6b bd 0c 53 10 3d 0d 04 5e bd 65 c7 44 3d
       -0.057506915 0.03523545 -0.054203082 0.04804172
000060 44 8f 5d bc 5f d8 fb bc 8c 72 eb bb 6c 8c 59 3d
       -0.013522927 -0.030742822 -0.007185286 0.053112432
000070 96 6e 70 3b ba 9b 3e 3c 02 9d 57 bb ba 21 e5 3d
       0.0036687008 0.011633808 -0.003289998 0.111880735
000080 aa 9b a2 bd 5b 47 a3 bd b0 c2 83 3c e9 72 b9 3d
       -0.07939847 -0.07972594 0.016084045 0.090551205
000090 3d 56 fa 3c 7e a4 8a 3d 72 d3 9a 3d 63 1d 93 bd
       0.0305587 0.06769656 0.07559861 -0.071833394
0000a0 56 e2 28 bd d0 b7 a8 bd de 25 87 bd a8 2a a1 bb
       -0.041231476 -0.082381845 -0.065990195 -0.004918415
0000b0 2b 83 4e 3d 9a 66 f1 3c 9c 96 fc 3b 5b 32 cc 3c
       0.05041806 0.02946787 0.0077083837 0.024926355
0000c0 89 43 8d 3d c0 41 e2 bc 03 21 37 3b 0f f4 f3 3d
       0.06897647 -0.027619243 0.002794326 0.11911785
0000d0 a8 8d 20 bc c2 42 db 3d f9 58 64 3c 84 d5 8b 3d
       -0.0097993985 0.107060924 0.013937228 0.06827834
0000e0 da 66 4a bd 8f c8 c6 3c a1 31 5c 3d 98 ff 14 bc
       -0.049414493 0.024265556 0.053758267 -0.009094141
0000f0 f4 21 25 3b 44 34 e0 3b 1e d9 ad 3d 67 8b a9 3c
       0.002519724 0.006842168 0.084886774 0.020696355
000100 3d 38 22 bd dd 66 3f bd 08 a9 0b bc d5 39 0c 3e
       -0.039604414 -0.046728957 -0.008524187 0.13693936
000110 88 e4 98 bd dc 91 a0 3d 72 8a e3 3c 1a db 83 3d
       -0.07465464 0.078403205 0.027775977 0.06438275
000120 de 13 99 3d e3 e0 0b 3d aa 1b 2c bd 51 72 73 3d
       0.074744925 0.034150016 -0.04201857 0.059435192
000130 ae 21 86 3d 57 66 39 3d f6 bb b4 ba 74 a9 88 3d
       0.06549393 0.045263615 -0.0013788927 0.066729456
000140 2d 93 ce 3d 00 1d 8c bc 90 d5 a3 3c 78 e5 81 bd
       0.10086665 -0.017103672 0.019999295 -0.06342596
000150 bf bd 6e bd 82 ea 94 bc 81 e1 50 3c 18 32 b4 bd
       -0.058286425 -0.018178228 0.012749077 -0.08798617
000160 fb e5 2a 3b 57 a7 46 bd 60 2c d0 bb 68 49 1d 3d
       0.002607702 -0.04849943 -0.006352946 0.038400084
000170 40 f4 db 3b 4b 78 ab bd ca 84 44 3d ec 52 51 bd
       0.0067124665 -0.083725534 0.0479782 -0.05110447
000180 f4 49 f3 bc 6b 08 1a 3d 43 53 84 bd 7d 52 de 3d
       -0.02969835 0.037605684 -0.064611934 0.10855577
000190 4c 08 3b 3d 1b 1d 46 3b 55 79 94 bd 4d 8a 73 bc
       0.04566221 0.003022975 -0.07249705 -0.014864516
0001a0 59 51 a1 bd ec 10 c2 3c f0 18 ec 3b e4 ae 09 bd
       -0.07876844 0.02368971 0.007205121 -0.033614054
0001b0 d9 35 09 bc 03 bd 9f bd 97 be 05 3e b9 d0 bc bd
       -0.008374655 -0.07799723 0.13060986 -0.09219498
0001c0 7c 67 4f 3d 0e 1e 3e 3c 8b 92 73 bd 03 f1 87 3d
       0.0506358 0.011603845 -0.059465926 0.06637766
0001d0 72 25 08 3d 0a 2d 9c 3d ca 70 84 3d ec 9c 34 bd
       0.033238836 0.07625778 0.06466825 -0.044094965
0001e0 64 7e 17 3c 5f 70 88 3d fc da 0e 3e 93 73 04 3e
       0.0092464425 0.06662058 0.13950723 0.12934713
0001f0 f2 54 41 3d 48 16 d3 ba 72 8f ed bc b0 a8 fb 3b
       0.04720015 -0.0016104663 -0.028999064 0.007680021

fc3.weight f4 [3, 128]
000000 88 f7 75 bd 34 3c a3 bc 36 81 fb 3d 84 2a c9 bc
       -0.060050517 -0.019926168 0.122805044 -0.024556406
000010 c5 72 a5 3d 43 f3 a6 bd 7f 54 04 be 97 b5 16 3d
       0.08078531 -0.08151867 -0.12922858 0.03679427
000020 7e 3f 2a 3d cc 9b 14 be d8 8c 53 bd f0 f7 a6 bc
       0.041564457 -0.14512557 -0.05164799 -0.020381898
000030 9e b4 32 be c0 a6 1b be 01 76 2c bd eb 6d 6f bd
       -0.17451712 -0.15200329 -0.042104725 -0.058454435
000040 0b a8 46 bd ab e8 b5 3d 50 9e 5b be a6 b8 c1 3d
       -0.048500102 0.088822685 -0.2144711 0.09459047
000050 a5 03 f5 bd 4f cc 06 bd 00 cd c6 3c 83 9b fa bc
       -0.11963586 -0.032909688 0.024267673 -0.030591732
000060 68 bb 80 3d a8 68 71 3d 28 87 70 bd a8 f3 d2 3d
       0.06285745 0.0589377 -0.058722645 0.1030038
000070 62 10 24 3d d2 11 12 3e 0a 48 26 3e ca b6 ce 3d
       0.040054686 0.1426461 0.16238418 0.10093458
000080 b8 f4 67 3c 61 75 a7 3b b8 1f 7b 3b df 18 1e 3e
       0.014157467 0.005110428 0.0038318466 0.15439175
000090 89 37 b6 3c ae 4e 9e bd 58 c4 db bb aa 16 3e 3d
       0.022243278 -0.07729851 -0.0067067556 0.046408333
0000a0 83 31 00 be d7 9c af bd d9 42 80 3d 96 59 2a be
       -0.12518887 -0.08574837 0.0626275 -0.16635737
0000b0 c7 d1 3a 3d a3 14 27 be 78 f4 3d be 93 b2 28 3d
       0.045610216 -0.16316466 -0.18550289 0.041185927
0000c0 13 f1 5f 3d 9f 01 23 3d 68 31 a2 bd 0b ed de 3d
       0.054673266 0.039796468 -0.0791958 0.10885056
0000d0 a0 a3 30 3d 82 e1 15 3d c5 19 93 3d de 7b ed 3d
       0.043124795 0.036592014 0.071826495 0.115958914
0000e0 78 05 7d bd 25 d1 52 bd 0b 74 f9 bd a7 be 28 be
       -0.061772794 -0.051468987 -0.121803366 -0.16478978
0000f0 8a 86 9c 3d dd 3c ad bc c2 54 df bd b4 6b ae 3d
       0.07642849 -0.021147186 -0.10904838 0.085166365
000100 6a 40 c6 3c 24 2d 90 bd 9d 1c fe 3d 29 50 e6 3d
       0.024200637 -0.0703986 0.12407801 0.11245758
000110 4c 6d e6 bd c4 fb 2b bd b2 98 c6 3d f4 a6 02 3e
       -0.112513155 -0.04198815 0.09697093 0.12759
000120 e3 4d 34 be a7 d1 e9 3d 77 64 db bd d4 f8 d6 3a
       -0.17607836 0.11416941 -0.107125215 0.0016401061
000130 ae 64 4d 3d 20 22 81 3d 4e 27 62 3d f8 5e 50 3d
       0.050144844 0.06305337 0.055213265 0.05087182
000140 dd 5a 6f 3d dd 64 8e bc 63 2b 15 be 09 2e ab bd
       0.058436263 -0.01738208 -0.14567332 -0.0835839
000150 4d 38 90 bd 0d 98 3b bd 19 de 4b bc eb 43 9f 3d
       -0.070419885 -0.045799304 -0.012443089 0.07776626
000160 61 1b 9e bd bd f1 c2 3c 72 2f 56 3c 84 5f 1a 3e
       -0.07720066 0.02379691 0.013072835 0.15075499
000170 80 a0 b4 3c a2 40 38 bd 2e 21 9f 3d d7 c7 96 bd
       0.022049189 -0.044983514 0.077700004 -0.07362335
000180 73 eb 10 3d 8f 8e ce 3d f4 34 31 bd 5a 94 3c 3c
       0.035380792 0.10085785 -0.04326339 0.011509979
000190 57 7c 3d 3d 4e cd 18 bb cc b1 08 be 65 ec 3d 3e
       0.046261158 -0.002331573 -0.13349074 0.18547209
0001a0 6d 6d 8a 3d e1 da b5 bd b3 f7 8d 3c e0 f5 e6 3c
       0.067591526 -0.088796385 0.017330026 0.028193414
0001b0 6c b0 8d 3d f7 e7 ba 3b fb 56 ff 3d 59 3e 36 be
       0.069184154 0.005703922 0.12467762 -0.17797221
0001c0 fa 56 69 bd a4 9a 80 bd b9 25 e3 bc 39 ee 21 bd
       -0.056967713 -0.06279495 -0.027727949 -0.039533827
0001d0 df a0 68 3d 9d 0a 8b bb c8 f4 8e 3c a1 92 1d bd
       0.056794044 -0.0042432086 0.017450705 -0.038469914
0001e0 c4 ee c6 3c 94 b3 b9 3d 84 57 3a 3c 81 29 c8 3d
       0.024283774 0.09067455 0.011373404 0.09773541
0001f0 fe f3 0a b9 58 30 1e 3d 60 64 45 bc df 3d 82 3d
       -0.000132516 0.038620323 -0.012047857 0.06359457
000200 0a 22 4d bd a3 a2 bf bc 7b 32 df bd 06 d6 ae 3c
       -0.05008129 -0.02339298 -0.108983 0.021342289
000210 73 ad f3 bd f0 e4 5d bd db ad 81 bc 75 a4 8b bd
       -0.11898317 -0.05417341 -0.015829971 -0.06818477
000220 8d 47 ab bb 26 8a 83 3d 65 1a c9 bd 4e 2e d1 bd
       -0.0052270354 0.06422834 -0.098194875 -0.1021391
000230 ae b7 09 bd 78 63 8e bc 09 8b 10 be af fd 20 bd
       -0.033622436 -0.017381415 -0.14115538 -0.03930443
000240 ee a6 0b 3d 55 9b a3 bd 7d 05 5d 3d d6 2b fb bd
       0.034094743 -0.079886116 0.053960312 -0.122642204
000250 ee f1 e2 3b 83 d6 91 3c 50 d3 0e 3c 9f 46 b4 bd
       0.006925813 0.017802482 0.008717373 -0.088025324
000260 e9 bd be bd c9 a4 94 3d 92 e1 03 be 23 75 aa bd
       -0.09313566 0.07257993 -0.12879017 -0.08323123
000270 0a a1 04 be 5b fe 67 bd 19 c6 f3 bd 18 98 f8 bd
       -0.12952057 -0.056639057 -0.119030185 -0.121383846
000280 7a b2 3e 3d 1a 8c 55 bd 9b e6 be 3c 80 18 45 bd
       0.046556927 -0.052135564 0.02330332 -0.04811907
000290 1e 69 12 bd 27 87 01 3d b2 ef 96 bd 15 46 85 3c
       -0.03574478 0.031623032 -0.07369937 0.01626877
0002a0 4c 24 7a 3c a6 a7 8e 3d 06 c0 26 3d 3a c1 6a bc
       0.015267443 0.0696557 0.04071047 -0.014328295
0002b0 3c cb f1 bd 79 17 5c bd 46 af 8c bb 79 56 73 3d
       -0.11806342 -0.053733323 -0.004293355 0.05940864
0002c0 f2 ab 5d 3d c8 51 3f 3d fb f4 6c 3d 4d b7 6b bd
       0.054119058 0.046708852 0.05785082 -0.057547856
0002d0 f8 43 99 bd 9b b6 97 bd ee 79 f5 bd 1b 36 b3 bc
       -0.07483667 -0.07407876 -0.11986147 -0.021876385
0002e0 ab 7c 06 bb 27 56 52 3d 67 75 1c bd b7 24 9e 3d
       -0.0020521085 0.051351693 -0.0381979 0.077218466
0002f0 41 8f 0f be 2d c9 89 3d 85 3e 8c bd d8 5e 4a bd
       -0.14019491 0.06727824 -0.06847862 -0.049406856
000300 53 46 a0 3d 4a f9 59 3d eb 9a 3d bd 3b 57 36 bd
       0.07825913 0.053216256 -0.04629032 -0.044516783
000310 03 fc 03 3b 82 e4 6b bd ae 5a 0c bd 35 5f 23 be
       0.0020139224 -0.05759097 -0.034266166 -0.15954287
000320 5e 2e 54 3c 8a 6f 13 be ee ba 51 bd 7a a5 80 3d
       0.012950508 -0.14398018 -0.05120366 0.06281562
000330 4c b6 2a 3d d9 72 14 be 40 47 98 3c d7 09 f7 bc
       0.041677758 -0.14496936 0.018588662 -0.03015606
000340 9c 33 67 bd dd 6a d1 3b 9e 3f fc 3c 56 8d 32 bd
       -0.056445703 0.006390913 0.030792054 -0.04359182
000350 8d b9 21 3d 0f 90 57 3d 05 9d 54 bd 9f d1 33 bd
       0.039483596 0.05262762 -0.051907558 -0.043901082
000360 a6 95 84 bd a8 f9 c3 3d ba bf 9b bd e4 a6 1e be
       -0.06473856 0.095691025 -0.07604928 -0.15493351
000370 c0 00 3c bc 7f 53 41 3d 86 b8 0d be 7f 17 d7 bd
       -0.011474788 0.04719877 -0.13839921 -0.105025284
000380 2c a3 9e 3d a7 d2 a6 bd 7e ae 0a 3d 68 83 10 be
       0.07745966 -0.081456475 0.033857815 -0.14112628
000390 f5 e0 96 bd ca 57 6e 3d 67 01 82 ba 57 53 01 be
       -0.07367126 0.05818919 -0.0009918631 -0.12629448
0003a0 da ee 03 3d a0 d0 6d 3c be b9 13 3d 64 a4 c4 3c
       0.03221021 0.014515072 0.03606581 0.024004169
0003b0 fa 5a 18 be 6d 41 51 3d 5a 85 07 be 4a 62 25 bc
       -0.14878455 0.051087786 -0.13234463 -0.010094235
0003c0 6f 90 58 3d 3a e8 68 3d 2a 49 96 3d 9a 34 35 3d
       0.052872118 0.056862094 0.07338174 0.044239618
0003d0 b1 88 37 bd 4e bc e0 bc b3 37 0f bd da c3 da bc
       -0.044808093 -0.02743354 -0.03496523 -0.026704717
0003e0 c2 88 9f bd 09 59 8a 3d ab 43 c5 bd 2d 3d 95 bd
       -0.07789756 0.06755263 -0.09632047 -0.07287059
0003f0 f1 b3 f8 bd c7 c9 b7 bd 6c a9 9f 3d 7c ee e5 bc
       -0.12143696 -0.08974033 0.077959865 -0.02806782

fc3.bias f4 [3]
000000 14 33 7c 3c 0f 38 e3 bd fe f2 90 3d
       0.015393037 -0.11094677 0.07077597
