scripts/models/pg/reinforce_run_2.pth (torch, 76888 bytes, 6 tensors)

fc1.weight f4 [128, 12]
00000000: 9251 85be a528 283e 8e45 00be a9d2 68bb
00000010: 0bbc 89be dae4 0a3e 63fa 6e3c fe48 843e
00000020: 9aa5 f0bd cb92 5fbe 327a f53d fc00 f6bd
00000030: e695 3b3e 3655 443e fcfa 6dbe 3e52 8f3e
00000040: d44f 913e 2cef ad3e da63 ebbc 863b b53d
00000050: 19eb 50be 2a4a 63be 0edb 703e 14e2 613e
00000060: e566 8bbe b616 db3b 9037 0cbe 9910 de3c
00000070: b794 87be 3512 13be 6659 47be fc41 363d
00000080: 3155 b6bc b61d 2d3e b984 e73d a0ea 45be
00000090: 7139 97bd 247e 153e 466e ca3c 3b72 033e
000000a0: 9001 3cbe ec17 52be f252 43bb 22a2 83be
000000b0: 1f8b 4fbe cf01 b43d a628 a53e c6ea 12be
000000c0: dac1 503e 3fa6 103e c966 d1bb 0ce7 5f3e
000000d0: ef8a 163e 17b1 423e ae7c 873e a5a5 27be
000000e0: 2fd1 72be 08f3 5cbe 06c8 9e3e ebbe 40be
000000f0: 5d7d 883c 02c4 843c 7dcc 8dbe c521 27be
00000100: e6c0 5bbe 3703 c4bc 3582 823e c4c4 1a3e
00000110: a17d 76be e299 29be 6947 a43d b6be 8c3e
00000120: 94f0 743b 1274 04be 0629 bc3d a47e 36be
00000130: 101e d7bd f4ee e93c e215 04be 1a27 5dbe
00000140: 464f 15be b239 e8bd 4c84 1c3e e53b eb3c
00000150: 48c5 d8bd fc9c ab3d 1841 3b3d 7508 3c3e
00000160: 8c27 3abe cb4b 453d 4013 2bbe e799 0cbe
00000170: a017 5d3e 51dc 853e bb40 c6bd f814 9b3d
00000180: e5fb 843e 788e 70be c8dd 96bc a679 bdbc
00000190: 83a9 b0bd 3d33 333b 6a58 5c3e f3f8 943d
000001a0: ef99 253e 8dc5 eb3d cb92 473b 3f9a 7e3e
000001b0: d479 8e3e 30e0 1bbe 03d9 083e 13c0 86be
000001c0: 6453 443c ce06 fdbd 1f17 8fbd 2796 c2bc
000001d0: 9f7f 863d bd5f 943e fd72 22be 41c1 923b
000001e0: 8235 98be 22b8 cfbd b378 53be a4a9 9cbe
000001f0: 4cd7 233e 4cbc 80be ae5a 5b3e 0777 78be
00000200: 63ae 8dbe 8d50 653e add0 2ebe f584 3d3d
00000210: 84e7 91bd 8f6e 6cbe 30ae 543d 06f7 dabd
00000220: b42d 143e f727 a53d 600f 433e 0a7b a8bd
00000230: 44be 823e 9ec2 b0bd 6347 3fbd 6759 12be
00000240: 639c d23d 3433 13be 0ada 733e be01 073e
00000250: 6fe5 1dbe 26b1 dfbd e31e 8fbe 2533 d83d
00000260: d212 a93d 931a 923e 4abe 2bbe a837 4b3e
00000270: 5695 933e 3d07 123d 476e 773e 1219 4bbd
00000280: bbce 75be 1b0a a13d ecf9 253e fdd7 b13d
00000290: 6b49 09be e38c 0cbe 2265 7bbd 2b06 883e
000002a0: ae1f 7e3e f038 d5bc 6113 91be 24ac 64bd
000002b0: 8ea4 153e 1dfb 643c d215 083e 8f78 9f3d
000002c0: 857f 58be b80d 483e 378b 80be f099 64be
000002d0: c0a6 293e 50f4 c1bc 7216 e9bd bc75 af3d
000002e0: 7cb8 ac3d 2c2c 413e 80d6 6dbd ace0 99bd
000002f0: be21 3c3e 5a15 f2bd 54e9 67be 7ec1 d8bd
00000300: 78fb afbd f782 303e f2ea cbbd 2a61 fe3c
00000310: 3632 603e ade4 053e 23ba 85be 8a9e 48be
00000320: fa33 1ebe 988c 2d3e 324a 01be 7ab0 2abe
00000330: d270 88be 9f72 563e 0785 32be ebb6 273e
00000340: d11f a63d 045d 933e ebf2 ba3d 9ced d43d
00000350: 87cd c2bd edd2 76be 31bf 783e 886c 88bd
00000360: deba 86be 154b 243d e3ae 8bbd 2eef 9ebc
00000370: 2ae4 3abe 3840 f3bd 7830 5fbe f437 733e
00000380: d0ca 80bc d831 8cbd 2a5a 983d ca33 5c3e
00000390: fc8a 87be 4f16 1d3e e680 833d d9db c8bd
000003a0: d09f 6c3d f56c dfbd 399b 1a3e f03b 85be
000003b0: b17c 263e d28e 903e e7cc 6a3e d1f5 bd3c
000003c0: 5bae 833e 4b59 273e 9e22 923e 2b41 243e
000003d0: ceb7 253d 5bc1 fe3d d072 34be 8eee 423d
000003e0: e2d2 583c 0531 a03e 0942 9cbc 3c60 723b
000003f0: c3ac 84be c8df 2b3e a1b9 34bc 02dd 4f3e
-0.26038796 0.16421755 -0.12526533 -0.0035525954 -0.26901278 0.13563862 0.014586064 0.2583694
-0.11750336 -0.21833341 0.119861975 -0.120119065 0.183189 0.1917313 -0.23240274 0.27992433
0.28381217 0.33971536 -0.028734136 0.08849244 -0.20402183 -0.2219626 0.23521063 0.22058898
-0.2722694 0.006686057 -0.1369307 0.027107524 -0.26480648 -0.14362414 -0.19467697 0.04449652
-0.02225742 0.16905865 0.11304612 -0.19327784 -0.07384003 0.145989 0.024710786 0.12836544
-0.18359971 -0.20516938 -0.0029804078 -0.25709635 -0.20267914 0.087894075 0.32257575 -0.14347371
0.20386449 0.14125918 -0.006390427 0.21865481 0.14701436 0.19012867 0.2646231 -0.16371782
-0.2371261 -0.21577084 0.3101198 -0.1882283 0.01666134 0.016206745 -0.27695075 -0.16321476
-0.21460304 -0.023927314 0.25489965 0.15114123 -0.24071361 -0.16562608 0.08021433 0.2748925
0.003737484 -0.12934902 0.09187512 -0.17821747 -0.10503781 0.028556325 -0.12898973 -0.21596947
-0.14581022 -0.113391295 0.15284842 0.028715083 -0.105845034 0.08379552 0.045716375 0.18362601
-0.18179148 0.048167985 -0.16706562 -0.13730584 0.21591043 0.2614465 -0.09680315 0.07572359
0.2597343 -0.23491848 -0.0184163 -0.023129296 -0.08626082 0.0027343773 0.21518102 0.07274046
0.16172002 0.11512289 0.0030452486 0.24863528 0.27827322 -0.1522224 0.13364033 -0.26318416
0.0119827725 -0.123548135 -0.06986832 -0.023753239 0.065673105 0.28979293 -0.15864177 0.004478604
-0.29728323 -0.101425424 -0.20651512 -0.30598176 0.16000098 -0.2514366 0.2142131 -0.24264155
-0.2767211 0.22394009 -0.17071791 0.046269376 -0.07124236 -0.2308905 0.05192393 -0.10691647
0.1447056 0.08064263 0.19048834 -0.08226593 0.25535786 -0.0863087 -0.04669894 -0.14291917
0.10283735 -0.14375001 0.23813644 0.13184258 -0.15419553 -0.1092246 -0.27953252 0.1055663
0.08255543 0.285359 -0.16771808 0.1984545 0.28824872 0.035651434 0.24163161 -0.049584456
-0.24004643 0.078632556 0.16208619 0.086837746 -0.13406913 -0.13725619 -0.061375745 0.26567206
0.24816772 -0.026028126 -0.28335097 -0.05582823 0.14613554 0.013975886 0.13289574 0.077866666
-0.21142395 0.19536483 -0.25106212 -0.22324347 0.16567516 -0.023676068 -0.11381234 0.08567378
0.08433625 0.18864506 -0.05806589 -0.07513556 0.18372247 -0.11820479 -0.22647601 -0.10583781
-0.08592886 0.17237459 -0.09956922 0.03105219 0.21894154 0.13075514 -0.26118574 -0.19591728
-0.15449515 0.16948164 -0.1262596 -0.16668883 -0.26648575 0.20942162 -0.17433558 0.16378371
0.08111537 0.28781903 0.09128364 0.10396883 -0.095118575 -0.241039 0.24291684 -0.06661326
-0.26314443 0.040110666 -0.06820466 -0.01940116 -0.182511 -0.11877483 -0.21795833 0.23751813
-0.015721709 -0.068454444 0.074390724 0.21504131 -0.26473224 0.15340541 0.0642107 -0.098075576
0.057769597 -0.10909454 0.15098275 -0.2602229 0.16258503 0.28233963 0.22929727 0.023188503
0.2571896 0.16342656 0.28542036 0.16040485 0.040458493 0.124392234 -0.17621922 0.047590785
0.013233872 0.312874 -0.019074457 0.003698363 -0.25913057 0.16784585 -0.0110305855 0.20299152

fc1.bias f4 [128]
00000000: ace2 9d3e 5c47 8a3e cead 79bd d624 2cbd
00000010: 7876 bdbd 5cae a23c c262 9a3e 5b03 81be
00000020: 2549 4b3e 265c 8a3e c088 6c3e 9dd8 5abe
00000030: c9c9 da3d 5a0c 52be d5da 5fbe d1af 80be
00000040: 32c8 d53d 358a 673e 430b 8abc bc1a a4bd
00000050: ab44 b0bc 21cd 0e3e 9fe3 ac3e 7a15 063e
00000060: 0438 8f3e eb92 1abe 1275 403e ec3a ccbd
00000070: 5747 3d3e 1f41 813e 88ae ccbc e57e 56be
00000080: d2ad 873b fe62 363e 1b5d 533e 65bb 80be
00000090: e2d7 8b3e 2386 05be 4510 cdbb 69ce 91bc
000000a0: efdd 4abe bed5 293e 4948 5e3e 31fe 09bc
000000b0: f928 7f3e 969e 56be d322 7fbe 449a 2fbe
000000c0: a65f 733e 75ed a23e 1e90 bdbc 85fc bd3c
000000d0: 507a 3c3d f42b 373e 9305 b73d e8cc 9d3e
000000e0: 4410 5cbe 54e2 62be 3411 693e b08c 203e
000000f0: 5cad 7c3d 6561 8cbe fb4a 2b3d e27c eabd
00000100: 25fb 8c3e 0a0b 0d3e fecf 8cbe 89fc ffbd
00000110: fc9c 56be c84d 85be a19f 7c3e b2da afbd
00000120: 7a85 60be 0484 0fbe f0ce 8d3e 43cf 25be
00000130: 030e 953e 6c7a 003d 2771 53be 41a2 24be
00000140: 4d9c 833d b186 443d 4761 9d3d 15d3 86bd
00000150: efb9 f43d bdef 653e 2174 693d 1b04 c9bd
00000160: 77da a03e 1294 85be 42b3 233e 2019 98bd
00000170: ec29 113e ac1b 753e 6e65 853d 14a0 2f3e
00000180: 80cf d13b 8eb4 d8bd b56f fdbc 6b46 983e
00000190: 35af 93bb 3864 c6bc 2d5c 5b3d 217f d3bd
000001a0: 732c 6ebe 4e2d 1cbe 57ad c2bd e622 a03d
000001b0: f565 b73d d379 553e e893 9e3c 0037 6c3e
000001c0: 4c58 f1bd 5b76 1c3e 237c 843e 2b71 8e3e
000001d0: 9751 6f3c 3498 80bd 52b7 eb3c 7f35 373e
000001e0: a080 9cbd 4f96 22be 7a28 abbb 9f92 66be
000001f0: 77ea 05be ea8c 503e fe13 ccbc 57a4 2c3e
0.30837 0.27007568 -0.06095677 -0.042027317 -0.09251112 0.019858532 0.3015347 -0.25197873
0.19852121 0.2702343 0.23099041 -0.21371694 0.10683019 -0.20512524 -0.21860822 -0.25134137
0.10438575 0.22611316 -0.016851073 -0.08012912 -0.021517118 0.13945438 0.3376741 0.1309413
0.27972424 -0.15095107 0.18794659 -0.09972176 0.18484245 0.25244996 -0.024985567 -0.20946844
0.004140594 0.178112 0.20640986 -0.2514297 0.27313143 -0.1303945 -0.006258043 -0.01779862
-0.19811223 0.16585442 0.21707262 -0.00842242 0.24917974 -0.20958933 -0.24915628 -0.17148691
0.23766956 0.3182179 -0.02314001 0.0231917 0.046015084 0.1788786 0.0893661 0.30820394
-0.2149058 -0.2215665 0.22760469 0.15678668 0.061688766 -0.27418056 0.041819554 -0.11449601
0.27535358 0.13773742 -0.27502435 -0.12499339 -0.20958322 -0.26035905 0.24670269 -0.08586635
-0.21925917 -0.14015204 0.27696943 -0.16192345 0.29112253 0.03136675 -0.20648633 -0.1607752
0.064262964 0.047980014 0.0768457 -0.065832295 0.119495265 0.22454734 0.056995515 -0.09815236
0.31416675 -0.2608953 0.1598635 -0.07426667 0.14176148 0.23936337 0.06513487 0.17150909
0.0064029098 -0.10581313 -0.030937055 0.29741225 -0.0045069703 -0.02421771 0.053554703 -0.10326982
-0.23259144 -0.15251657 -0.09505718 0.07819156 0.08954994 0.20847254 0.019357637 0.23067856
-0.117844194 0.15279524 0.2587596 0.27820715 0.014606855 -0.062790304 0.028773937 0.17891501
-0.07641721 -0.1587765 -0.005223331 -0.22516869 -0.13077722 0.20366254 -0.024911877 0.16859566

fc2.weight f4 [128, 128]
00000000: 7082 d4bb addc d4bc 2ef1 053d 40cb 1e3b
00000010: 80b2 0a3b f211 98bd cd2c 8e3d e359 aebd
00000020: 60eb 94bb bff2 973a 71cc 1abd e66f 683d
00000030: 6328 083d 880b 013d 4c1a b5bc 5e5f 443d
00000040: c082 45bd 8a17 45bc 4058 4c3c db08 8ebd
00000050: 6baf 62bd cfac f53c cb07 923c e602 34bb
00000060: d8d0 243d d9bf b1bd 4865 0b3c 1162 813d
00000070: ba47 9cbd c3a5 9ebc d0d1 8e3b 874c 863d
00000080: c600 a3bc aeaa 72bd f9b8 b43b 26f5 92bd
00000090: 9d6e 06bd 49de 5fbd 007b f7b9 46fc 99bd
000000a0: c80f a73c 18b2 4e3d 9c71 113d fd62 303d
000000b0: 4b80 b83c 0cb7 cf3c 4a88 0ebd a0a1 603b
000000c0: 36e0 f5bc 4d34 2abd 805e b23b 003f 10bd
000000d0: 7756 b3bd 0d35 653d 5ff1 a4bd b595 463d
000000e0: 1b7f 9ebd 301a acbd 82c9 143d 9ee1 9abd
000000f0: 6d7a 7abc ee22 9fbd 8300 82bd f2db c53c
00000100: 9fe6 863c 78cb cdbc 6028 5d3c f81f dd3c
00000110: 6bd3 3c3a 98ec 0d3d 646c adbc 550f 16bd
00000120: fcb1 8ebd a606 46bd 67d5 043d 3867 11bc
00000130: b437 1a3d 6800 89bd 17e6 87bd 327f 633d
00000140: 469b 953b baf7 3ebd 22a4 903d 1619 ea3b
00000150: 2a8e febc 5558 b8bd dec6 3c3d c2f4 213d
00000160: 5622 a6bd a24e 7fbd 29b9 193d cfc9 ae3d
00000170: 5960 963d e0a2 1e3d 1068 9abd 3196 843d
00000180: d04e d4bc 094e 103d c135 98bd f741 b0bd
00000190: 7c1d 0b3d 5965 b2bd e467 61b9 e884 45bc
000001a0: 607a 97bd b9fb 89bd 0ad0 ecbc e526 36bd
000001b0: 97f5 6c3d 01e6 e03c 6680 963d d021 783d
000001c0: 09ad 7dbd 660c 5f3d 4b54 84bd 4821 29bd
000001d0: c76c 9fbc 1c90 81bd 0f7d 1fbd e868 07bd
000001e0: 8446 1c3d 56f9 abbd 6caa f7bc a05d c63c
000001f0: 14ee 153d 8614 51bd f28a cc3c d0a5 30bc
00000200: c9d9 fe3c 5c59 7dbc 224a d23c f391 043e
00000210: 5224 5abd 8190 2a3d 964d 8d3d 98ed 7abd
00000220: e754 023c 6ff0 173d 8500 8a3d 7307 84bd
00000230: 7d80 e3bc 851c b03d 5df7 b8bc 9390 91bd
00000240: 7b30 94bc 5670 64bd bc9a 88bd 0af5 b43d
00000250: 2e7e 9a3b 74b5 a23d fb2b 053d 944d 273b
00000260: 5711 ba3d 81c6 313d d50a a8bc 3633 34bd
00000270: 0a15 233d 8001 6e3b ef31 07bd f0c1 fb3d
00000280: 8b3b 9ebc b6a0 4ebd 5072 cbba ad16 64bb
00000290: 1236 8b3d 5178 bb3d e208 913d 52f6 d23c
000002a0: 5b41 a8bc 225a 05bd afc4 f2bc a5ed 5f3c
000002b0: 4639 443d ddcb 923c fddf 53bd de1c 7fbd
000002c0: bf33 55bd bae5 2f3d ebd6 ccbd aa84 a73d
000002d0: ab43 8ebd dba9 0ebc db40 b439 1953 8fbb
000002e0: e0a6 7c3b 10dc 32bb b783 aa3c 561e 263d
000002f0: 006f 2bbd ff97 94bb fe7f 563c a902 bebd
00000300: 870f 4fbd 9831 ea3c e0fd f23c 4e23 513d
00000310: c410 e73c ba5b ca3d 4654 e93c 0f75 9abc
00000320: abec 093d ba80 6d3d 6180 913d d9a3 0c3d
00000330: a997 09bc 48e1 943d 635c 673c e598 823b
00000340: 434a 70bd 3203 c1bd 44d9 dfbd 69ff 323d
00000350: fa26 853b 8e40 963d 3b3e 0dbe 35ed 463d
00000360: 7da8 1d3c 7156 203d a60e ad3d 1d86 893d
00000370: 3ee3 973d 664f 993d 0a4a d1bd 693a 4a3d
00000380: d110 a0bd 93cf d13b a15d 0dbd a79b 173e
00000390: 803f fa3d d5df 85bc 39b8 a13d dcb5 3a3b
000003a0: 424c 843b df86 af3c ad75 843d 6038 143d
000003b0: 8646 4d3d 7ba1 75bd 5339 593c c94f 123d
000003c0: 36d8 223d 4d33 493d e9ea 293d 9ca8 7aba
000003d0: cb00 8a3d dd60 b6bc 1767 84bd dd08 9bbd
000003e0: cd38 a73d 7846 4c3d 4a32 fdbd f4bb 2bbc
000003f0: 7f09 44bc b0a6 633d e99f 9b3d 5ca3 973b
-0.006485276 -0.025984133 0.03270071 0.0024230033 0.0021163523 -0.07425298 0.06942139 -0.08513238
-0.0045446604 0.001159273 -0.037792627 0.05674734 0.03324164 0.031505138 -0.022107266 0.04794251
-0.048220396 -0.012029538 0.012472212 -0.06935283 -0.055343073 0.029989628 0.017825982 -0.0027467548
0.04023823 -0.0867917 0.008508034 0.06317533 -0.07630868 -0.01936615 0.0043585077 0.06557565
-0.01989783 -0.059244804 0.0055152145 -0.071756646 -0.032820333 -0.054655347 -0.00047203153 -0.075188205
0.020393267 0.050462812 0.035508737 0.043063153 0.022522112 0.025355838 -0.034797944 0.0034276024
-0.030014139 -0.041553784 0.005443394 -0.03521633 -0.08756726 0.055958796 -0.080538504 0.048482616
-0.07739087 -0.08403432 0.036324985 -0.07562564 -0.015287978 -0.07770334 -0.06347754 0.02415273
0.01646739 -0.025121436 0.013498396 0.026992783 0.00072031346 0.03464946 -0.021169849 -0.036635716
-0.069675416 -0.048346184 0.03243008 -0.008874707 0.03765078 -0.066895306 -0.06635683 0.055541225
0.004565629 -0.04662297 0.07062556 0.0071441038 -0.031073648 -0.09001223 0.046088092 0.03954006
-0.08112018 -0.06233085 0.037530098 0.08534586 0.073425956 0.03872955 -0.075393796 0.06473959
-0.025916487 0.03523067 -0.07432128 -0.08606332 0.033963665 -0.08710737 -0.00021496374 -0.012055613
-0.07396388 -0.067374654 -0.028907795 -0.044470686 0.0578514 0.027453424 0.07348709 0.06057912
-0.061932597 0.054455183 -0.0646139 -0.041291505 -0.019461049 -0.06326315 -0.038937625 -0.03305903
0.038153186 -0.083971664 -0.03023263 0.024214566 0.036604002 -0.051044963 0.024968598 -0.01078172
0.031109707 -0.0154631995 0.025670115 0.129463 -0.053257294 0.041641716 0.06899564 -0.061261743
0.007954813 0.03709453 0.0673838 -0.06446733 -0.027771229 0.0859919 -0.02257889 -0.071076535
-0.018089524 -0.055771194 -0.06670138 0.088358 0.004714749 0.07944766 0.032512646 0.0025528418
0.090853386 0.0434022 -0.020512978 -0.04399415 0.039814986 0.0036316812 -0.033006605 0.1229285
-0.019315502 -0.050446235 -0.0015521739 -0.0034803555 0.067974225 0.09153808 0.070817724 0.02575222
-0.020538976 -0.03255666 -0.029634802 0.013667499 0.047906183 0.017919475 -0.051727284 -0.06228339
-0.052051302 0.042943694 -0.1000193 0.081796005 -0.069465004 -0.008707489 0.00034380596 -0.0043739197
0.0038551614 -0.0027291812 0.02081476 0.040556274 -0.041853905 -0.004534721 0.013092039 -0.09277851
-0.050551917 0.028588101 0.029662073 0.05105906 0.028206237 0.09880777 0.028482568 -0.018854646
0.03367297 0.05798409 0.071045645 0.034335945 -0.008397975 0.072695315 0.014121148 0.0039855116
-0.05866457 -0.094244376 -0.10930112 0.04370061 0.0040634843 0.073365316 -0.1379327 0.048566062
0.00962269 0.039144937 0.084500596 0.06715033 0.0741639 0.07485847 -0.102192 0.04937211
-0.078157075 0.0064029186 -0.03451312 0.1480547 0.12219143 -0.016342083 0.07896466 0.0028489744
0.004037411 0.021426616 0.064677574 0.036186576 0.050116085 -0.059968453 0.013258296 0.03572062
0.039756976 0.04912119 0.041483793 -0.0009561868 0.067384325 -0.022262985 -0.06464975 -0.0757005
0.08165131 0.04987189 -0.123631075 -0.010481823 -0.011965155 0.055578887 0.0759886 0.0046276283

fc2.bias f4 [128]
00000000: eea4 71bd 65c5 223d c4ca 33bb f032 24bd
00000010: 59c5 313d 8bc8 aabc 6555 813c 698d af3d
00000020: f61f 74bd bfd1 fb3d 5141 4f3c e071 8ebd
00000030: dbb9 05bd ccfc bd3d 6051 ae3d 07f3 06bd
00000040: 0f0b 2b3d cbab 62bd f532 423d be50 9cbd
00000050: b83e 053d f779 9bbb 2baa b73d cedf 333d
00000060: 6a79 963c 805c e03d 3db8 a53d 8ce2 993d
00000070: d25e c03d d7e0 a8bd a738 c63c 9887 81bd
00000080: ebca ca3d 3daa 81bd 87a0 99bd 82fd e03d
00000090: bcee 9c3d abfd 453d 6d90 94bd 96ad ae3c
000000a0: a16e adbd e2d6 5e3d fbe6 3fbc 229d de3d
000000b0: ce4b ee3d 7849 78bc d2f8 9abd 27cd 65bc
000000c0: f214 42bc 8c5f ad3d 5298 e43d 313a 9b3d
000000d0: e8ca 10bd 3d69 61bd 3703 84bd ad8a 50bd
000000e0: 8095 993d 2690 1dbd fed9 a13d 8ef9 4ebd
000000f0: 6c92 593d 19d5 ce3d 8ca1 a53d 8fe7 9cbc
00000100: 0717 c2bb 7314 543c f17a 4f3d 2138 a23d
00000110: f6c0 aabd e8f8 f73d c309 273c c71f 5bbc
00000120: 786f 27bd 5f71 c43d 96f8 47bd 2f72 933d
00000130: 294e c2bc 06dd 0f3d 6308 9c3d 68cf cd3d
00000140: a925 3fbd a89c 1ebd 1f7f d9bc 58be 983d
00000150: c530 a53c 365d c23d fa19 2b3d 9cad 473d
00000160: 0af4 91bd 18b0 a73a 96af 453d 24ff a7bd
00000170: b203 36bd 3c6a a3bd 6bee a2bd d512 273d
00000180: 4c33 5f3c c207 1e3d a04b aebc 2a9a 19bd
00000190: 8a7d 2e3d f502 c43c 600c 303b 0009 f6b9
000001a0: 2fb7 563d 15e4 3b3c 398e b33c 223b 753d
000001b0: b11b eb3d d43c 0b3d 8acb 2e3d 4554 0f3b
000001c0: dfbf f33c d239 68bc 2e0f f13d d920 1bbc
000001d0: 96c6 a13c fcf7 903c f732 d63d 280a 8b3c
000001e0: 07d7 893d b075 043d b98e 413d 4aec 5c3d
000001f0: 82fb 8ebc 45ff 723d 54f8 793d 9b04 b93c
-0.05899518 0.03973903 -0.002743409 -0.04008764 0.043401096 -0.02084758 0.01578779 0.08571894
-0.059600793 0.12295865 0.01264985 -0.06955314 -0.03264795 0.09276733 0.08511615 -0.032946613
0.041758593 -0.055339616 0.047411878 -0.07632588 0.032530516 -0.004744764 0.08968004 0.04391461
0.018368442 0.10955143 0.08091781 0.075139135 0.093930855 -0.0824601 0.024196936 -0.063246906
0.09901985 -0.063312985 -0.07501321 0.10985853 0.076627225 0.04833762 -0.072541095 0.021323007
-0.084683664 0.054404147 -0.011712785 0.108698145 0.11635552 -0.015154235 -0.0756699 -0.014025963
-0.011845814 0.0846549 0.11161865 0.075794585 -0.035349756 -0.055032004 -0.06445926 -0.0509135
0.07499218 -0.03846755 0.07902907 -0.050530963 0.053118154 0.10099239 0.08087453 -0.019153384
-0.005923155 0.012944329 0.050654355 0.07920862 -0.08337586 0.12108022 0.0101951985 -0.0133742755
-0.04087779 0.09591936 -0.048821054 0.07199513 -0.02371891 0.035122894 0.07618787 0.10049325
-0.046666775 -0.038723618 -0.026549874 0.0745818 0.020164857 0.09490435 0.04177282 0.04874955
-0.07126625 0.0012793569 0.048263155 -0.08202961 -0.044437118 -0.07979247 -0.07955631 0.040789444
0.01362307 0.038581617 -0.021276295 -0.037500538 0.042600192 0.023927191 0.0026862845 -0.00046927482
0.05242079 0.011467953 0.021918403 0.059870847 0.11479891 0.033993557 0.04267458 0.0021870297
0.029754577 -0.014173942 0.117704734 -0.009468281 0.019748013 0.017696373 0.104589395 0.016972616
0.06730466 0.032338798 0.04725525 0.05393628 -0.017453913 0.059325475 0.06102784 0.022585204

fc3.weight f4 [3, 128]
00000000: 9516 333d 3778 bf3d 1f2a 7f3c f8dc 90bd
00000010: cf8b 17bd 1410 a8bd d9bc 213d 7d04 89bc
00000020: afa0 99bc 6fcb 753d 40ec af3d 03ba 0ebe
00000030: f827 11bc c0cf 1d3e b936 ce3d 8091 67bd
00000040: 575f 14bd 5674 a23d 266a dfbc e32b 5ebb
00000050: 5c69 103e 0a68 583d 3968 9a3c 1928 4dbd
00000060: 251e 0d3d 649e 3c3d 0f6e 54bd 4df3 d03d
00000070: 7b33 723b ef71 83bd ba8f 453d 8628 6e3d
00000080: 0da6 a53c 1afa bdbd d329 75bd c30f 503d
00000090: 6711 8e3d a045 9d3c 26dc 8f3d 77ff f23d
000000a0: 0593 ddbc 13b5 a0bd ff3c 95bb f040 f73d
000000b0: dc7b 543d 585b 3f3c e639 96bd dc59 073c
000000c0: 7254 ee3d 55a0 97bd 32e2 b03c 8817 dcbc
000000d0: 44b1 4d3d f0ee a23d 5e3a c43c 3f82 7cbd
000000e0: 6b0b 6d3d 2b19 acbd 860c 003d 9718 bbbc
000000f0: cf54 c6bd a6a6 f63d d2d3 533d 78e4 503c
00000100: 1485 a7bd 4f2d 1a3e 946a ecbd 1b73 bdbb
00000110: a5d7 92bd 020f d03d 7209 9bbc d81a 1d3d
00000120: 4960 1abc c3b5 c83c 4920 08bd 12ea cc3d
00000130: fdb2 cebc 867c 013d 2cbe 91bd 1f40 50bd
00000140: a32c 423c 77f6 943d 9c3d a6bd c1e6 6b3d
00000150: de14 67bd 3743 b2bd 7946 92bb 66ae 37bb
00000160: de7d 9ebd eae2 c3bd 4846 873c 4e9a a1bd
00000170: 693b 35bd 79ed aabd 67f0 15be f8a3 11bd
00000180: b93f 633d f091 b1bd 4cca aabd 5b03 22be
00000190: 5e22 1dbd 5a57 8aba 201c 0fbb d82f 3f3c
000001a0: 8762 05bd 96e5 c6bb da3c aa3d 258f af3d
000001b0: 2e5a 693d be17 52bd 73e2 be3d 5a77 ccbd
000001c0: e4bc d33d eb30 b03d a69b 87bb 0dbc 063e
000001d0: 9267 bf3d 2469 143e 0e7e 7a3d c037 cf3d
000001e0: b5bd 05be 0e97 82bd ce9a 323c ddfc 75bd
000001f0: eb8c e6bd 41f0 a1bd 9864 813d f12e 71bd
00000200: c286 053d 89b8 84bd ff61 9b3d c082 743d
00000210: 7cca 05be 10d4 b8bd 8205 333d 0ade 38bd
00000220: 548e 0b3d 3d1a 0fbe 1599 a1bc 1c47 803d
00000230: 9dc5 893d 3ca0 17bd 367a e9bd dfd9 10be
00000240: 9751 a939 3916 e43c b4ce 863d fc14 883c
00000250: 7eac 38bd c57a 1bbd 6957 04be c6fa 0dbe
00000260: db09 c03c dbdd abbc f9f1 2dbd 8da8 363d
00000270: 5401 46bd 50bf 283c 281a 6f3c b0f3 b8bc
00000280: c8d2 06be 1a79 f8bd ec02 ef3c de7d 97bd
00000290: 0540 23bc c72a afbd 9003 e93c 803c a1bd
000002a0: c90e c83c 4085 80ba 954e a3bc 7edc b0bd
000002b0: 189b a3bd ac63 87bc 93c8 87bc d67f 0bbe
000002c0: 220a b0bd a917 66bc a9a0 8fbd 947f 89bd
000002d0: 7022 febd 3564 aa3d b17e c7bc d8f1 6e3d
000002e0: 12ee d7bd 79ac 8c3d 98a3 bb3c a27a a4bd
000002f0: 5468 23bc 4213 8ebd 84c1 bb3c 6770 46bc
00000300: fbb9 103c 18d9 213c 61a1 64bd 9f14 8e3d
00000310: 2146 c43b 721d 48bd 9020 a73b 2983 3dbd
00000320: 56e6 78bc 5427 0bbe 9b96 a83b ad77 3bbd
00000330: a4aa 01ba ad46 edbd e0a8 69bd 66fe c7bd
00000340: 02f8 56bc 8677 e1bd b5e0 2e3c 583b 8e3c
00000350: 54a5 f8bd af62 bfbd 4d30 bb3c 61d0 72bd
00000360: fc24 99bc 547f 84bd c023 a33a 4040 2e3d
00000370: 3a8c dabd d37b 1a3d 9b0a 0fbd 42ff 473d
00000380: c78c 563d e13b adbb c647 0e3d 3582 03bd
00000390: 2c90 16bd 3233 d7bc d8eb 0b3d 34cc c53c
000003a0: 3714 e93b 227c 6c3d 5c2d 0bbe 548b e23c
000003b0: 38aa f8bd 1470 fcbd ffe0 80bd 49ee b8bd
000003c0: 6c2e fcbd 4bd7 05be 41f0 cabd c33b 1bbe
000003d0: e41d 81bc 2995 edbd eac8 2fbd 5c36 c6bd
000003e0: 5710 9bbd 2a8e 123d 6559 a1bd 7fb4 d4bc
000003f0: 3d0d d63c 968a 963d a442 eebc c5fe a43d
0.043722708 0.09349101 0.015574007 -0.070733964 -0.036998566 -0.08206192 0.03948674 -0.016725773
-0.018753378 0.060008463 0.08589983 -0.13938145 -0.008859627 0.15411282 0.10069031 -0.056535244
-0.036223736 0.079323456 -0.027272295 -0.003390067 0.14102691 0.052833594 0.018848525 -0.05008707
0.034452576 0.04604949 -0.051862773 0.10202656 0.0036956954 -0.064182155 0.04823277 0.058144115
0.02022078 -0.09276219 -0.05985434 0.05079628 0.06936913 0.019198239 0.07024412 0.11865132
-0.027047643 -0.07847037 -0.0045543904 0.12072933 0.051875934 0.011679493 -0.07335262 0.00826117
0.116372004 -0.07403628 0.021592233 -0.02686669 0.05021788 0.0795573 0.023953613 -0.06164765
0.057872217 -0.08403238 0.031261943 -0.022838874 -0.09684145 0.120435044 0.05171568 0.012749784
-0.081796795 0.15056346 -0.11543766 -0.005781544 -0.07170037 0.101591125 -0.018925402 0.03835568
-0.00942237 0.024500733 -0.033233915 0.10005583 -0.025231833 0.031612895 -0.071163505 -0.0508424
0.011851463 0.07273572 -0.0811722 0.05759311 -0.056416385 -0.087042265 -0.0044639674 -0.0028027534
-0.07738851 -0.09564765 0.016513005 -0.078907594 -0.04424611 -0.083460756 -0.14642487 -0.035556763
0.055480693 -0.086704135 -0.08339366 -0.15821593 -0.038362853 -0.0010554597 -0.0021836832 0.011669122
-0.032564666 -0.0060698492 0.08312388 0.085722245 0.056970768 -0.051292174 0.093205355 -0.09983702
0.103387624 0.0860308 -0.004138428 0.13157673 0.09345926 0.14493233 0.06115537 0.10118055
-0.13060649 -0.06376468 0.010901166 -0.060055602 -0.11257347 -0.07907153 0.06318015 -0.058882657
0.03259922 -0.0648051 0.07587051 0.059695005 -0.13065523 -0.09024823 0.043706425 -0.045133628
0.03407128 -0.13974853 -0.019726316 0.06263563 0.06727145 -0.037018046 -0.11400263 -0.14145611
0.0003229498 0.027842628 0.06582394 0.016611569 -0.045086376 -0.03795888 -0.1292397 -0.13865194
0.0234422 -0.020979812 -0.04246709 0.044594336 -0.04834111 0.010299519 0.0145936385 -0.022577137
-0.13166344 -0.12132473 0.029176198 -0.07397054 -0.009963994 -0.08553081 0.028444082 -0.078728676
0.024421113 -0.0009805337 -0.019934932 -0.086358055 -0.07988566 -0.01652702 -0.016575133 -0.13622984
-0.08595683 -0.014043727 -0.07013065 -0.06713787 -0.12408912 0.08319894 -0.024352403 0.05833611
-0.10543455 0.06868834 0.022905156 -0.08031203 -0.009973604 -0.06937267 0.022919424 -0.01211176
0.008833404 0.009878419 -0.055817965 0.06937527 0.0059898053 -0.048856206 0.0051003173 -0.046267662
-0.015191635 -0.13589221 0.0051449067 -0.04576843 -0.0004946387 -0.11585746 -0.057045817 -0.097653195
-0.013120653 -0.110091254 0.0106736915 0.017362282 -0.12140909 -0.09344994 0.02285018 -0.059280757
-0.018694393 -0.064695984 0.0012446567 0.042541742 -0.10671277 0.037715744 -0.034922224 0.048827417
0.05238035 -0.005286679 0.034736417 -0.032106597 -0.036758587 -0.026269529 0.034160465 0.024145223
0.0071130055 0.05773557 -0.13591522 0.027654327 -0.12141842 -0.12326065 -0.062929146 -0.09029824
-0.12313542 -0.13070409 -0.09909106 -0.15159516 -0.015761323 -0.11600716 -0.042916216 -0.09678337
-0.07571476 0.03578011 -0.07878379 -0.025964973 0.02612936 0.07350652 -0.029084511 0.08056406

fc3.bias f4 [3]
00000000: 861f fb3c f32b afbd 2b01 633d
0.03065468 -0.085533045 0.055421036
