scripts/models/pg/reinforce_run_3.pth (torch, 76888 bytes, 6 tensors)

fc1.weight f4 [128, 12]
0.18470825 -0.09265668 -0.087965034 0.23142403 -0.13470809 0.24540336 0.092993125 0.054916617
0.19143838 -0.21246852 0.10419968 0.24987657 0.2058205 0.025009513 0.23396873 -0.27457914
0.26176977 -0.15861745 -0.062262625 -0.1582055 0.077172786 -0.027415514 -0.12798797 -0.013603985
0.24348997 -0.018701196 -0.26471198 0.11710107 0.0019290149 -0.07444111 -0.23402163 -0.0698734
0.17496198 -0.25122833 -0.10955085 0.24320011 -0.05402882 -0.031613365 -0.06839293 0.16396701
0.06133006 0.10465576 0.30725318 0.16781977 -0.22093755 0.09821618 -0.091239154 -0.11330636
0.15167119 0.07340887 -0.2639318 -0.27289656 -0.00182856 0.073293895 -0.11271854 0.13271625
-0.23612647 -0.17894414 0.0931191 -0.3177631 -0.16289745 -0.016145358 -0.15099289 0.26749194
0.038049366 0.34929138 0.27981722 -0.032236878 -0.038135346 0.050836932 0.27204633 0.2428135
-0.28481513 0.025107175 -0.17155495 -0.005561799 -0.028106391 -0.26414987 -0.1117897 -0.18137997
0.17662555 -0.10294439 -0.101996556 -0.12134963 -0.27241495 0.012118504 0.25238195 -0.03016463
0.10450476 -0.14769995 -0.13562284 -0.09372311 -0.21606468 -0.23973657 0.15087135 0.1970614
0.24942319 0.08652445 -0.013865072 -0.015444124 0.075307764 0.061810493 0.009826341 0.2147473
0.1615423 0.02966411 0.32482737 -0.1229211 -0.32293907 0.22848044 -0.122846946 0.28278807
0.18307428 0.2573295 0.06671826 -0.11988477 -0.1314003 -0.15824877 0.23482744 -0.120883
-0.32157895 0.27065045 0.09818088 -0.09931393 0.21375334 -0.1557613 0.13061336 0.0682181
0.091120675 -0.04052218 0.0065058675 0.0006523723 -0.06517596 0.32639185 0.28787333 -0.094424404
0.010386181 0.35337585 -0.06938314 0.1869892 0.30515364 0.05982753 -0.13955687 0.22896779
-0.30635372 0.026647497 0.07380678 0.22186267 -0.27254122 0.32790187 -0.0765653 -0.031399924
0.12513672 0.0404227 0.18434556 0.088577494 0.21081206 0.039660346 0.14073539 -0.03534791
-0.015201849 -0.20551564 -0.12565649 0.08003687 0.06965065 0.24716197 -0.10806802 -0.17971937
0.121737435 0.057128277 0.14021266 -0.020775419 -0.11406598 0.35337812 -0.23909947 0.21367115
-0.038494498 0.22974135 0.23881288 -0.07703032 0.03524215 -0.18886852 0.17915282 -0.17864402
-0.007670049 0.20884341 -0.15393715 0.114863575 0.3598694 0.095859654 0.31622577 0.049338493
0.11429033 0.015598949 0.030390253 -0.24637032 -0.047116287 0.20501731 0.068383336 -0.23442678
-0.04705367 0.11186077 0.20241356 -0.043166213 -0.14041479 -0.2019003 -0.0046464703 -0.1666559
-0.28814664 0.15787227 -0.21323289 0.19021592 -0.22010252 0.18536676 0.017209413 -0.26786107
-0.23763041 0.23752299 0.1704566 0.078795604 -0.16914454 0.12162609 -0.32866326 0.09725595
-0.24894363 -0.19676712 0.078199305 0.31464475 -0.05755742 0.082134105 -0.18729247 -0.07015038
-0.06982442 0.13985926 -0.046847884 0.14313816 -0.13946663 -0.24554259 -0.10520687 0.06517274
-0.31257161 0.12592487 0.0055912505 -0.14412622 0.11953285 0.3708603 0.2503995 -0.057076808
0.11909801 0.27120668 0.34099928 0.18943465 -0.096679 0.021898124 0.17180704 -0.19887951
00000000: 2924 3d3e c9c2 bdbd 0327 b4bd 6cfa 6c3e
00000010: ebf0 09be 054b 7b3e 2e73 be3d 3ff0 603d
00000020: 6c08 443e 5991 59be a466 d53d a5df 7f3e
00000030: 9cc2 523e c0e0 cc3c 8095 6f3e a395 8cbe
00000040: b006 863e 9d6c 22be 1807 7fbd 9f00 22be
00000050: c40c 9e3d 8096 e0bc 470f 03be 40e3 5ebc
00000060: 6f55 793e 4033 99bc 5488 87be b0d2 ef3d
00000070: 00d7 fc3a 9574 98bd 5ea3 6fbe c919 8fbd
00000080: 3c29 333e 00a1 80be 325c e0bd 7309 793e
00000090: 534d 5dbd 047d 01bd 9811 8cbd f8e6 273e
000000a0: 3b35 7b3d c255 d63d 4a50 9d3e f2d8 2b3e
000000b0: 743d 62be 9125 c93d 98db babd 2a0d e8bd
000000c0: b14f 1b3e 6457 963d 1222 87be 19b9 8bbe
000000d0: 4bac efba 1c1b 963d fad8 e6bd c5e6 073e
000000e0: 23cb 71be 223d 37be 3ab5 be3d d8b1 a2be
000000f0: 97ce 26be 4543 84bc e19d 1abe b4f4 883e
00000100: a7d9 1b3d 52d6 b23e 3444 8f3e d10a 04bd
00000110: cf33 1cbd 633a 503d a849 8b3e 1aa4 783e
00000120: 4ad3 91be 90ad cd3c 1aac 2fbe c03f b6bb
00000130: 603f e6bc a73e 87be 00f2 e4bd acbb 39be
00000140: 54dd 343e 82d4 d2bd 92e3 d0bd 2886 f8bd
00000150: f979 8bbe b18c 463c 3538 813e d01b f7bc
00000160: 9706 d63d a83e 17be b7e0 0abe e7f1 bfbd
00000170: 0f40 5dbe 817d 75be 057e 1a3e 77ca 493e
00000180: cb68 7f3e bb33 b13d 542a 63bc 5a09 7dbc
00000190: f53a 9a3d 002d 7d3d a9fe 203c b7e6 5b3e
000001a0: 586b 253e 2602 f33c c64f a63e 0fbe fbbd
000001b0: 4558 a5be c7f6 693e 2e97 fbbd 99c9 903e
000001c0: d377 3b3e b1c0 833e 95a3 883d 2586 f5bd
000001d0: cd8d 06be f70b 22be 9b76 703e 8291 f7bd
000001e0: ffa5 a4be b292 8a3e 0f13 c93d 1a65 cbbd
000001f0: 28e2 5a3e e47f 1fbe 82bf 053e eeb5 8b3d
00000200: 7a9d ba3d 96fa 25bd 2c2f d53b f703 2b3a
00000210: f97a 85bd d51c a73e 2264 933e 9561 c1bd
00000220: cd2a 2a3c aeed b43e bf18 8ebd 197a 3f3e
00000230: 193d 9c3e b60d 753d ffe7 0ebe 8876 6a3e
00000240: 65da 9cbe da4b da3c 0228 973d f82f 633e
00000250: 868a 8bbe c1e2 a73e 45ce 9cbd 359d 00bd
00000260: d723 003e 4692 253d 15c5 3c3e 1e68 b53d
00000270: 1edf 573e e372 223d f01c 103e f8c8 10bd
00000280: 2d11 79bc b172 52be 18ac 00be 5fea a33d
00000290: 00a5 8e3d 0718 7d3e c452 ddbd 5b08 38be
000002a0: 7a51 f93d 57ff 693d e893 0f3e 3631 aabc
000002b0: 6d9b e9bd faed b43e 7ed6 74be 9ccc 5a3e
000002c0: 68ac 1dbd 5141 6b3e 5d8b 743e 13c2 9dbd
000002d0: 135a 103d c066 41be d673 373e 75ee 36be
000002e0: 0955 fbbb 0cdb 553e b3a1 1dbe 983d eb3d
000002f0: cd40 b83e 1152 c43d 58e8 a13e 2917 4a3d
00000300: 0c11 ea3d bc92 7f3c fbf4 f83c 8048 7cbe
00000310: 02fd 40bd 0ff0 513e 900c 8c3d 930d 70be
00000320: 59bb 40bd 4217 e53d 8045 4f3e 0ecf 30bd
00000330: e5c8 0fbe f4be 4ebe 6b41 98bb d8a7 2abe
00000340: f587 93be 45a9 213e b959 5abe f6c7 423e
00000350: 8e62 61be c9d0 3d3e c1fa 8c3c 1625 89be
00000360: 6355 73be 3a39 733e 2d8c 2e3e 975f a13d
00000370: 3a34 2dbe 1917 f93d 8d46 a8be 212e c73d
00000380: 14eb 7ebe 527d 49be f526 a03d 1e19 a13e
00000390: 54c1 6bbd ed35 a83d 99c9 3fbe 01ab 8fbd
000003a0: 1b00 8fbd 4437 0f3e 91e3 3fbd cf92 123e
000003b0: 57d0 0ebe 846f 7bbe b376 d7bd 4979 853d
000003c0: 6309 a0be 73f2 003e cf36 b73b d395 13be
000003d0: a4cd f43d 67e1 bd3e 5d34 803e 5fc9 69bd
000003e0: a8e9 f33d 9adb 8a3e 7597 ae3e 28fb 413e
000003f0: a4ff c5bd b263 b33c 2fee 2f3e 12a7 4bbe

fc1.bias f4 [128]
0.08743834 -0.24361175 -0.2133194 -0.25070447 -0.14071956 0.11707035 -0.1260032 -0.086534865
0.0880747 0.10144469 0.28412017 0.26822087 0.12680529 0.22689502 0.16674264 0.20882899
-0.07862553 -0.01849761 -0.2263651 0.2449047 0.15106551 -0.020672267 -0.1561819 0.19626975
-0.29827642 0.03790075 0.22831391 0.36290842 -0.26593715 -0.12951766 -0.23566197 -0.36645502
-0.22769904 -0.08671303 0.08115609 -0.07207831 -0.095462695 0.1309294 -0.1273149 0.18399672
0.29216778 0.12570667 -0.2933116 0.01791908 -0.3126264 -0.05554345 -0.043775562 -0.12907486
0.07370826 -0.104532816 0.07162387 0.33444268 -0.102942266 -0.27963638 -0.24790987 -0.060610797
-0.009522344 0.14308336 0.003336793 0.1337691 0.019594258 -0.035846774 -0.078227654 -0.17560104
0.07684221 0.29422712 0.10869974 -0.26989928 -0.121736504 -0.1310897 -0.117208295 -0.12545666
-0.18425366 0.3006206 0.23513128 -0.060936987 0.12117805 0.17736189 -0.1411574 -0.14076203
-0.0066813873 0.25356662 -0.0022713703 0.2066563 0.28032336 0.048187003 0.14340639 -0.015731525
0.080264136 0.10404548 -0.19709554 0.23084126 0.022375027 0.10001051 -0.2855253 -0.0607839
0.22314696 0.14768846 0.07605069 -0.07828316 0.3469145 0.32216597 0.06781413 -0.2584999
-0.02031535 -0.062010344 0.3120405 0.08148377 0.14865904 -0.08021365 0.22397043 -0.00889501
0.3240374 0.12101395 0.35347453 0.17071682 0.38249525 0.092094064 0.21912917 -0.19471385
-0.11512815 -0.21873206 0.025524495 -0.19173175 0.22476211 0.07707015 0.056816544 0.29701695
00000000: df12 b33d 5c75 79be 6770 5abe 565c 80be
00000010: ca18 10be 94c2 ef3d fc06 01be 3139 b1bd
00000020: 8260 b43d 3cc2 cf3d 3378 913e 3f54 893e
00000030: 3fd9 013e 2b57 683e 95be 2a3e 44d7 553e
00000040: 6c06 a1bd 4d88 97bc 41cc 67be 4cc8 7a3e
00000050: ebb0 1a3e e358 a9bc 26ee 1fbe f0fa 483e
00000060: b0b7 98be d13d 1b3d 1fcb 693e 22cf b93e
00000070: ea28 88be 47a0 04be 5f51 71be fe9f bbbe
00000080: f029 69be 9a96 b1bd 2a35 a63d cb9d 93bd
00000090: f281 c3bd 5b12 063e d65e 02be a369 3c3e
000000a0: 0497 953e 40b9 003e f02c 96be 09cb 923c
000000b0: 9110 a0be 8781 63bd 014e 33bd 332c 04be
000000c0: 5bf4 963d 4d15 d6bd 89af 923d 123c ab3e
000000d0: 65d3 d2bd 802c 8fbe 16dc 7dbe 0743 78bd
000000e0: 9b03 1cbc 7284 123e 19ae 5a3b c4fa 083e
000000f0: 2384 a03c 11d4 12bd d235 a0bd c2d0 33be
00000100: 735f 9d3d f0a4 963e f89d de3d 3d30 8abe
00000110: fd50 f9bd 613c 06be e70a f0bd b677 00be
00000120: feac 3cbe f1ea 993e 41c6 703e 1099 79bd
00000130: 332c f83d 5b9e 353e 918b 10be ec23 10be
00000140: 8aef dabb 7cd3 813e 45db 14bb b69d 533e
00000150: 8b86 8f3e bc5f 453d 20d9 123e 66df 80bc
00000160: 8661 a43d cc15 d53d 6ad3 49be a761 6c3e
00000170: d54b b73c 4fd2 cc3d 5f30 92be 8af8 78bd
00000180: a380 643e a53b 173e 77c0 9b3d ec52 a0bd
00000190: c79e b13e f0f2 a43e 22e2 8a3d 195a 84be
000001a0: 606c a6bc 8ffe 7dbd c6c3 9f3e f6e0 a63d
000001b0: 133a 183e 0e47 a4bd 8158 653e 60bc 11bc
000001c0: 3be8 a53e 29d6 f73d 9dfa b43e 64d0 2e3e
000001d0: 6bd6 c33e d09b bc3d 6663 603e 1163 47be
000001e0: 4fc8 ebbd 4cfb 5fbe bf18 d13c 5455 44be
000001f0: 0a28 663e f4d6 9d3d 77b8 683d 9b12 983e

fc2.weight f4 [128, 128]
0.07245229 0.0533733 -0.039335206 -0.14328098 -0.08100808 -0.0092206905 -0.022743136 0.11044209
-0.018258594 0.049468182 0.07523029 -0.023695655 -0.028902872 0.044947553 0.03495938 0.09798106
-0.11513639 0.055601925 -0.041877117 0.0025931508 0.058930222 0.014328606 -0.07403397 0.025866188
-0.08727525 0.0081521785 0.10859401 0.03214815 0.027134422 0.08784667 0.031035535 -0.096595414
0.030360904 -0.0650247 -0.061613873 0.08077484 0.11803783 -0.04342413 0.04232092 -0.0066175815
-0.03755285 0.07302155 0.043213706 -0.0040677246 -0.015703099 0.06706492 0.08681868 -0.026906457
-0.062825054 0.05976459 -0.004054114 0.01588489 0.06262438 0.030430013 -0.07302153 -0.024640854
0.05334684 0.013212987 -0.064432226 -0.027355358 0.071716905 -0.028469956 0.038684394 0.013566151
0.08293441 -0.000110674395 0.07650665 -0.07833569 -0.15101568 0.030019684 0.025225814 -0.025003983
0.052432947 0.014847591 0.03804391 0.08290372 -0.045527674 0.09438303 -0.062255103 0.009404758
-0.06597367 0.022356242 0.102277584 0.0818031 -0.0053304937 0.0032319461 -0.085228495 0.08661571
-0.021582462 0.08702543 0.07843653 0.08716096 0.014863474 -0.04176571 0.0063272193 0.058221508
0.041130114 -0.050832804 -0.09480891 -0.07388826 -0.081135534 0.11196555 0.1464514 0.042140163
-0.031940605 -0.0828714 0.10055298 -0.018047463 0.09355918 -0.043984022 0.07404245 -0.0536488
0.04414015 -0.04009162 0.05623187 0.103598975 0.04685915 0.074618004 -0.081325226 -0.04957113
0.027750546 0.014163042 0.029352397 0.014615305 0.08197578 0.079479605 0.0728601 0.045680296
0.0953658 0.05590584 0.10885778 0.06209021 -0.07085004 0.05361022 -0.07073368 -0.032854006
0.024659079 0.122521356 0.005389465 0.0617568 0.044485774 0.016843362 0.1138707 0.06871278
-0.05717736 0.09457646 -0.023741025 0.10198839 0.021720158 0.069364265 0.07655434 0.1062726
0.07510797 -0.07179818 0.03679472 0.11228579 -0.05136285 -0.024981419 -0.052532695 0.05641297
-0.047067124 -0.042365897 0.063548684 0.13308771 -0.02402978 0.16402836 0.017390149 0.09567087
0.09759426 0.1708173 0.053502534 0.12567589 -0.020048257 0.042017322 0.027322425 0.019905606
0.063499615 0.09116077 0.015495356 0.050276652 -0.015637824 0.03916855 -0.04497899 -0.046684567
-0.08917056 -0.029517276 0.07693566 0.03880987 0.08087509 0.13253672 0.07090779 -0.020844206
0.030282134 0.119396515 0.031348772 0.055018872 0.017903898 -0.0134890145 0.06684063 -0.012619303
-0.046248924 0.04498921 0.054520223 0.11940812 0.03139909 0.10576808 0.052326113 0.09657525
0.03950785 0.06985012 0.034998685 -0.031715963 0.028088458 0.034962717 -0.0016791654 0.0075319447
0.087097056 0.07239995 0.0071924664 0.02976353 -0.071685195 -0.022894818 0.012723543 0.098681375
0.03605562 0.04840341 0.0027586846 0.076774836 0.13082378 0.11336141 -0.026892886 -0.04040455
0.06084017 -0.04845437 0.11606077 0.0773843 0.046660878 0.060718134 0.0808309 0.020804625
0.08426048 0.011565085 0.0154042225 0.00696628 0.13451158 0.067531735 0.050517287 -0.047428954
0.1107712 0.071165144 0.01757412 -0.03953406 0.11300625 0.056532044 0.10704774 0.1055755
00000000: de61 943d f69d 5a3d f41d 21bd 40b8 12be
00000010: 90e7 a5bd 6112 17bc d04f babc 762f e23d
00000020: 0c93 95bc 269f 4a3d 5712 9a3d 641d c2bc
00000030: b7c5 ecbc ed1a 383d 9131 0f3d 4baa c83d
00000040: a1cc ebbd d8be 633d 5787 2bbd daf1 293b
00000050: d160 713d 88c2 6a3c 1f9f 97bd 54e5 d33c
00000060: 5ebd b2bd b790 053c 8966 de3d c7ad 033d
00000070: 0249 de3c f4e8 b33d 3c3e fe3c d1d3 c5bd
00000080: 6eb7 f83c ab2b 85bd d45e 7cbd 486d a53d
00000090: d1bd f13d 80dd 31bd b358 2d3d 4cd8 d8bb
000000a0: 04d1 19bd 538c 953d db00 313d 8c4a 85bb
000000b0: c9a3 80bc 5559 893d fecd b13d ee6a dcbc
000000c0: 6caa 80bd b7cb 743d 60d8 84bb 0721 823c
000000d0: 3641 803d 5d48 f93c 508c 95bd 9edb c9bc
000000e0: 3782 5a3d 497b 583c 0bf5 83bd 5818 e0bc
000000f0: 50e0 923d d339 e9bc 8773 1e3d 9044 5e3c
00000100: 84d9 a93d dd19 e8b8 85af 9c3d 766e a0bd
00000110: dba3 1abe d7eb f53c 5ea6 ce3c 27d5 ccbc
00000120: eec3 563d 4f43 733c eed3 1b3d 6dc9 a93d
00000130: 3a7b 3abd e44b c13d 35ff 7ebd 6a16 1a3c
00000140: 341d 87bd 7024 b73c e976 d13d 6288 a73d
00000150: 6cab aebb 0fcf 533b 478c aebd 9463 b13d
00000160: b4cd b0bc 633a b23d 55a3 a03d 7281 b23d
00000170: ee85 733c 8512 2bbd 9054 cf3b ad79 6e3d
00000180: 0d78 283d 0f36 50bd 2c2b c2bd ba52 97bd
00000190: 632a a6bd 324e e53d 5bf7 153e 2a9b 2c3d
000001a0: 27d4 02bd 7bb8 a9bd b9ee cd3d 46d8 93bc
000001b0: f59b bf3d 9728 34bd 91a3 973d d8be 5bbd
000001c0: 4dcc 343d 1c37 24bd 6453 663d b32b d43d
000001d0: 61ef 3f3d 53d1 983d d78d a6bd 190b 4bbd
000001e0: 1d55 e33c 1b0c 683c 7074 f03c 0875 6f3c
000001f0: ebe2 a73d 34c6 a23d ad37 953d 431b 3b3d
00000200: 254f c33d 86fd 643d d4f0 de3d 4e52 7e3d
00000210: d319 91bd 6496 5b3d d2dc 90bd ec91 06bd
00000220: d601 ca3c 7aec fa3d 1c9a b03b b3f4 7c3d
00000230: b736 363d 17fb 893c 0b35 e93d 49b9 8c3d
00000240: cf32 6abd 4eb1 c13d 8a7c c2bc 4adf d03d
00000250: 79ee b13c da0e 8e3d 86c8 9c3d 73a5 d93d
00000260: 35d2 993d ed0a 93bd 0fb6 163d 18f6 e53d
00000270: da61 52bd d5a5 ccbc 862c 57bd 4911 673d
00000280: 75c9 40bd dd87 2dbd d025 823d 2548 083e
00000290: 1ada c4bc 0df7 273e c975 8e3c 17ef c33d
000002a0: 80df c73d bbea 2e3e 7925 5b3d 2eb1 003e
000002b0: 3e3c a4bc 5b1a 2c3d 47d3 df3c 1511 a33c
000002c0: 160c 823d 7fb2 ba3d 3ce0 7d3c e4ee 4d3d
000002d0: e51a 80bc 346f 203d e43b 38bd 5138 3fbd
000002e0: 0e9f b6bd 37ce f1bc 7190 9d3d 19f7 1e3d
000002f0: d7a1 a53d b5b7 073e 1a38 913d 78c1 aabc
00000300: 3d12 f83c 2986 f43d 9267 003d 785b 613d
00000310: 32ab 923c 0701 5dbc bde3 883d 31c1 4ebc
00000320: 836f 3dbd 9b46 383d 9950 5f3d 3f8c f43d
00000330: 559c 003d ef9c d83d e853 563d 3fc9 c53d
00000340: fcd2 213d 940d 8f3d c85a 0f3d 99e8 01bd
00000350: c419 e63c 1135 0f3d 7117 dcba 88ce f63b
00000360: f15f b23d 6d46 943d c8ae eb3b a5d2 f33c
00000370: b0cf 92bd ea8d bbbc 6876 503c 7619 ca3d
00000380: 0faf 133d a742 463d 0ccb 343b 203c 9d3d
00000390: abf6 053e 072a e83d 784e dcbc 3e7f 25bd
000003a0: 8b33 793d 1778 46bd 45b1 ed3d a97b 9e3d
000003b0: 7a1f 3f3d 94b3 783d ac8a a53d 766e aa3c
000003c0: c290 ac3d 7b7b 3d3c fe61 7c3c 6445 e43b
000003d0: 67bd 093e 144e 8a3d 37eb 4e3d dd44 42bd
000003e0: 03dc e23d 08bf 913d 9af7 8f3c 77ee 21bd
000003f0: d26f e73d 258e 673d d83b db3d f837 d83d

fc2.bias f4 [128]
0.07424223 0.11365394 -0.09069606 0.09291796 0.1729934 0.048522856 -0.007994872 -0.07375701
-0.030807188 0.0068681836 0.11433623 -0.061254453 -0.008316842 -0.11849959 0.117753714 0.09617873
0.024587387 0.009031337 0.036854845 -0.11449584 0.059662435 -0.03567733 -0.0701893 0.1495644
0.05179682 0.02377603 0.058769185 0.10134213 0.15046483 -0.06601889 -0.07633835 0.116284646
0.14461976 0.006899357 -0.027605638 -0.0013589215 0.007217438 0.11178057 0.028314024 -0.041430023
-0.096701086 -0.06989608 0.18021125 0.12710595 -0.03533854 0.031705417 0.048592158 -0.021994328
-0.090454675 0.03532728 0.07933346 -0.05647245 0.1305249 0.0029694038 -0.05056706 -0.03514383
0.13647331 0.10522712 -0.052174646 -0.110406145 -0.054957885 0.129793 -0.036541805 -0.0019801965
0.15922329 0.015872972 -0.030791108 0.036165863 0.13416469 0.12163887 -0.0768892 -0.103495985
-0.08673407 -0.06784544 -0.026072131 0.17533728 0.037571616 -0.09932097 0.080848746 0.059247065
0.15411727 -0.065069325 -0.030879952 0.10633742 0.16078521 -0.09923041 -0.10899743 -0.058905806
0.051652707 -0.07927526 -0.0004898914 -0.00032093527 0.053469896 -0.027715832 0.07154674 0.05140343
0.018119797 0.040358014 0.16070065 -0.044788744 0.0026679316 0.14563496 -0.010833629 0.07109585
0.026670502 -0.069547944 0.10859752 -0.001194208 0.02886869 0.0005007188 -0.016639916 -0.032742757
0.044393644 0.05583974 0.08475937 -0.07519721 -0.011799446 0.025408147 0.1420276 0.12639369
-0.0010220725 -0.03880135 -0.0684414 0.01432973 0.118021585 -0.036754664 -0.1066746 0.14996332
00000000: 4f0c 983d 66c3 e83d dbbe b9bd c54b be3d
00000010: 2f25 313e e7bf 463d ecfc 02bc ea0d 97bd
00000020: 5b5f fcbc 800e e13b 1d29 ea3d f3e5 7abd
00000030: 5d43 08bc eaaf f2bd dc28 f13d 5bf9 c43d
00000040: 7d6b c93c 2cf8 133c 1bf5 163d cc7c eabd
00000050: 9960 743d 6422 12bd 68bf 8fbd 6927 193e
00000060: e728 543d f3c5 c23c f5b7 703d 768c cf3d
00000070: 7413 1a3e e934 87bd 4857 9cbd a526 ee3d
00000080: 3417 143e 0014 e23b 3825 e2bc d71d b2ba
00000090: 4280 ec3b 36ed e43d d0f2 e73c 87b2 29bd
000000a0: 380b c6bd ad25 8fbd 4c89 383e 1028 023e
000000b0: 25bf 10bd 8add 013d 9208 473d 732d b4bc
000000c0: 4d40 b9bd 57b3 103d 9579 a23d a84f 67bd
000000d0: 52a8 053e 549a 423b 681f 4fbd faf2 0fbd
000000e0: a9bf 0b3e 5181 d73d 15b5 55bd 9e1c e2bd
000000f0: 851b 61bd 75e8 043e dcac 15bd 2fc6 01bb
00000100: 6e0b 233e 0908 823c a23d fcbc a822 143d
00000110: 7862 093e cd1d f93d 1678 9dbd b4f5 d3bd
00000120: a2a1 b1bd 8df2 8abd 3995 d5bc 9e8b 333e
00000130: b2e4 193d cb68 cbbd 0794 a53d 0dad 723d
00000140: ebd0 1d3e 1143 85bd f4f7 fcbc 6fc7 d93d
00000150: e1a4 243e 5039 cbbd 0b3a dfbd 3747 71bd
00000160: ca91 533d 115b a2bd 0e6c 00ba 3443 a8b9
00000170: 4003 5b3d 500c e3bc 1987 923d 678c 523d
00000180: f86f 943c 724e 253d b68e 243e 6774 37bd
00000190: 77d8 2e3b 5521 153e 897f 31bc b39a 913d
000001a0: 197c da3c 276f 8ebd 6068 de3d f986 9cba
000001b0: 087e ec3c ab42 033a 6f50 88bc 451d 06bd
000001c0: 1cd6 353d 36b8 643d 5296 ad3d ff00 9abd
000001d0: 7752 41bc bf24 d03c af6f 113e 596d 013e
000001e0: 10f7 85ba 2aee 1ebd 012b 8cbd 3ec7 6a3c
000001f0: 4db5 f13d 0f8c 16bd 3678 dabd fc8f 193e

fc3.weight f4 [3, 128]
-0.046587896 -0.018713076 -0.009916691 -0.010283871 -0.059101284 -0.052419923 -0.075403474 0.07348703
0.048837967 -0.083306715 -0.113479905 0.031640634 0.026610112 -0.0006323433 0.0832194 -0.13758749
-0.005805419 0.016810762 -0.07356056 0.01690578 -0.06156471 0.011443264 0.034791987 0.022916589
-0.108753815 -0.09633351 -0.10394373 -0.031383995 0.025367288 -0.0050203893 0.0180296 0.0036845726
-0.11112983 0.027143296 -0.025373653 0.015009162 -0.015948156 -0.027284397 0.0045701116 0.04169143
0.064997055 -0.025452513 -0.06861112 -0.12888442 0.0073662773 -0.04701401 -0.09920025 -0.105648845
0.07733116 -0.05104401 -0.051688194 0.03850134 -0.055477012 -0.0053078285 0.054302067 -0.0068158517
-0.07341011 -0.050124656 -0.041537266 -0.038199957 0.007050219 -0.062109444 0.05094262 -0.007507655
-0.110346004 0.010160767 -0.034488406 -0.09342858 -0.022373395 0.025786687 -0.033126507 0.060336184
0.045278136 0.06738589 0.044285584 -0.12789284 0.032566015 0.011500261 -0.045373827 0.058811042
0.05645291 0.03893099 0.016034137 -0.0695956 -0.01114493 -0.0114726145 -0.028062861 0.021407383
-0.0475898 0.031323865 0.04409352 -0.023480006 -0.0363061 -0.0415911 -0.05670923 -0.020574622
-0.04379102 -0.03709255 -0.11756194 0.0242032 -0.06365678 -0.12080823 -0.06191263 -0.022345087
0.0015386377 0.03380458 -0.02005378 -0.013410934 -0.08271817 -0.012327246 0.06708975 -0.0018962433
0.008698463 -0.027122155 -0.0945201 -0.0076700584 -0.053654496 -0.03455036 -0.10419127 -0.08276999
0.02718814 -0.06869031 -0.05126689 -0.043645978 -0.03053045 -0.0005359277 0.057131585 -0.08554262
-0.038694195 -0.106027015 0.05334521 -0.08315062 -0.11928018 0.05022971 -0.030855168 0.06402862
-0.05429214 -0.15114012 -0.0031042572 -0.023138389 0.10554029 -0.01763305 -0.09288756 -0.14415987
-0.016616642 0.031189589 -0.00069163885 0.013704232 -0.15114352 0.037475284 -0.09902717 -0.081613794
-0.09503819 -0.04508658 0.024681203 -0.10621908 -0.1334778 0.01219767 0.03514696 -0.15561022
-0.1365451 -0.1825231 0.07663297 0.026837869 -0.09385535 -0.17927016 -0.042078495 0.03391693
0.032993548 -0.019870441 -0.10045299 -0.010027954 -0.041131046 -0.07616955 -0.0028561 -0.04029649
0.042648003 -0.011064538 0.050055753 0.09022494 -0.09913942 -0.049922716 0.06580914 -0.012008434
-0.13413276 -0.023976982 -0.016965836 0.04097682 0.050899807 -0.08454984 -0.10252994 -0.10672408
-0.09492551 0.0154146645 0.064829156 -0.14576668 -0.0663049 -0.1762275 0.011150613 0.058983203
-0.048115008 0.026686596 0.011965303 -0.13812661 -0.09126791 -0.01036463 -0.12457126 -0.008041535
-0.15659025 0.019477645 -0.06802486 -0.11741677 -0.1510717 -0.10148602 0.066807054 0.0020842883
0.015126813 -0.048300497 -0.16346137 -0.009653867 -0.092045784 0.0422846 -0.09598918 -0.09822565
-0.18088323 -0.023684835 -0.107905895 -0.020049369 -0.0050931093 -0.16597183 -0.0040017343 -0.09476144
-0.14545918 0.03294742 -0.1514161 -0.10714968 -0.097480565 -0.08620517 -0.05548215 -0.013013529
-0.10761781 -0.0388988 -0.056707744 0.00021067256 -0.038151283 -0.027492007 -0.15175432 -0.111190334
0.08946853 0.04984451 0.080227196 0.03965186 -0.045603346 -0.044615243 0.015885673 -0.116901584
00000000: f3d2 3ebd 2a4c 99bc 9e79 22bc ae7d 28bc
00000010: 3014 72bd 46b6 56bd 236d 9abd 5e80 963d
00000020: 520a 483d b69c aabd 2768 e8bd 9c99 013d
00000030: 73fd d93c d7c3 25ba ef6e aa3d bce3 0cbe
00000040: 623b bebb b9b6 893c eba6 96bd fe7d 8a3c
00000050: 472b 7cbd 877c 3b3c 0b82 0e3d 92bb bb3c
00000060: 52ba debd 814a c5bd 73e0 d4bd 818c 00bd
00000070: 0fcf cf3c 1482 a4bb d0b2 933c df78 713b
00000080: 0998 e3bd 9e5b de3c 68dc cfbc fde8 753c
00000090: b5a5 82bc 8783 dfbc e0c0 953b a2c4 2a3d
000000a0: 2d1d 853d ca81 d0bc fd83 8cbd 47fa 03be
000000b0: d060 f13b c391 40bd 8029 cbbd 6c5e d8bd
000000c0: cd5f 9e3d 8613 51bd 00b7 53bd 95b3 1d3d
000000d0: dd3b 63bd 4bed adbb d86b 5e3d 8257 dfbb
000000e0: 0a58 96bd 834f 4dbd fb22 2abd 8f77 1cbd
000000f0: 8605 e73b 7966 7ebd 35a9 503d c602 f6bb
00000100: 16fd e1bd 5879 263c b743 0dbd 7c57 bfbd
00000110: 6948 b7bc 9a3e d33c a9af 07bd 1323 773d
00000120: 9175 393d 9d01 8a3d cd64 353d 57f6 02be
00000130: f163 053d 976b 3c3c e8d9 39bd d9e3 703d
00000140: 2b3b 673d 1a76 1f3d 065a 833c 2388 8ebd
00000150: 3999 36bc a2f7 3bbc 16e4 e5bc 895e af3c
00000160: 86ed 42bd 744d 003d 689b 343d 2459 c0bc
00000170: b5b5 14bd 6e5b 2abd f047 68bd 1c8c a8bc
00000180: 365e 33bd 5cee 17bd 50c4 f0bd ca45 c63c
00000190: 7c5e 82bd 4e6a f7bd 1998 7dbd 0b0d b7bc
000001a0: 1dac c93a ac76 0a3d d347 a4bc 89b9 5bbc
000001b0: 2568 a9bd 38f8 49bc 5a66 893d 5e8b f8ba
000001c0: 0084 0e3c 482f debc c193 c1bd 1d55 fbbb
000001d0: d1c4 5bbd ae84 0dbd 3c62 d5bd 5083 a9bd
000001e0: aab9 de3c 81ad 8cbd 3bfd 51bd 20c6 32bd
000001f0: ff1a fabc 807d 0cba cf02 6a3d f830 afbd
00000200: ce7d 1ebd b124 d9bd 8280 5a3d df4a aabd
00000210: 2b49 f4bd abbd 4d3d fac3 fcbc 7021 833d
00000220: 6f61 5ebd 7ac4 1abe cb70 4bbb b88c bdbc
00000230: 8225 d83d 3073 90bc d53b bebd a59e 13be
00000240: a01f 88bc 4f81 ff3c 194f 35ba b787 603c
00000250: 5ec5 1abe af7f 193d c2ce cabd 2225 a7bd
00000260: 62a3 c2bd b5ac 38bd 3c30 ca3c 6489 d9bd
00000270: 68ae 08be bcd8 473c 42f6 0f3d 4958 1fbe
00000280: 7bd2 0bbe 56e7 3abe bff1 9c3d 17db db3c
00000290: 3c37 c0bd 9992 37be 805a 2cbd 7bec 0a3d
000002a0: 3e24 073d 56c7 a2bc 4cba cdbd 4a4c 24bc
000002b0: 0779 28bd c8fe 9bbd 682d 3bbb ef0d 25bd
000002c0: acaf 2e3d 0948 35bc 4307 4d3d dac7 b83d
000002d0: 9c09 cbbd c37b 4cbd f1c6 863d 06bf 44bc
000002e0: 195a 09be 606b c4bc f0fb 8abc 4fd7 273d
000002f0: 517c 503d 7728 adbd 38fb d1bd 2892 dabd
00000300: 4e68 c2bd ca8d 7c3c 26c5 843d dc43 15be
00000310: ddca 87bd fb74 34be 10b1 363c 5f98 713d
00000320: 3e14 45bd d99d da3c 1e0a 443c 1071 0dbe
00000330: acea babd 69d0 29bc 371f ffbd a4c0 03bc
00000340: 3259 20be 958f 9f3c 9e50 8bbd 3478 f0bd
00000350: 8ab2 1abe e7d7 cfbd 23d2 883d 8e98 083b
00000360: 74d6 773c bed6 45bd 6b62 27be 412b 1ebc
00000370: 8082 bcbd 9e32 2d3d fa95 c4bd 882a c9bd
00000380: 7439 39be b306 c2bc c4fd dcbd 933e a4bc
00000390: 19e4 a6bb 85f4 29be fb20 83bb 4912 c2bd
000003a0: 40f3 14be e0f3 063d d20c 1bbe 4b71 dbbd
000003b0: e4a3 c7bd 568c b0bd 4041 63bd b236 55bc
000003c0: ba66 dcbd 5954 1fbd 6146 68bd fce7 5c39
000003d0: 8544 1cbd eb36 e1bc 7c65 1bbe c2b7 e3bd
000003e0: 473b b73d c229 4c3d 284e a43d fd69 223d
000003f0: 93ca 3abd 79be 36bd ac22 823c 196a efbd

fc3.bias f4 [3]
-0.064264596 -0.07350043 0.13808784
00000000: 289d 83bd 6587 96bd e666 0d3e
